models/v2/EncDec_Noise_xy_zone_ttc_epoch_500_h-h_8-12_penalty_false.pth (torch, 88500 bytes, 10 tensors)

encoder.0.weight f4 [64, 120]
00000000: 5bc6 0d3f 498c 0ac0 f159 90c1 1aa4 12c1
00000010: de27 7340 d8fe 8fc0 f66a 49be 098a bbbe
00000020: b860 a5bd 485b 97bc a03e 0bbd acfd 5fbd
00000030: 5734 77bd 0fc4 873c 30f6 92bd 7c7f fa3e
00000040: 04f6 03c0 d363 5dbf 6fb9 8bc0 a049 5b40
00000050: cc01 1b3d a621 34be 00f8 abbe a54f 18bc
00000060: 2fbd 37bd 9435 91bd ec60 6bbc 0bfd 343c
00000070: 3b45 94bd ccc2 4bbd fdf0 fe3e 908c e1bf
00000080: c395 0d3f c248 4bc0 eef7 893f 4cfa 0d3f
00000090: 5fce 3cbe 8331 f6be 92d4 4cbc 57a8 92bd
000000a0: b83c 1b3d 9947 b0bc 0a7f 84bd 9966 7dbd
000000b0: 01e2 14be a61f c83e be6e a9bf b3de 86bf
000000c0: 6a75 c9bf bfb3 05bf c3c9 c8bf b204 5bbd
000000d0: 6f09 c3be 2b02 5bbc e4f5 c6bc 4d0a 31bc
000000e0: 7123 08bc de12 50bc c168 7ebc 9362 2cbe
000000f0: 9664 163e dc21 f7be 3b74 fc3f 7d54 17c0
00000100: 8cd8 24c0 de8c 89bf 888e 04bd dee2 ecbe
00000110: 74f3 bebb 4694 10be 1599 9c3b 6d03 0b3c
00000120: 2ff8 11bd 3ba7 a0bb 96f1 f6bd ef40 3dbe
00000130: 4494 273f 7c19 373f 6fee ddbf 2121 4ac0
00000140: d58a 6e3f b226 833b acf9 eebe 746f 19bc
00000150: 0ec9 9cbc 051d 9dbd dc90 48bb 79bb 48bc
00000160: 19a5 9abc 6c1f 91bd 25f3 38bf c131 2440
00000170: db61 db3f ac31 51c0 0157 42c0 1de0 0640
00000180: 2e23 5dbd c40a c2be e99b 4dbd 659e 06bc
00000190: e65b cebc d603 52bd 94f0 4b3b d65b fa3d
000001a0: 0714 18be 933b a8bf a7ce 9c40 3bee 4641
000001b0: 39cb 36c0 cdac dec0 3f93 9540 4107 f4bd
000001c0: 07ec ebbe 9aa9 6fbd 2a9c 5cbc 341f bebd
000001d0: c43b 0f3c 524e 2abd 669b a63d ee17 2ebd
000001e0: afa2 983d 007f 4f40 c7b7 c73e dae5 2d3f
000001f0: ab96 2b40 6eb3 82c0 bb9c 7fbe ecfb 47bf
00000200: a103 5b3d dd24 683d 0352 64bd 674c 08bd
00000210: dcc0 833d e8cd 60bc 10e2 26bd f7af b63c
00000220: 4d18 1540 60e1 6d3f 45e9 3f3e 79c3 0140
00000230: 9b13 79c0 6733 69be 2957 5bbf 906c 3ebe
00000240: ffed 1abe 8c23 c6bc d08a 1e3d 3de7 a1bd
00000250: 643e 5f3d c84b 5e3c 0699 993d 0e9c af3f
00000260: e5a1 00c0 5d43 0fbf 19b8 2b3e e776 14c0
00000270: f898 7abe 1530 a2bf 2312 a3be 1ac3 44be
00000280: 5335 4dbd 8cbd 883c 98e9 8d3c 4079 b9bd
00000290: 28cb 88bd f1cd bebd 54de 1f3f c5f4 69c0
000002a0: 3b3e cfbf 3fce 4bc0 5712 03c0 f766 7bbe
000002b0: f062 b8bf 0b44 bcbd 6614 84bd 38bf f3bd
000002c0: 1cd1 00bd acc9 623d 041b 7dbd 1840 943d
000002d0: 17dc 99bc f40c 15be 8a8b 71c0 2d50 ec3d
000002e0: 4872 96c0 d2aa 82bf 7b1c 08bd cba5 a5bf
000002f0: dc81 bebe 4d4f d5bd 81ff c6bd 86e8 ab3d
00000300: 5e43 a8bd 40cd 8dbd 38c1 02bd a78b 48bd
00000310: d87f 8cbf 4c7e 54c0 c27d e23f 67f7 4ec0
00000320: 9ea0 16be 6051 0abe acba 91bf f933 28bf
00000330: ae06 4dbe 9007 a8bb 4065 493d cf7e 5ebd
00000340: 763d 82bd 0010 26bc c7dd 32bd dff1 ebbf
00000350: b092 3ec0 070b 0f3f ae73 09bf 8070 9b3f
00000360: 8c59 cabb c24f 63bf b7c3 41bf d2c3 22be
00000370: ee94 443c a827 b7bd 5c7b 743d 24d2 3c3d
00000380: b846 4cbc 9dd9 ef3d 9113 24c0 8e50 1bc0
00000390: 3adf bd3f 74d2 a140 be01 c83f 395a 1cbd
000003a0: bc52 a7bf 9b52 9a3c 84df 5fbe f518 6cbd
000003b0: 6086 79bc 40ab d23c 86e9 02bd dcfd 473d
000003c0: 1409 e1be 5cf6 7cbe b4eb b53d d331 6fbe
000003d0: 0e64 5dbd 8003 9d3d 136a 12bd d34a 90bd
000003e0: e16c eabd aa7d 493c b358 c1bc 2e83 bf3c
000003f0: 39ce 99ba 11ae 5e3d e085 f0bc 5031 e7be
0.5538079 -2.1648123 -18.043917 -9.165064 3.7993083 -4.499859 -0.19669709 -0.3662875
-0.08075088 -0.018476143 -0.03399527 -0.05468528 -0.06035265 0.01657298 -0.07175863 0.48925388
-2.0618906 -0.86480445 -4.366386 3.4263687 0.03784351 -0.17590961 -0.33587646 -0.0092963325
-0.044858154 -0.07090297 -0.01436637 0.011046658 -0.07239767 -0.04974632 0.49793234 -1.7621021
0.55306643 -3.1763158 1.0778787 0.5546005 -0.184381 -0.4808465 -0.012501853 -0.071610145
0.037899703 -0.021518515 -0.06469543 -0.061865423 -0.14539339 0.39086646 -1.3236921 -1.0536712
-1.5738957 -0.52227396 -1.5686573 -0.053471275 -0.38093135 -0.013367216 -0.024287172 -0.010805679
-0.008309231 -0.012699811 -0.015527905 -0.16834478 0.14686808 -0.4826802 1.9722971 -2.3645318
-2.575717 -1.0746114 -0.03236249 -0.46266836 -0.0058273617 -0.14119062 0.004778991 0.0084847035
-0.035637077 -0.004902748 -0.120577976 -0.18481801 0.6546061 0.7152326 -1.7338389 -3.158272
0.9318059 0.0040024156 -0.4667486 -0.009364951 -0.01913884 -0.07671551 -0.003060392 -0.012251728
-0.018877553 -0.07086071 -0.7224601 2.5655367 1.7139238 -3.2686567 -3.0365603 2.1074288
-0.053988628 -0.3789884 -0.050197516 -0.008216475 -0.025190305 -0.05127319 0.0031118738 0.122245476
-0.1485139 -1.3143181 4.900226 12.433162 -2.8561537 -6.958594 4.6742244 -0.11915446
-0.46078512 -0.058511354 -0.013464967 -0.09283295 0.008742277 -0.0415786 0.08135109 -0.04250329
0.074529044 3.2421265 0.39007398 0.6792885 2.681071 -4.084403 -0.24962132 -0.7811878
0.053470258 0.05667578 -0.055742275 -0.033275988 0.064332694 -0.013720967 -0.040742934 0.022300703
2.3296082 0.9292202 0.18741329 2.0275557 -3.8918216 -0.22773515 -0.8567987 -0.18596101
-0.15129851 -0.024186872 0.0387066 -0.07905433 0.05450286 0.013567872 0.0749989 1.3719499
-2.0098813 -0.55962163 0.16769446 -2.3197572 -0.24472415 -1.2670923 -0.31849775 -0.1921505
-0.050099682 0.016691945 0.0173233 -0.0905633 -0.06679374 -0.09316624 0.6244862 -3.6555645
-1.6190866 -3.1844633 -2.0479944 -0.24550997 -1.4405193 -0.09192666 -0.06449203 -0.119017065
-0.031449422 0.05536811 -0.061793342 0.072387874 -0.018781705 -0.14555722 -3.7741418 0.1153873
-4.7014503 -1.020838 -0.033230286 -1.2941221 -0.3720845 -0.10415516 -0.09716702 0.0839396
-0.08215974 -0.06923914 -0.03192255 -0.048961308 -1.0976515 -3.3202085 1.7694628 -3.2338502
-0.14709708 -0.13507605 -1.1385093 -0.65704304 -0.2002208 -0.0051278546 0.049168825 -0.054320153
-0.06359379 -0.010135651 -0.043668535 -1.8433188 -2.977703 0.558762 -0.5369214 1.2143707
-0.0061752256 -0.88793576 -0.7568926 -0.15895012 0.011998398 -0.08943111 0.059687957 0.046098843
-0.012468033 0.11711428 -2.5636942 -2.4267917 1.4833748 5.05694 1.5625532 -0.03817198
-1.3072124 0.018838217 -0.21862608 -0.05764099 -0.015229791 0.025716424 -0.031960987 0.048826084
-0.4395224 -0.24703354 0.088828474 -0.2335885 -0.054050498 0.07666683 -0.03574569 -0.070455216
-0.11446548 0.012298027 -0.023601865 0.023377981 -0.0011734433 0.05436522 -0.029360712 -0.4515481

encoder.0.bias f4 [64]
00000000: da1b 6041 ac7e 9041 3198 afbe 407a 6b40
00000010: 254c a23f 8563 8440 a93b cabd 479a 373f
00000020: 9d85 c2bd d853 8fbe e8b3 72bd 2d9b 5abe
00000030: 92c8 4f3e 6c6b 33be 6bf9 ca3f e776 26be
00000040: 1dfa ff3f 5875 a4be 449e 07be ae90 0ec0
00000050: 520e 3640 9edb 4841 d624 a0be dddf 2840
00000060: b861 7540 4c63 59be 67a2 2cbf deb6 143e
00000070: 13c0 81be 6881 8cbf f7d1 babe 5d49 3b3f
00000080: ae70 db3e 326c f9bd be29 5ec0 43cb 0740
00000090: 4d62 20be 0022 9bbe 7e6e 873f f004 1a40
000000a0: 4d5d e5bf 9fcd f6bd 6138 ba3b b06f 4640
000000b0: 835c 2340 2db8 37bf feb0 03bf 3f0e 3abf
000000c0: 6ca8 1cbf 7657 1fbe 16c9 0cbe 0bc1 06bf
000000d0: fe1e 883f fb82 eabd 0031 95bd 0abc 4abe
000000e0: 90aa dabd 412a 0ec0 0123 b5bd c520 01be
000000f0: cdd1 ad3e bcbc 06be 2b89 bcbf f3da 3ebe
14.0068 18.061852 -0.342958 3.6793365 1.2679487 4.1371484 -0.098746605 0.71719784
-0.09498141 -0.27993655 -0.059253603 -0.21348257 0.20291355 -0.17521447 1.5857366 -0.16256295
1.9998204 -0.32120776 -0.13243967 -2.2275805 2.844624 12.5536175 -0.31278104 2.6386635
3.8340893 -0.21229285 -0.67435306 0.14522883 -0.25341853 -1.0976992 -0.36488315 0.7315882
0.42859405 -0.1217884 -3.4712977 2.121781 -0.15662499 -0.30299377 1.0580595 2.4065514
-1.7919098 -0.12050938 0.0056829904 3.1005669 2.5525215 -0.71765405 -0.51441944 -0.7267799
-0.6119449 -0.15560707 -0.13748583 -0.5263831 1.0634458 -0.11450764 -0.07284737 -0.19798294
-0.106770635 -2.221329 -0.08844567 -0.12610157 0.33949128 -0.13157934 -1.472936 -0.1863821

encoder.2.weight f4 [64, 64]
00000000: f70a 9bbd 44a5 30bd 0be0 87bd 5de9 163c
00000010: 4570 51bd 1afe 803d 6c2d b5bd 06e3 723d
00000020: 428f 373c cecb edbd 1287 09be 76cd 06be
00000030: da64 5a3d a955 d4bc c93e 87bd d34d c0bd
00000040: cf45 613d e08d 853d 5eec 2f3d a18d 60bc
00000050: cfab 8ebd 4948 06be 0ccd 44bd b337 f8bd
00000060: a5eb 8abe 2207 733c 6ae8 9f3d 3397 34be
00000070: cd09 8d3d 6128 0ebe 3381 86bd 5250 20bd
00000080: be82 0a3e 9b6c acbd 42ba 88be ef56 7d3c
00000090: 781b c5bc 4208 23be d98d 0cbe 1467 a5bd
000000a0: 55c8 02be dd35 aabc 5cb7 cdbb d9b6 18be
000000b0: 4499 09be 10be 20be e82f e1ba 2f59 a7b9
000000c0: 54f3 073d 3f3c 92bd c478 8ebc 22f4 bd3d
000000d0: b0c8 83bd 7132 bd3c cf74 58bd eecf b0bd
000000e0: 0cc8 bdbd 6b9d 62be b5ca 203c 8c1e 2abd
000000f0: 5c98 693c 7d05 233d 0cd8 5ebe eb3d 51bd
00000100: 61d4 b03c 2ba6 903f c8b2 96bf f64e c6bd
00000110: d02a 70be 50fb e6bd 5645 80bd edeb 97bd
00000120: a015 fa3d 89e5 07be ddc2 323d b558 5b3b
00000130: a511 4e3d f160 b43b 7286 f5bd aa0f f8bd
00000140: 5b26 ff3c c65e d8bc 1324 0fbc 2993 3abc
00000150: cf89 a1bd 7d68 57bd e217 92bd d946 663d
00000160: a6d8 eabf fe9f a9bc f621 253f f5fb 95bd
00000170: c9d7 1b3d 1753 423f e9c7 d3be fdff 1fbf
00000180: ed34 02bc 274e f2bd 4438 5abe 61ca 853c
00000190: 0ed7 2f3d dfdd d4bd 8012 1cbe 826f 21be
000001a0: 0e04 ee3c f757 ecbd c662 09be 25c9 103c
000001b0: f81b 4ebd 7f4d b2bd 889a bfbd 27c6 633e
000001c0: 67dd 8ebd d31c a43c 8d7f 1f3d 2ada f13c
000001d0: 641d 8abe 1b29 02bf 4c42 28bd 2306 be3e
000001e0: d128 07be fb01 da3d 670b 06bb 8a03 79bc
000001f0: 5bba 37be 4555 903d 2d6c 66be 3ba5 d2bd
00000200: a325 4cbd 8f4c 0a3e 2be7 2d3e 4be4 46bd
00000210: b622 27bd bb55 1d3d 7024 3cbb 171d 6e3d
00000220: 3b46 09bd 27d7 88bd 44a3 243e 4eee c2bd
00000230: eb02 b2bc 963f 4fbd 3912 3fba 6fcb 8bbd
00000240: f513 d13d ce9f a63d 5b94 14bd b747 c4bd
00000250: cab3 c1bd 21fe a5bb a986 9cbd 4ba6 183d
00000260: 7201 533e dbf7 f5ba ce51 92bd a07c 0dbe
00000270: 81ee ddbd db53 083e 9e5b 153e 7437 82bd
00000280: d845 463d 5329 433c 3423 24bd 78ba c7bd
00000290: a763 80bd 3ca8 93bd e7d6 e43b 00ab 28bd
000002a0: 641c 4fbd ac49 b13d 0980 4ebc 4dff 923c
000002b0: d4cc c6bd 6140 77bd 75cd 05be 270a 993e
000002c0: 043f 42be 16f8 9abd 4a0d 473d 193f 0dbe
000002d0: e5c1 573d b1c4 c9bc d692 dc3d 0cfe af3d
000002e0: c7d0 a4bd 737c b13d 77bc 813d 7188 2a3d
000002f0: 8348 68bd 8440 45bd 0d3b 3fbd f462 acbd
00000300: d6f3 af3f 0d9b f73d 8cdd 8dbe d7c1 98bd
00000310: f5bf 02bf f476 c73e 4f9c d539 b095 82bd
00000320: 15b0 d23e 7166 5abe ef3a 39bd 155b c33d
00000330: 2477 f43d 8b0c b53d 950f 9abe c94b 72bd
00000340: 2024 4a3e 2a9c 103e 17a1 59bc 13be a3bd
00000350: 2968 133e 75b1 943e 3bd6 b83c a1a1 8e3e
00000360: a028 91bf 8e7b bb3d ee05 133e 5d09 be3c
00000370: ab0e 123d 5113 9a3d d4f9 783f 968d a23d
00000380: f8be ee3c bc7c 26bd 068b 92be 3793 383e
00000390: 92ed bb3d 653e 853d 2194 2cbf d4dd 443f
000003a0: 1709 f53d 6ca1 9c3c 92dd 9cbd 5314 ddbc
000003b0: 3718 73bb 2350 8b3d 3c5c ebbe 54ac 223c
000003c0: 8753 b73e e1ab 92bd 2755 9dbd 028c 31bd
000003d0: 46b3 a93e 80db 023f 6b89 f53c dda2 d33e
000003e0: 4157 f6bd 16ac 9e3c 5f20 263e ee6b 97bc
000003f0: 9094 17be 085d cfbd 280d 0cbe ceca 203e
-0.07570451 -0.04312636 -0.0663453 0.009210912 -0.05113246 0.06298466 -0.08846554 0.059298538
0.011203589 -0.11611138 -0.13430431 -0.13164315 0.053318836 -0.025919752 -0.06603772 -0.09389844
0.054998215 0.06521201 0.042950027 -0.013705642 -0.06966364 -0.13113512 -0.04804711 -0.12119999
-0.27132908 0.014833244 0.07808001 -0.17635803 0.06886635 -0.13882591 -0.065676115 -0.0391391
0.13526437 -0.08419152 -0.26704603 0.015462621 -0.02406095 -0.15921119 -0.13725986 -0.08076301
-0.12771733 -0.020777637 -0.0062779617 -0.14913501 -0.13437372 -0.15697503 -0.0017180415 -0.0003191917
0.03319104 -0.07140397 -0.01739157 0.0927508 -0.064347625 0.023095341 -0.052845772 -0.086334094
-0.092666715 -0.22130363 0.009813954 -0.041533038 0.014257517 0.039800156 -0.21762103 -0.05108444
0.021585645 1.130071 -1.177331 -0.09683029 -0.23453832 -0.11278403 -0.06263225 -0.07418046
0.12211156 -0.13271154 0.043642867 0.0033469622 0.050309796 0.0055047204 -0.11988534 -0.12112363
0.031146219 -0.026412379 -0.008736628 -0.011387625 -0.07887613 -0.052589882 -0.071334615 0.05621991
-1.8347366 -0.020706173 0.64504945 -0.073234476 0.038047586 0.75908035 -0.41363457 -0.6249998
-0.007947189 -0.118313126 -0.21310526 0.016331853 0.0429297 -0.10393881 -0.15241432 -0.15765193
0.029054668 -0.115402155 -0.13416585 0.008837019 -0.05031964 -0.087061875 -0.09355646 0.22243558
-0.06975823 0.020033276 0.03894 0.029522974 -0.26975548 -0.5084397 -0.04107885 0.37114057
-0.13199164 0.10644909 -0.0020453574 -0.015198598 -0.17942183 0.07047514 -0.22502203 -0.102854215
-0.04984058 0.13505767 0.16982715 -0.04855756 -0.040804587 0.038411837 -0.0028708242 0.05813321
-0.033514243 -0.06681662 0.16077906 -0.09518109 -0.021729907 -0.05059775 -0.0007288787 -0.06825911
0.102088846 0.08135949 -0.036274295 -0.09583991 -0.0945812 -0.005065695 -0.07642872 0.037267964
0.2060602 -0.0018765883 -0.07144509 -0.13817072 -0.10836507 0.13313238 0.1458573 -0.06358233
0.048406452 0.011911708 -0.040072635 -0.09752363 -0.06269007 -0.072098225 0.006983626 -0.041178703
-0.050564185 0.0865663 -0.012603768 0.017944003 -0.097070366 -0.06036413 -0.13066657 0.29890558
-0.18969351 -0.0756685 0.048596658 -0.13793601 0.052675147 -0.024629923 0.10770194 0.085933775
-0.080476336 0.08666315 0.06334775 0.041634027 -0.056709778 -0.04815723 -0.046687175 -0.08417311
1.3746288 0.120901205 -0.2770809 -0.07458847 -0.51074153 0.38957942 0.00040742985 -0.06376207
0.41149965 -0.21328141 -0.04522222 0.09538857 0.11936787 0.08840283 -0.30090013 -0.059154306
0.19740343 0.14122072 -0.013283036 -0.07995238 0.14395203 0.2904164 0.02256309 0.27857688
-1.1340523 0.091544256 0.14357731 0.023197824 0.03565852 0.075232156 0.9725621 0.079371616
0.029143795 -0.0406463 -0.2862169 0.18024908 0.09176172 0.065060414 -0.67413527 0.7690098
0.119646244 0.01911994 -0.07659449 -0.02698723 -0.003709329 0.06802394 -0.45968807 0.009928782
0.35805914 -0.071616895 -0.07682257 -0.043346412 0.33144587 0.5111618 0.029972753 0.41335192
-0.12028361 0.019369166 0.16223286 -0.018484082 -0.14802766 -0.10125166 -0.13676894 0.15702364

encoder.2.bias f4 [64]
00000000: 68a3 e6bc 7b79 fb3d ebe5 2fbe 680c 823f
00000010: 95c1 63bd 19b4 273d 10ef edbd 331f 23be
00000020: efd6 173e 34ea 123f 05b9 c6bd f6be e7bd
00000030: f7f8 7cbf 47d8 22be 3dc2 9cbd ca66 863d
00000040: 3138 1abe 97e7 40bd a96f 8e41 e296 603e
00000050: ff52 5bbd 9f98 a43d 21d7 2dbe 1118 b9bd
00000060: 4e8c fa3e aa59 16be 6788 14ba faab 8ec0
00000070: 6837 d5c0 06c1 0639 9efb 25be 88d1 ccbd
00000080: eec1 163f 0cbd a7bf 5589 7e3e fc9a cbbd
00000090: 7052 aebd 110c 42be 0c34 0c40 c6cd 5abe
000000a0: 3f66 1c40 66fb bfbc a32d 6bbc 55e8 f23e
000000b0: 1d90 97bc 1415 b3bd c625 3dbe d058 5abe
000000c0: bc89 3cbe 9dfc 9abc e406 13be fb1d 0fbe
000000d0: eecd c2bd c947 55be 0fd8 adbd 4d2b 72bd
000000e0: a421 a0be cb01 12be 2803 4040 e3c0 d7bd
000000f0: a5f8 53bb 7c50 883c 4142 9abe 77a0 f9bc
-0.02815409 0.1227903 -0.1717755 1.0160036 -0.055604536 0.04094324 -0.11617863 -0.1592987
0.14828084 0.57388616 -0.097032584 -0.1131572 -0.9881739 -0.15902816 -0.076542355 0.06562574
-0.15060498 -0.04709586 17.804522 0.21932557 -0.053545948 0.08036923 -0.16976596 -0.090377934
0.4893517 -0.14682642 -0.00056660775 -4.458493 -6.6630135 0.00012851143 -0.16209266 -0.100009024
0.58889663 -1.3104568 0.24857076 -0.0994167 -0.085118175 -0.18949915 2.1906767 -0.21367559
2.4437406 -0.023435306 -0.014354142 0.4744288 -0.018501336 -0.08744255 -0.1847144 -0.21322942
-0.18411916 -0.018919284 -0.14358097 -0.1397628 -0.09511934 -0.20828165 -0.084884755 -0.059123326
-0.31275666 -0.14258496 3.0001926 -0.10534837 -0.0032344249 0.01663994 -0.30128673 -0.030472023

to_latent.weight f4 [16, 64]
00000000: 8aa0 823d 4264 b9bd 9818 3abd 64ba 323d
00000010: be53 8ebd b23d a7bd 2ca7 fdbd e0ac 4ebd
00000020: fcbe ef3d d0f5 04bd 7496 62bd bc29 66bd
00000030: 00dd f43d e4d1 cdbd b44d 013d 588b f5bc
00000040: b84d 0bbd c0ab 2abc 6262 bfbd 48c5 1e3d
00000050: 10bf 9c3d e852 edbd 8202 923d e0c9 6ebc
00000060: 0c12 6ebd 7e22 9d3d 00c1 e5ba 86d0 a3bd
00000070: 4003 c73c 78ec d7bd 96aa a0bd 98d2 edbd
00000080: a0b9 f63b b8bc e0bd c274 9d3d ee68 dabd
00000090: 4a20 e5bd 284f 4ebd 0064 d3b9 cede d5bd
000000a0: 04f7 153d 70f4 74bc 680b 84bd 34c4 98bd
000000b0: 6812 acbd fa3c a63d 5622 84bd a6b0 babd
000000c0: 801d ed3a 0020 58b8 f431 8bbd 5894 1b3d
000000d0: 88ea b83c 2a32 f1bd a045 b03b 9a68 d43d
000000e0: 30fc 6a3d 30b1 733c c470 543d cceb d73d
000000f0: c002 1d3b 3ca8 053d 409f 9cbc e006 04bc
00000100: 686b cf3c 44c4 903d deb0 96bd 5832 8dbc
00000110: c4c4 a7bd b83e 7ebd 06a3 c33d 7c9e 643d
00000120: e849 ebbc 34fc 51bd bcd1 18bd 6865 c7bd
00000130: e04d 97bc 785f b73c 5251 debd c4be e33d
00000140: c089 083d f0ac 143d 780d efbd 1886 dabd
00000150: 988f 983d 0062 d33b 9888 61bd 0e60 fe3d
00000160: c09d e2bb 003d eb3a 103d 54bd 2866 f53d
00000170: e859 993c a41e 4bbd cca1 3d3d 8c29 3d3d
00000180: ca8f c8bd 9211 ad3d 08a6 cfbc 10b0 853d
00000190: 0095 663b 9a94 be3d c88d 0f3d a6aa 86bd
000001a0: 005c 1e3b a082 b3bd 0c32 bd3d a0bf 9f3b
000001b0: 7c73 f63d 40b9 143b c0dc db3d 8c81 683d
000001c0: c849 0a3d 0e2b 90bd 0ac4 cabd dad9 e43d
000001d0: 2c20 e33d a095 a8bb fc03 af3d ec91 3cbd
000001e0: 68c9 5e3d 5000 c63c d084 943c 80f3 cebb
000001f0: a6df bbbd 200a 153d d8ca 7a3d 1a8a ddbd
00000200: c49c 1cbd 5afc b33d 14f0 4ebd a840 1ebd
00000210: 92d9 e6bd dc68 443d d04e 4b3d 40ca 66bc
00000220: be0f e7bd 00fd 213d b897 773d d818 fa3c
00000230: f88c e4bc a6dc ff3d c059 a13c a03b 4bbc
00000240: 0011 5fbd 203f fbbb 100e d33c 7892 dfbc
00000250: 640c babd d861 e7bd 2091 d4bc e42a a8bd
00000260: 0025 9a3d 400b c0bb 3ec5 ec3d fc7c 3dbd
00000270: fc07 6bbd c075 9bbc cc96 a03d c07d 9fbd
00000280: ec84 c6bd 4c23 60bd 4059 f3bd dc67 943d
00000290: 00e9 9dbd 0084 113d 505b 31bc 0009 413b
000002a0: 586f d43d 7422 983d 9044 b03d 5c7c eb3d
000002b0: b251 a33d 9699 e03d 808e 0b3d de64 ed3d
000002c0: bce7 ab3d 2a00 c7bd ca41 d4bd 409b ffbb
000002d0: b830 8cbd a2c5 ebbd 34d4 f7bd 327f dd3d
000002e0: 480d 6e3d e07f fe3d 0063 d93b 005b fa3b
000002f0: 6c39 46bd 10b0 da3c 3af6 da3d ea59 90bd
00000300: 1e59 ee3d 9c46 243d d089 babd 78e8 473d
00000310: caab d3bd 3c80 4dbd 225e b3bd 02a4 e7bd
00000320: e0e4 88bd 76b6 b93d 6034 9dbd 203b e8bb
00000330: 58e3 98bd e0e6 03bd de1c a6bd 801e f93d
00000340: 9434 843d 1272 813d 6e4f ad3d 70b6 84bd
00000350: c074 53bd a08a 203c 7a9b 81bd cc26 fabd
00000360: 387f 1ebd d002 c23d 3caf a4bd 66d5 9c3d
00000370: b435 5b3d b410 e63d a43f 7d3d 1ad0 9e3d
00000380: 601c 0cbd 9676 ccbd 86bd e63d dc4c 183d
00000390: 7c4f 68bd de6d 9a3d acdf 8d3d 645d 41bd
000003a0: d0cf afbc 7643 f13d 60af e2bd c0fb 913d
000003b0: d436 17bd 18da c33c 208d d3bd 5ac3 dbbd
000003c0: d0f6 133c dc82 cebd 8ccc febd 74bd 85bd
000003d0: 1ae3 ef3d 2017 db3d 6e3d cebd 74e0 3f3d
000003e0: 0033 1ebd d272 ecbd 7870 c23d 284c e4bd
000003f0: f8e1 bebc 80a5 abbb 9e5f a1bd a4b2 a33d
0.06378277 -0.09052326 -0.04543361 0.043634787 -0.06949566 -0.08166064 -0.12385401 -0.050457835
0.11706349 -0.032460988 -0.055319265 -0.056192145 0.11956215 -0.10049799 0.031568244 -0.02997367
-0.034009665 -0.010416925 -0.09344937 0.03876236 0.0765363 -0.11588079 0.071293846 -0.014574498
-0.05812268 0.076725945 -0.0017528832 -0.07998757 0.024293542 -0.1054315 -0.07845037 -0.11612433
0.0075294524 -0.10973495 0.076882854 -0.10664545 -0.11187799 -0.050368458 -0.00040319562 -0.10442887
0.036612526 -0.014950857 -0.06447488 -0.07459298 -0.08401948 0.08117099 -0.064518616 -0.09115724
0.0018090457 -5.1528215e-05 -0.06796637 0.03798327 0.02257277 -0.11777146 0.0053793937 0.10371514
0.05736941 0.014873788 0.051865354 0.105430216 0.0023957938 0.032631144 -0.019118905 -0.00805828
0.02531977 0.07068685 -0.073579535 -0.01723592 -0.08191827 -0.062071532 0.09552579 0.055815205
-0.028721765 -0.05126591 -0.037309393 -0.097361386 -0.01846975 0.02238439 -0.10855354 0.1112037
0.033334494 0.03629774 -0.11672491 -0.106701076 0.07449263 0.0064508915 -0.055061907 0.12420665
-0.006915778 0.0017947257 -0.051816046 0.119823754 0.018719628 -0.049589768 0.04629688 0.0461822
-0.097930506 0.08450617 -0.025347725 0.06527722 0.0035184026 0.09305687 0.035047323 -0.06575517
0.0024163723 -0.08765149 0.09238061 0.0048751384 0.12033746 0.0022693425 0.10735464 0.05676417
0.03376177 -0.07039462 -0.09900673 0.111743644 0.11090121 -0.00514479 0.08545682 -0.0460376
0.054391295 0.02417007 0.018129736 -0.0063156486 -0.09173517 0.03638661 0.061228603 -0.108173564
-0.03823544 0.087883666 -0.050521925 -0.03863588 -0.11271967 0.047951564 0.04963571 -0.014086306
-0.112822995 0.03954792 0.060447425 0.030529425 -0.02789925 0.12493257 0.019696116 -0.012404352
-0.05445957 -0.007667437 0.025763541 -0.027291521 -0.090843946 -0.11297959 -0.025948107 -0.08211306
0.075265884 -0.005860716 0.115610585 -0.046261773 -0.05738066 -0.018977046 0.07841262 -0.07787657
-0.096933216 -0.05472116 -0.118822575 0.07246372 -0.07710457 0.035526276 -0.010824993 0.0029454827
0.103728 0.074284464 0.08606827 0.11498329 0.079745665 0.10966794 0.034071445 0.115915045
0.08393809 -0.09716828 -0.10364111 -0.0078004897 -0.0684523 -0.11512305 -0.121010214 0.10815276
0.058118135 0.12426734 0.006634116 0.0076402426 -0.048394606 0.026695281 0.10691495 -0.070484
0.116380915 0.0401064 -0.09108317 0.048805684 -0.103355005 -0.050171122 -0.08758189 -0.11310579
-0.066842794 0.09068005 -0.07676005 -0.0070871264 -0.074652374 -0.0322026 -0.08110975 0.121640205
0.06455341 0.06320585 0.08462416 -0.0648011 -0.051625013 0.009798676 -0.06328483 -0.12214431
-0.038695544 0.09473193 -0.08041236 0.0765789 0.053518012 0.112336546 0.06182827 0.07754536
-0.034206748 -0.09983556 0.112666175 0.037182674 -0.056716427 0.07540487 0.06927428 -0.047208205
-0.021461397 0.11780445 -0.110686064 0.071280956 -0.036917523 0.023907706 -0.10329652 -0.1073062
0.009031013 -0.10083553 -0.12441358 -0.06530276 0.11713238 0.1069777 -0.100703105 0.046844915
-0.038622856 -0.11545338 0.09494108 -0.11147338 -0.02330111 -0.005238235 -0.07879566 0.07993057

to_latent.bias f4 [16]
00000000: a495 bd3d 44ca 8abd d847 87bc 08bf 123d
00000010: ccdd b33d 98a8 1d3d 12c9 c9bd d448 613d
00000020: e8dd b9bc ee24 cf3d 944e fb3d 70ad fdbd
00000030: 808b d7bd 64cb b3bd 9404 3abd 602a 33bc
0.09257057 -0.0677686 -0.01651375 0.035826713 0.08782539 0.03849086 -0.09852804 0.055001095
-0.022688821 0.10114466 0.12270847 -0.12386596 -0.105246544 -0.08779028 -0.045414522 -0.010935396

decoder.0.weight f4 [64, 80]
00000000: ab02 8dbd 16c2 2dbc c6a4 1fbd dbe0 abbd
00000010: 5770 e9bd 30db 9bbd 03f4 b0bd d7a1 aabd
00000020: e48f 6bbc 3d0f 51bd 5d8e 96bd d975 a03d
00000030: 8d21 03be 7751 38bd e133 5ebd 134f 01be
00000040: 0849 48bb caae 14be 5b92 20be 3f1f 773c
00000050: 4de7 d8bd 2506 cb3d ad66 a1bd 2a12 1b3d
00000060: 07c2 ce3d 4328 cb3c 33cd d13c a8ab e4bc
00000070: 5f1d d1bc edb6 e2bc 2023 c6bd d1bb eb3c
00000080: 2724 96bc 7b85 ecbd 3dbd e2bd 8afb c1bd
00000090: 2556 753b 0d5c 3e39 93c8 6bbc 656e 253d
000000a0: 7e1a 2abe ae12 c2bd 52e1 23bd 99f8 17be
000000b0: adc6 c3bd 78b4 5abd 65db c8bd c864 20bd
000000c0: eb07 11bd 0b0e f33c 0ac3 2e3d e5fa 4f3d
000000d0: f04f 6bbd 42a9 11be 802e 7c3c 3bc5 f5bd
000000e0: 83ab 443d ccbb b73d 95ca f1bc f008 983d
000000f0: 6ed3 68bd 6e9e 8dbd 1775 2fbd 9148 0cbd
00000100: 28d4 33be 30fc a3bd bb6e d3bd 1ddc 113e
00000110: 9e0a 9a3c 0208 76bd d8c2 35be 1238 183d
00000120: 02cc 31bd fed9 2cbe d213 063e 7eef 0f3e
00000130: b0a1 1d3c cbfb 85bd 3430 e13d 86c5 c9bd
00000140: a829 b8bd dad7 1abd 060c d83d 361c 81bd
00000150: ad04 923d 6830 b13d c984 4cbd ea17 b93d
00000160: e8d9 b0bd c8b6 9abd 9c96 f6bc 3fdb 69bd
00000170: 0829 303d d05d 0cbe f5a3 a4bd 8fc0 6c3d
00000180: edef a43d 1b9f 6d3d 71b7 76bd eed2 4bbd
00000190: 6681 a039 b5e0 d5bd 3d8d b0bd 0c4e 00be
000001a0: 2c25 e4bd c28d dfbc 9da5 e23c 63b6 09bd
000001b0: d453 f0bd e128 a2bc 4f0a 9d3d 7468 f9bd
000001c0: 1d2c 6f3d 14ef 21be 38c4 e3bd 8cfc 8b3d
000001d0: 00b9 653d 051d 94bc 5031 8cbd 6bc8 513d
000001e0: e598 59bd 6365 443c 4a83 23bd a784 dbbd
000001f0: ace5 b93c 0d62 9c3d 943b c93c 0b51 813d
00000200: 654b e73c 0fe4 a43c 3ce6 a83d e486 ac3c
00000210: 0b75 e4bc e436 e4bd 5e10 38bd 00b2 fabd
00000220: 7aa2 3b3d 9067 c13d 8400 a0bd b585 b43d
00000230: 50eb 5bbc eb57 c8bd 1565 cbbc b767 82bd
00000240: e65a 68bd 4368 8d3b b6d3 acbc aaac 28bd
00000250: e49e 23bd 29bd cb3d 5c66 e63c 1bf9 943c
00000260: fa4c 26be 87af 40bc 0bef d9bb d1c1 973a
00000270: 8a13 f13b 3379 bcbd f400 41bd 5ebf 343d
00000280: e580 413d d4a7 4e3a 0de6 a4bd 09a5 e53d
00000290: 2aa9 29be c75f a4bd f277 babd 0798 943d
000002a0: 9944 bc3c e0fb d9bc 25aa c73d 9881 c73d
000002b0: 1a37 51bd e96c 78bd 196c f43c cd46 92bd
000002c0: d608 dabd 57e7 6bbd 264d 61be 6711 04be
000002d0: 5205 133e 6282 e6bd 066b acbb b8a9 783d
000002e0: 7842 4f3e ff50 013c bef8 983d 48b7 70be
000002f0: 241e 71bd 607c cabd 5838 40bd 2a61 ffbd
00000300: ae91 693c 0147 38be 7c1c 86bd ecaa 8a3c
00000310: bf7e c0bd cefa 79be 004f 29be 5925 debb
00000320: 05b4 74bd 03cc e4bd c260 45be d386 82be
00000330: 26aa 44be 6d94 f2bc 8a5e 563d dcb9 293e
00000340: 6af7 b2bc cc84 cdbd a349 e13c 40aa 9f3d
00000350: c968 743d 58ac 87bd b379 5e3d e4b3 32bd
00000360: e6ef 4b3d d550 85bd 0b73 68be 3289 30bb
00000370: 1edb bf3d 82b2 483c 3887 003e 9ee7 2abc
00000380: e33d 2ebd f7ef 8fbe e82d 3e3e e4f1 fb3b
00000390: c5e1 933d b924 283c 2616 af3e 4ee6 f5bc
000003a0: 42eb ca3b c7ea d5bd cf8d db3b 4126 883e
000003b0: 3e93 b93c 5905 763d aeb2 94bd 763c 9bbd
000003c0: a0da cd3d c24f e1bd beb9 1cbe 1c7d 2dbe
000003d0: 6222 ffbd 26dd 8d3d 6f5e 8fbd 834a c8bd
000003e0: 8432 adbd e9f9 1cbe ea5e 56bd d7cd 813d
000003f0: 43a4 fcbc 9cb9 a2bd 2b5c d9bd 4bfa d4bd
-0.068852745 -0.010605356 -0.0389755 -0.08392497 -0.1139838 -0.07610166 -0.086402915 -0.0833165
-0.014377568 -0.051039923 -0.073513724 0.07834978 -0.12805767 -0.044999566 -0.054248694 -0.1262782
-0.0030561108 -0.14519802 -0.1568083 0.015083133 -0.10590992 0.09913281 -0.07880912 0.03785912
0.100956015 0.024799472 0.025610542 -0.027913883 -0.0255267 -0.027675116 -0.09674668 0.028776081
-0.018327786 -0.11548897 -0.110712506 -0.094718054 0.003743538 0.00018154104 -0.014391082 0.040388484
-0.16611668 -0.09476219 -0.040009804 -0.14840926 -0.09559379 -0.053394765 -0.09807471 -0.039158612
-0.03540794 0.029669782 0.042666472 0.05077638 -0.05744928 -0.14224723 0.015391946 -0.12000509
0.04801513 0.08971366 -0.029515544 0.0742358 -0.05684226 -0.06914984 -0.042836275 -0.034248892
-0.175614 -0.08007085 -0.103238545 0.14244123 0.01880389 -0.06006623 -0.17750108 0.037162848
-0.043407448 -0.16880032 0.13093498 0.14056203 0.009621069 -0.06542166 0.10995522 -0.09852128
-0.0899232 -0.03780351 0.10549168 -0.06304209 0.07129798 0.08651811 -0.04993132 0.09037764
-0.08635312 -0.07554394 -0.030101113 -0.057093855 0.04300788 -0.13707662 -0.08039085 0.057800826
0.08053575 0.058013063 -0.060233537 -0.049761705 0.00030613987 -0.1044325 -0.08620689 -0.12529773
-0.111399025 -0.027289275 0.027666861 -0.033621203 -0.11734739 -0.019794883 0.07667982 -0.12178126
0.05839168 -0.15813857 -0.1112141 0.06835279 0.056084633 -0.018080244 -0.06845343 0.051216524
-0.053124327 0.011987063 -0.03992013 -0.10718661 0.022692524 0.07635889 0.024564542 0.06314286
0.028234193 0.020128278 0.08247039 0.021060415 -0.027887842 -0.11143282 -0.044937484 -0.12240982
0.045809247 0.09443581 -0.07812598 0.08814565 -0.013422802 -0.09782394 -0.024828473 -0.06367438
-0.056727313 0.0043154075 -0.021097045 -0.04118029 -0.03994645 0.09948189 0.02812498 0.018185189
-0.16240302 -0.011760599 -0.0066508106 0.0011578148 0.0073570656 -0.092028044 -0.04712005 0.044127814
0.047242064 0.00078832847 -0.08051691 0.112131186 -0.16568437 -0.080260806 -0.09104909 0.072555594
0.022981929 -0.026609361 0.09749249 0.09741515 -0.05107794 -0.06065074 0.029836701 -0.071424104
-0.106462166 -0.05759367 -0.22002086 -0.12897263 0.14357498 -0.11255337 -0.0052617816 0.06070873
0.202402 0.007892846 0.07469319 -0.23507416 -0.058866635 -0.09887004 -0.046928734 -0.124697044
0.014255924 -0.17995836 -0.06548402 0.016927205 -0.09399175 -0.2441208 -0.16534042 -0.0067793545
-0.059741993 -0.11171725 -0.19275191 -0.25493488 -0.19205531 -0.02961179 0.052336253 0.16574806
-0.021846492 -0.100350946 0.027500933 0.077961445 0.059670243 -0.06624669 0.05431528 -0.04362859
0.04978933 -0.06509558 -0.22700135 -0.0026937244 0.09367965 0.012249591 0.12551582 -0.010431198
-0.04253949 -0.28112766 0.185722 0.0076887477 0.072207965 0.010262662 0.34196585 -0.030017044
0.0061925957 -0.10445171 0.0067002545 0.26591685 0.022653218 0.060063694 -0.07260643 -0.075798914
0.10051465 -0.11001541 -0.1530523 -0.16942257 -0.1245773 0.06926946 -0.07000434 -0.09779837
-0.08456901 -0.15329708 -0.05233661 0.06338089 -0.030840045 -0.079455584 -0.10613283 -0.10399302

decoder.0.bias f4 [64]
00000000: c5a1 23be 7a94 05bd 0e67 74bd e6cd 10be
00000010: 7ff0 983d 4d21 44be d417 823c aca7 9fbd
00000020: cc05 cfbb 522d b03e 576b 4dbe ae33 a7be
00000030: 92b0 47bd b284 6c3c 53a6 7abd c770 39be
00000040: eebf 65bc eb70 26c1 d0f4 c73e 4832 ca3d
00000050: 9721 c8be df33 1640 f0e1 20bd b7b0 1ebd
00000060: c594 66bc 7f7b 2dbc 10d8 90bd 141d 37ba
00000070: f5b0 d43c 4ad6 07be 307c bb3f 5df4 cb3d
00000080: 42a7 12bd d876 45bf 498b 25bf 41aa 843e
00000090: 752e c1bd 44fe 2a3f a15c 24bd 895c 0e3e
000000a0: c4b2 9a3f 7159 0ebe 2ebf 2fbc ddc1 d1bd
000000b0: c5a7 1cbe 08d2 e0bd 542d 13be 7202 dabd
000000c0: 8385 47be 2ca0 be40 850e 6fbe 5414 a53e
000000d0: e063 eb3e 41bb 99bd ee24 3ebe 3f0b 4cbd
000000e0: 72dd 44bc aacc bebc d473 4940 713e f7bd
000000f0: 5f22 bdbd e939 32c0 899e d2bb f078 123f
-0.15979679 -0.0326123 -0.059668593 -0.14141044 0.07467746 -0.19153328 0.015880503 -0.07795653
-0.0063178297 0.34409577 -0.20060478 -0.32656616 -0.048752375 0.014435934 -0.061193775 -0.18109427
-0.01402281 -10.402568 0.39053965 0.09872872 -0.39088127 2.346916 -0.03927797 -0.038742747
-0.014073555 -0.010588526 -0.07072461 -0.0006985229 0.025963286 -0.13265339 1.4647274 0.09958718
-0.03580404 -0.77134466 -0.6466566 0.25911143 -0.09432689 0.6679423 -0.0401274 0.13902487
1.2085805 -0.13901307 -0.010726733 -0.102420546 -0.15298374 -0.1097756 -0.1437276 -0.10644998
-0.19484524 5.957052 -0.23345383 0.32242072 0.45974636 -0.07506419 -0.18568775 -0.049815413
-0.012015687 -0.02329095 3.1476946 -0.12072457 -0.092350714 -2.7847846 -0.0064275903 0.57215786

decoder.2.weight f4 [24, 64]
00000000: 0684 d03b e8fc 9bbc 7109 843d eb90 ac3d
00000010: e55c 45bb a925 6e3b c694 68bd abc2 d93b
00000020: a7cf c93d 89b9 6a3d ab11 ac3c 1d4b 043e
00000030: 9bca c0ba 1517 72bd fd54 51bd cf5f 2bbd
00000040: 0953 41bd 1742 13bc 231c 123d 4a90 9f3d
00000050: eafe 8a3a 3cc1 a0bd 7187 9ebd daa4 d13c
00000060: b5c2 9abb acf4 0d3d 7a82 3ebd 4b30 36bd
00000070: f73e 5dbd a58b 173d b775 103d 18a4 823d
00000080: 8c50 1a3d ab4b 9f3d 3c33 9a3e cb47 623d
00000090: 4b23 013e 6a06 0c3e ff02 bd3a 0e81 76bd
000000a0: 7044 823c 4b54 873b 3f88 873d 03ff 553c
000000b0: f1fe ca39 82b8 a8bc 734d 5a3d d85e 21bc
000000c0: 42b7 2e3d 085d 3f3c 2477 55bd a354 a1bd
000000d0: 66b4 ff3b 0574 9f3c fb37 aa3b 5d03 f23b
000000e0: b280 4f3e 21c4 093d 9124 1cbe f630 db3d
000000f0: 8268 ff3c bcdc 83bd cd0d b2bb f75a 3dbb
00000100: 531f ba3c 0490 173d 9b70 6e3a ff98 b8bd
00000110: 7527 2cbd 66dd 77bc ebbf e5bc 44ad a13d
00000120: d532 dd3b 53ed 7e3c 7039 ad3b 3d20 2a3d
00000130: b510 3abd a624 3abc c992 29be a921 b5bc
00000140: 172a 02bd b5a9 3cbc c1cb 963d f873 b6bc
00000150: 8d85 75bd 5339 83bd e672 003d 0e0e 5b3d
00000160: fb37 8fbb b93f b33d 5d14 14bd 9268 7fbd
00000170: db14 593c ec61 01be 5275 d53c 63d9 e239
00000180: f1a2 293d 4306 62be 6aa1 f5bc 2900 c53d
00000190: 333f 8f3d ec4e a13b af34 e33d c736 20bd
000001a0: 7e90 abbd a720 61bc 7316 463c 161c 943a
000001b0: 4b9a 94bd 72ad 973c 55fe dbbd 0e5e b0bc
000001c0: 6bd5 82bc ecb9 003d b0ab b5bd cee8 91bb
000001d0: e3ca 6dbd ef99 3b3d ce4e f13a 35e3 073d
000001e0: 535b 59bd f055 85bd 87e8 393d c03d abbc
000001f0: 68df 2bbd 8bae dcbc 7d06 8abb 15c7 e03a
00000200: 4724 acbd e130 bebd d628 433c 4212 113e
00000210: 8caa b23c 9a4e 303c 1edb 1e3d 3bf0 9aba
00000220: 2947 863b dcac 733d 8829 1a3d 4ae9 dc3d
00000230: 3c3b dcba 0eb8 9ebc 9500 c73d e404 193d
00000240: bf8c 933d 51f7 19bc 4b0a cf3c 1e65 933d
00000250: fbda 00bc 3341 83bd 6836 90bd 105e 933c
00000260: d2f5 df3c b166 2bbc 4b85 8d3d 7dc4 d6bd
00000270: 3012 08bd 2c5d 003d 4ac7 043d 918c 2e3d
00000280: c9ac 89bc f4bd 9a3d b859 993e 0fc0 88bc
00000290: b47a d53d ab74 0f3e f6e9 273d 6b31 66bd
000002a0: 6fd1 0c3d a215 1f3c f27c 393c 61ad 6fbd
000002b0: 5a12 873c d2ae 80bc a354 883d b56c 963c
000002c0: a72e ec3b 4868 173c cc77 acbc b321 02be
000002d0: a5e8 fdbc c70e 81bd 0c38 b03c 56ca 4d3c
000002e0: 5504 233e 9608 413d 582c 03be 8e91 993c
000002f0: e1ba acbb 9eb1 83bd a2f0 95bb 497d 17b9
00000300: 5cae 3e3d dfc1 e1bd 2eb9 4e3c 34a9 f2bd
00000310: d3af 2abd 870f fcbd 4d7c 3abd 62c4 9fbb
00000320: efdd 5ebc 9ba8 a03c c10f b33d b3a5 0a3d
00000330: 0ff6 30bd 2b9b eabb 1a8f edbd 82e4 dabc
00000340: 3769 de3c 02d9 d3bb 2336 953d 1b15 5abd
00000350: 2b6a 7dbd 458a 4abd 1d36 c43b e0b3 4e3d
00000360: 44a3 653c 431b 37bd 7be0 1cbd 16a5 57bd
00000370: 799c 413c ea99 7abc 5c9a f53c 22c0 0e3d
00000380: e371 a13c 675b 60be 14d9 f1bc 2bf8 733d
00000390: 5772 f93d 6f01 333a fccc dcbc ebc3 1dbd
000003a0: 0ca3 b8bd 0684 ddbc 2420 f03c 9614 293d
000003b0: 8b56 bfbc c7d8 e73c 12cc 5bbd 96dd 63bc
000003c0: 75e4 2c3d 4901 9b3c a9c8 e7bc d274 03bb
000003d0: 438d 9dbd 2850 893d 1bde b1bd 6606 0f3d
000003e0: 420e 3fbd 5fc6 2fbd f593 173d 3b6b 73bc
000003f0: 2c96 5b3d 7641 07bd 082b 8b3c cf7e 25bb
0.0063633947 -0.019041494 0.06447113 0.084260784 -0.0030115184 0.0036338365 -0.056782506 0.0066455207
0.0985406 0.057305846 0.021004518 0.12919278 -0.0014708819 -0.059104044 -0.05110644 -0.041839417
-0.04719833 -0.008987925 0.035671365 0.07791193 0.0010604535 -0.078493565 -0.07740677 0.025591303
-0.004722918 0.034657165 -0.04651115 -0.04447965 -0.054015126 0.03699841 0.03526851 0.06378955
0.03767447 0.077781044 0.30117214 0.05524425 0.1261112 0.13674322 0.0014420449 -0.06018167
0.015901774 0.0041299216 0.06617784 0.013061288 0.00038718389 -0.020595793 0.053296518 -0.009849273
0.042655237 0.011679895 -0.052115574 -0.07877471 0.0078034876 0.019464502 0.0051946617 0.007385655
0.20263937 0.03363431 -0.15248324 0.10702698 0.031177763 -0.06438586 -0.005433774 -0.002889333
0.022720015 0.03700258 0.0009095759 -0.09013557 -0.042029817 -0.015128469 -0.028045615 0.07894376
0.0067504444 0.015559512 0.005286388 0.04153465 -0.04542609 -0.011361277 -0.165599 -0.022110777
-0.03177842 -0.011515071 0.07363082 -0.022272095 -0.059941817 -0.06407418 0.031359576 0.0534802
-0.004370687 0.087523885 -0.036152232 -0.062355585 0.013249601 -0.1263501 0.02605692 0.00043268045
0.04141516 -0.22072701 -0.029984195 0.09619171 0.06994476 0.0049227383 0.11094033 -0.03911474
-0.08377169 -0.013740695 0.012090313 0.0011299874 -0.072559915 0.018515322 -0.10741869 -0.021529224
-0.015970906 0.03142731 -0.088706374 -0.0044528013 -0.058054816 0.0458011 0.0018410326 0.033175666
-0.05306561 -0.06510532 0.04538777 -0.020903468 -0.041961104 -0.026938697 -0.0042121992 0.0017149175
-0.08405357 -0.09286667 0.0119115915 0.14167121 0.021809839 0.010760928 0.038783185 -0.0011820862
0.0040978384 0.059491023 0.037637264 0.10786684 -0.0016802321 -0.019374873 0.09716908 0.03735818
0.072045796 -0.009397344 0.025273463 0.07197021 -0.007864709 -0.0640892 -0.07041627 0.017989188
0.027338896 -0.010461495 0.06910189 -0.10486696 -0.03322047 0.031338856 0.03241662 0.042614523
-0.016806023 0.07555762 0.29951262 -0.016693143 0.104237944 0.14009349 0.040994607 -0.056199472
0.03437942 0.0097097475 0.011321293 -0.058514956 0.016488243 -0.01570836 0.06656768 0.018362382
0.00720771 0.009241171 -0.021053217 -0.12708168 -0.030994723 -0.06301647 0.0215111 0.012560448
0.15919621 0.04712733 -0.12809885 0.018746164 -0.005271301 -0.06430362 -0.004575805 -0.00014447155
0.046553 -0.11023306 0.012617392 -0.11848679 -0.041671585 -0.12307649 -0.0455287 -0.0048757056
-0.013602718 0.019611647 0.08743239 0.03384943 -0.04320341 -0.0071596107 -0.1159956 -0.02672029
0.02714978 -0.0064650783 0.072857164 -0.053242784 -0.061868828 -0.04944827 0.005987896 0.05046451
0.014015976 -0.044703733 -0.03830002 -0.052647673 0.011817091 -0.015295485 0.02998083 0.0348512
0.019707626 -0.21909867 -0.029522456 0.059562843 0.12180012 0.0006828522 -0.026953213 -0.03851692
-0.09015474 -0.027040493 0.0293122 0.041279398 -0.023356697 0.02830161 -0.053661413 -0.013907811
0.04221006 0.018921511 -0.028293924 -0.0020058644 -0.07692959 0.06704742 -0.086849414 0.03491821
-0.046644457 -0.04291379 0.037006337 -0.014857109 0.053610012 -0.033021413 0.016988292 -0.0025252586

decoder.2.bias f4 [24]
00000000: 1f6a 4f3f 237e 54bf a832 423f 15a2 32bf
00000010: 16b7 343f dc29 11bf c4f3 263f de10 e0be
00000020: 2be7 183f 4061 9ebe c487 0a3f b361 3abe
00000030: f69c f73e f0ca 63bd e96a d93e d10d 8f3d
00000040: 126e ba3e 330c 473e 7ca7 9a3e 23c9 a23e
00000050: 1c2b 743e 7a8e e13e 0d65 313e 34eb 0f3f
0.810213 -0.8300497 0.75858545 -0.6977857 0.70591867 -0.567045 0.65215707 -0.4376287
0.59727734 -0.3093357 0.5411341 -0.18201332 0.4836194 -0.05561346 0.42464378 0.06985057
0.36412102 0.19438247 0.30205905 0.3179408 0.2384457 0.44054013 0.17323704 0.56218266
