models/v2/EncDec_Noise_xy_epoch_500_h-h_8-12_penalty_false.pth (torch, 61686 bytes, 10 tensors)

encoder.0.weight f4 [64, 16]
0	0x3e59be24	0.21263939
1	0xbe7371d0	-0.23773885
2	0xbdb64244	-0.08899358
3	0x3e507702	0.20357898
4	0x3d358b30	0.044322193
5	0x3ae18300	0.0017205179
6	0xbd37ae68	-0.04484406
7	0x3e3257f0	0.17416358
8	0xbe4853ac	-0.19563168
9	0x3e604c1e	0.21904036
10	0xbe58c13a	-0.2116746
11	0x3e78a020	0.24279833
12	0x3c7bc8a0	0.015367657
13	0xbe4ab762	-0.19796517
14	0x3d6dd0b8	0.058060378
15	0xbe132ab4	-0.14371759
16	0xbd9ba3ea	-0.075996235
17	0xbeb6233a	-0.3557375
18	0x3daffc68	0.085930645
19	0xbc3742a5	-0.011185323
20	0xbb3b836d	-0.0028612271
21	0x3ec1103a	0.37707692
22	0x3e2b56aa	0.16732278
23	0x3f00ab0c	0.50260997
24	0xbe640235	-0.22266467
25	0x3f3f8b0b	0.7482154
26	0x3e1b9539	0.15193643
27	0x3eba0e51	0.36339048
28	0x3da954a6	0.082680985
29	0xbe8e215c	-0.27759826
30	0xbe7bd2ab	-0.24592082
31	0xc0085112	-2.1299481
32	0xbe65303f	-0.22381686
33	0x3da917ee	0.08256517
34	0xbe26e54b	-0.16298406
35	0x3e5b84cb	0.21437375
36	0xbd804655	-0.06263415
37	0x3ddb50ae	0.10708748
38	0x3e40ba99	0.18821181
39	0xbd1c4542	-0.038151987
40	0xbdeeb4e2	-0.116555944
41	0xbdaa1fa3	-0.083068155
42	0x3e81cfd0	0.2535386
43	0x3d9ef3ae	0.07761322
44	0x3e1371a7	0.14398824
45	0xbbd6a982	-0.0065509686
46	0xbdc6e733	-0.097120665
47	0xbe796382	-0.24354365
48	0x3dd5b4d0	0.10434878
49	0x3e3b4abc	0.18290228
50	0xbe56e806	-0.20986947
51	0x3e0cd3de	0.13752696
52	0xbdb542b4	-0.08850613
53	0xbe0ab16c	-0.13544244
54	0xbe723236	-0.23651966
55	0x3d481eb0	0.04885739
56	0xbe3c0d22	-0.18364385
57	0x3e23f806	0.16012582
58	0xbd2de340	-0.04245305
59	0x3e20662a	0.15663972
60	0x3e4781b0	0.19483066
61	0xbe14ea14	-0.14542419
62	0x3dc1fe20	0.094722986
63	0xbe7bd430	-0.24592662
64	0xbe2bbd7a	-0.16771498
65	0x3e0e6bf4	0.13908368
66	0xbdefdc20	-0.117119074
67	0xbbac0180	-0.0052492023
68	0x3e3fedaa	0.18743005
69	0xbe7eaa86	-0.24869737
70	0xbd78c120	-0.060731053
71	0xbd25f3d0	-0.04051572
72	0xbe47eaec	-0.1952321
73	0x3dac5534	0.08414689
74	0xbe2d7012	-0.16937283
75	0x3e52fa0e	0.20603201
76	0x3ad9b600	0.0016610026
77	0xbd04ab00	-0.03238964
78	0x3c103880	0.008802533
79	0xbdc540a4	-0.0963147
80	0x3e0b4363	0.13599925
81	0xbe2c8cfc	-0.16850656
82	0xbddc12ef	-0.10745799
83	0x3d93d5cf	0.07218515
84	0x3e464c05	0.19364937
85	0x3cb58029	0.022155838
86	0x3d4b17cc	0.04958324
87	0x3f24f1ae	0.64431274
88	0x3e6be178	0.23035228
89	0x3f48e439	0.7847324
90	0x3e5e6891	0.21719576
91	0x3f491cb6	0.78559434
92	0xbde96585	-0.113963164
93	0xbe3fd2d9	-0.18732776
94	0xbf180b38	-0.5939212
95	0xbffc12ba	-1.9693215
96	0xbdd645d6	-0.10462539
97	0x3e370423	0.17872672
98	0x3e28913c	0.16461653
99	0xbdb4da9f	-0.08830761
100	0x3e10ac17	0.14128147
101	0xbe58c01b	-0.21167032
102	0xbd9a44f9	-0.07532687
103	0xbd14c2ae	-0.036318474
104	0xbe53dc0d	-0.20689411
105	0x3dd5001f	0.10400414
106	0xbdcfe78c	-0.10151586
107	0xbd95a67e	-0.073071465
108	0xbe5fac41	-0.21843053
109	0x3e24d1d0	0.16095662
110	0xbe12ce0d	-0.14336415
111	0xbe27c632	-0.163842
112	0x3e0a085b	0.1347975
113	0xbd023164	-0.031785384
114	0x3dc337bc	0.09532115
115	0x3dcc326c	0.09970555
116	0xbe51b5be	-0.20479485
117	0x3ded8eff	0.1159954
118	0x3e08b382	0.13349727
119	0x3eaa686c	0.33282793
120	0xbe1cc8c0	-0.15310955
121	0x3ea26102	0.31714636
122	0xbe622c49	-0.22087206
123	0x3b5e20bb	0.003389402
124	0x3dab4e12	0.083645
125	0xbe713e99	-0.23559035
126	0x3dd87f1d	0.1057112
127	0xbf168200	-0.58792114
128	0xbe679002	-0.22613528
129	0x3e1be84c	0.15225333
130	0xbda8f65c	-0.08250114
131	0xbc185aa0	-0.00929895
132	0x3c9b6300	0.018968105
133	0xbdc5839c	-0.09644243
134	0xbdfa1254	-0.12210527
135	0x3df47124	0.11935642
136	0xbdcbd15c	-0.099520415
137	0x3e190e72	0.14946917
138	0x3e7dc11c	0.24780697
139	0x3e1db4f4	0.1540106
140	0x3e412bc4	0.18864352
141	0xbddfb04c	-0.10922298
142	0xbe2078e4	-0.15671116
143	0xbe5a9946	-0.21347532
144	0x3e8c483a	0.27398854
145	0xbcdeb946	-0.027187955
146	0x3d19bcf3	0.03753371
147	0x3e97e650	0.29667902
148	0x3d1b5ec2	0.037932165
149	0x3e8dcbea	0.27694637
150	0x3e57103f	0.21002291
151	0x3e4ddba9	0.20103325
152	0x3f0cc0aa	0.5498148
153	0x3f0e91b6	0.5569109
154	0x3ee02213	0.43775997
155	0x3ed49e18	0.41526866
156	0xbec09423	-0.3761302
157	0xbe480da5	-0.19536455
158	0xbf90a29e	-1.1299627
159	0xbfca4d61	-1.5804864
160	0x3d204448	0.039127618
161	0x3e73d0bc	0.23810095
162	0xbe596dc0	-0.21233273
163	0x3d7cc778	0.061713666
164	0xbe690766	-0.22756729
165	0x3d9945f4	0.074840456
166	0x3df2132c	0.11820063
167	0x3d743be8	0.059627444
168	0x3e0a0090	0.13476777
169	0xbcb7e850	-0.022449642
170	0xbe2d0598	-0.16896665
171	0xbe2b03fa	-0.16700736
172	0xbddd803c	-0.108154744
173	0xbe12ccec	-0.14335984
174	0xbbe33540	-0.006933838
175	0x3e21a3b2	0.15785101
176	0xbeac2bba	-0.3362711
177	0xbe54394a	-0.20724979
178	0xbd831671	-0.06400765
179	0x3da4a85e	0.08039926
180	0xbb786fc7	-0.0037908421
181	0xbe076907	-0.13223659
182	0x3d8bea74	0.06831828
183	0x3ddfa778	0.10920614
184	0x3e1140f7	0.14184938
185	0xbd8fbf6d	-0.070189334
186	0x3e011612	0.12606075
187	0xbe3b0f77	-0.18267618
188	0xbb9b4961	-0.004738972
189	0x3dcc4b99	0.099753566
190	0x3cfc87b0	0.03082642
191	0x3ebad977	0.36494038
192	0xbd76885d	-0.06018864
193	0xbe115abe	-0.14194772
194	0x3e027246	0.12738904
195	0xbcf9a4ba	-0.030474056
196	0x3df201ec	0.11816773
197	0x3e64f588	0.22359288
198	0xbe850e89	-0.25987652
199	0xbd57b705	-0.052664775
200	0x3dd73f7d	0.10510156
201	0x3ce7634e	0.028245594
202	0xbdcf36fe	-0.10117911
203	0x3e799813	0.24374418
204	0x3de741ee	0.11291872
205	0x3e218c76	0.15776238
206	0xbd811f18	-0.06304759
207	0xbe3f3641	-0.1867304
208	0xbeb65011	-0.3560796
209	0x3e5f305d	0.21795793
210	0x3d7e1ea7	0.06204095
211	0xbd64ee22	-0.055891164
212	0xbd6ddc38	-0.058071345
213	0xbe92571e	-0.2858209
214	0xbecb7186	-0.3973505
215	0xbed0fa59	-0.40816
216	0xbe0b9b72	-0.13633516
217	0xbe68af0e	-0.22723028
218	0x3e13f62a	0.14449373
219	0x3d80be81	0.06286336
220	0xbc18afda	-0.00931927
221	0x3e541def	0.20714544
222	0x3f04ceb7	0.5187792
223	0x3f2dbdf6	0.6786798
224	0x3c9f539c	0.019449048
225	0xbf6cb5e5	-0.9246505
226	0x3d98c676	0.074597284
227	0xbf4d4d6d	-0.8019627
228	0x3e0e66c0	0.13906384
229	0xbf4201e4	-0.75784135
230	0x3e832d2c	0.256204
231	0xbf4af6ba	-0.79282725
232	0x3e27cd15	0.16386826
233	0xbef87df6	-0.485336
234	0xbe4bd6c0	-0.1990614
235	0x3beaaf38	0.007162001
236	0x3dba8f80	0.09109402
237	0x3f618f43	0.88109225
238	0xbf10b075	-0.5651925
239	0x4048ccbd	3.1374962
240	0xbe59a9d5	-0.21256192
241	0x3ca4788d	0.020077014
242	0x3e784485	0.24244888
243	0xbd865d8c	-0.065608114
244	0x3e68d8ea	0.22738996
245	0x3e4e2153	0.201299
246	0xbe5e71b6	-0.21723065
247	0xbe36c88e	-0.17849943
248	0xbd986d28	-0.07442695
249	0x3d26501e	0.04060375
250	0x3de017c0	0.1094203
251	0xbe11c3a8	-0.14234793
252	0xbd8d18cd	-0.06889496
253	0x3e3170e1	0.17328216
254	0xbdb5911e	-0.088655695
255	0xbd80e5e9	-0.06293852

encoder.0.bias f4 [64]
0	0x3e742c22	0.2384496
1	0xbf0f45c8	-0.5596585
2	0xbefde8e4	-0.49591744
3	0x3e4fee28	0.20305693
4	0x3de994c8	0.11405331
5	0x3fb27d8a	1.3944561
6	0x3e6e5812	0.23275784
7	0xbf9ff401	-1.2496339
8	0x3dc51ca0	0.096246004
9	0xc01fc5d2	-2.496449
10	0xbe2a38b2	-0.1662319
11	0xbdc1dffe	-0.09466551
12	0xbe26690e	-0.16251013
13	0xbf550243	-0.83206576
14	0x4105c7cc	8.361279
15	0x3e6867c0	0.22695827
16	0xbe67f759	-0.2265295
17	0x3df6f948	0.120592654
18	0x3dd683dc	0.10474369
19	0x3e3b7b22	0.1830869
20	0x3dea1e6e	0.11431585
21	0x3d2784ab	0.040898006
22	0x3ea41dec	0.3205408
23	0xbd23b179	-0.039964173
24	0xbe1f2043	-0.1553965
25	0xbe651140	-0.22369862
26	0xc087a966	-4.2394285
27	0xbef5668d	-0.47929803
28	0x3fc31055	1.5239359
29	0xbe2a4832	-0.16629103
30	0xbf022c1b	-0.5084855
31	0xc0a137d3	-5.0380645
32	0x3e79c9e1	0.24393417
33	0xbe5eac37	-0.21745382
34	0xbe90dd41	-0.28293803
35	0x3e64d9d7	0.22348724
36	0xbf35f725	-0.7108024
37	0x3e64e1f8	0.22351825
38	0x3ded5411	0.115883
39	0xbf4c8f30	-0.79905987
40	0x3e388e94	0.18023139
41	0xbd433485	-0.04765751
42	0xbeecc679	-0.46245173
43	0x3f24f7b9	0.64440495
44	0x3e6190de	0.22027919
45	0xbc3d8800	-0.011568069
46	0x3d46a920	0.048501134
47	0xbca20877	-0.019779427
48	0xbdaa1461	-0.08304668
49	0x3e5d17a8	0.21591055
50	0xbdbd0b14	-0.092306286
51	0x3ec16bca	0.3777755
52	0x3e501b79	0.2032298
53	0x3efde12e	0.4958586
54	0x3dca7c00	0.098869324
55	0x3d712668	0.058874518
56	0x3e375f85	0.17907532
57	0xbec6ebc3	-0.38851747
58	0xbd7f0a8b	-0.062265914
59	0xbd02c2d2	-0.031924076
60	0xbf4fbc60	-0.8114681
61	0x3dd94908	0.10609633
62	0x3c98d050	0.018654019
63	0x3d5f2491	0.05447823

encoder.2.weight f4 [64, 64]
0	0xbd0b5cb8	-0.03402397
1	0x3e078048	0.13232529
2	0x3c59318b	0.013256441
3	0x3d81a1ea	0.06329711
4	0xbda8c2ae	-0.08240257
5	0x3f9b8a22	1.215153
6	0x3dca241c	0.098701686
7	0x3d9cad5b	0.076502524
8	0xbd505e58	-0.050871223
9	0x3e43e6f1	0.19131066
10	0xbcef9640	-0.02924645
11	0xbde3c872	-0.11122216
12	0x3dc59fff	0.096496575
13	0xbf469f10	-0.7758646
14	0xbf971d03	-1.1805729
15	0xbc8377f3	-0.016048407
16	0xbd3a3b4a	-0.0454667
17	0xbbd1e8a0	-0.006405905
18	0xbc8cbfc9	-0.017181294
19	0xbbc50420	-0.0060124546
20	0x3d6d9469	0.058002863
21	0xbe19c9eb	-0.15018432
22	0xbe357d7d	-0.17723651
23	0xbe349515	-0.17634995
24	0x3d0ac6ac	0.033880875
25	0x3d456a54	0.048197106
26	0xc009f2c9	-2.1554434
27	0xbe88dd10	-0.26731157
28	0xbdf2a6db	-0.118482314
29	0xbda4024a	-0.08008249
30	0xbe6a167c	-0.2286014
31	0xbe9ed7ca	-0.3102401
32	0x3c8e2446	0.01735128
33	0x3ccb9a93	0.02485398
34	0xbd6e6f9c	-0.058211908
35	0x3d3d454c	0.046208665
36	0x3faa5e6a	1.3310063
37	0xbc4f8034	-0.012664843
38	0x3d4c0704	0.049811378
39	0xbee907e7	-0.45513842
40	0x3d63b4f0	0.055592477
41	0xbe7052fb	-0.23469155
42	0x3e443402	0.19160464
43	0xbe56714e	-0.2094166
44	0xbd098c10	-0.03358084
45	0xbdd4ad98	-0.10384673
46	0xbdc80424	-0.09766415
47	0x3cbdc5e9	0.02316566
48	0x3d273427	0.04082122
49	0xbcbc54d0	-0.02298966
50	0x3dbfaef8	0.093595445
51	0xbe40eb00	-0.18839645
52	0x3d866fbf	0.065642826
53	0x3d1f1935	0.0388424
54	0x3d8b206e	0.06793295
55	0xbd235688	-0.039877445
56	0xbd42e02b	-0.047577064
57	0x3e7d62f2	0.24744776
58	0x3be0c4fd	0.0068594203
59	0xbdd4f2ec	-0.10397896
60	0xbe475834	-0.1946724
61	0x3e6c4bd9	0.23075809
62	0x3df736ec	0.120710224
63	0x3d7f0e5c	0.062269554
64	0x3dea3ce8	0.11437398
65	0x3f2e9448	0.6819501
66	0xbe6044dc	-0.21901268
67	0x3d968170	0.07348907
68	0xbd011de4	-0.031522647
69	0x3f7fde58	0.99948645
70	0xbdc8c182	-0.09802534
71	0x3e2ffe8c	0.17186946
72	0xbd99ac34	-0.07503548
73	0x3ee5dbe7	0.44894335
74	0x3c7cf990	0.01544036
75	0xbe466a5b	-0.19376509
76	0x3e0550c5	0.13019092
77	0xbe6f7eaa	-0.23388162
78	0xbf2e27fd	-0.6802977
79	0xbd5b9541	-0.053609136
80	0x3cf94080	0.030426264
81	0x3d3bffbc	0.045898184
82	0x3dcd0768	0.10011178
83	0x3d969822	0.07353236
84	0xbd4f5fba	-0.0506284
85	0xbd734ecc	-0.05940132
86	0xbece2395	-0.40261522
87	0xbc235a42	-0.00997025
88	0xbcf1603b	-0.029464832
89	0xbc432fd0	-0.011913255
90	0x3dc12f95	0.09432904
91	0x3e053f00	0.13012314
92	0xbf6fbcf3	-0.9364769
93	0xbdabf39e	-0.08396076
94	0x3e1a71aa	0.15082422
95	0x3f158bc6	0.584164
96	0xbda20173	-0.07910433
97	0xbdb5c9fa	-0.088764146
98	0xbd29f13a	-0.041489817
99	0x3d50e54d	0.05099993
100	0xbd9ed638	-0.07755703
101	0xbea5fe4a	-0.3242057
102	0xbd8f3e80	-0.06994343
103	0xbe0cfbba	-0.13767901
104	0xbd544a90	-0.05182892
105	0xbeb65e65	-0.35618892
106	0xbd348449	-0.04407147
107	0xbdcce2c3	-0.10004189
108	0x3ce7d928	0.02830179
109	0x3da3d61a	0.07999821
110	0x3ba2f960	0.0049735755
111	0x3e0a82c1	0.13526441
112	0xbd8da447	-0.06916099
113	0x3dd6d3b6	0.104895994
114	0xbde9018a	-0.11377247
115	0x3d6b81c6	0.05749681
116	0x3d765039	0.0601351
117	0x3d86e862	0.06587292
118	0x3de1eb82	0.11031248
119	0xbcc862b0	-0.02446112
120	0xbceaf2ea	-0.028680284
121	0xbd2a7bc3	-0.041621935
122	0xbc854a7a	-0.016270865
123	0xbdb87059	-0.090058036
124	0xbe26ac58	-0.16276681
125	0x3e009502	0.12556842
126	0x3d42e3b0	0.04758042
127	0xbd678ef1	-0.056532804
128	0xbd4621f8	-0.04837224
129	0x3ce024d0	0.027361304
130	0x3d73379d	0.05937921
131	0x3b4c5140	0.0031176358
132	0xbcc2c428	-0.023775175
133	0xbe39655d	-0.18105073
134	0xbc9204c2	-0.017824534
135	0xbd801260	-0.06253505
136	0xbde7a5a0	-0.11310887
137	0xbbe08eb0	-0.006852947
138	0x3d8c3d14	0.06847587
139	0x3d45efcd	0.048324395
140	0x3de5f669	0.1122864
141	0xbc59bab9	-0.013289147
142	0xbe230eac	-0.15923566
143	0xbdab1eda	-0.08355494
144	0x3dd032b5	0.101659216
145	0xbd9be9f0	-0.076129794
146	0x3d82c0d8	0.06384438
147	0xbb7982c0	-0.0038072318
148	0xbdc2bcb8	-0.095086515
149	0x3dbe0f85	0.09280304
150	0xbd8e91af	-0.06961381
151	0xbe0a3070	-0.1349504
152	0xbc0ab41c	-0.008465793
153	0xbbc0eb60	-0.005887434
154	0xbde7d2a2	-0.11319472
155	0xbd79d397	-0.060992803
156	0x3d22da5a	0.039759018
157	0x3d121624	0.035665646
158	0xbe2b3d9d	-0.16722722
159	0xbdb20c31	-0.086937316
160	0xbca370ca	-0.019951243
161	0xbceb4f5f	-0.02872437
162	0x3d5016c2	0.050802954
163	0x3cb608cc	0.022220992
164	0xbdc168ef	-0.094438426
165	0x3d7052e8	0.058672816
166	0x3d11ed26	0.035626553
167	0xbdfc4a83	-0.123188995
168	0x3dd48a52	0.10377945
169	0xbd8cb356	-0.06870143
170	0x3b4d02d8	0.0031282213
171	0x3d83bd4a	0.064325884
172	0x3c0fc8e0	0.00877592
173	0x3d4cb948	0.049981385
174	0xbdd70be8	-0.10500318
175	0x3d9c293a	0.07625051
176	0x3d08f7ca	0.033439435
177	0xbdf286fe	-0.11842154
178	0xbd98e288	-0.074650824
179	0xbc9e53b8	-0.01932703
180	0xbc307a5b	-0.010771359
181	0x3d169975	0.03676744
182	0xbd82db58	-0.06389493
183	0xbdb656fa	-0.08903308
184	0xbd1d6110	-0.038422644
185	0xbb882d33	-0.004155779
186	0x3d8f566f	0.06998908
187	0x3dd0f88d	0.10203657
188	0xbe1f5bb6	-0.15562329
189	0x3d5ad192	0.053422518
190	0x3d9e8e24	0.07741955
191	0xbce77601	-0.02825451
192	0x3d73d3a0	0.059527993
193	0x3d3ba499	0.04581127
194	0xbdec52bb	-0.11539217
195	0xbdad478e	-0.084609136
196	0xbdb6c0be	-0.089234814
197	0x3dcac7ac	0.09901366
198	0xbd52bedb	-0.051451545
199	0xbc9f24a7	-0.019426657
200	0xbc8beee0	-0.017081678
201	0x3d3f80f2	0.04675383
202	0x3d726b6c	0.059184477
203	0xbd844c1c	-0.06459829
204	0x3debeb1d	0.11519454
205	0xbd7b19a9	-0.06130377
206	0xbd91404b	-0.07092341
207	0xbdbe7758	-0.09300107
208	0x3d02a681	0.03189707
209	0x3dd8e88a	0.10591228
210	0x3c97bc07	0.018522276
211	0x3dd9a64e	0.10627423
212	0x3c54757b	0.012967463
213	0x3dd63714	0.10459724
214	0x3dc766dd	0.097364165
215	0xbcb41d94	-0.02198676
216	0xbd5f612d	-0.054536033
217	0xbdee40cc	-0.11633453
218	0xbe5b9ce5	-0.2144657
219	0x3c8abfd2	0.01693717
220	0xbebe03ab	-0.37112173
221	0x3874b000	5.8338046e-05
222	0xbd6d1f0d	-0.05789094
223	0xbd83d2c1	-0.064366825
224	0x3b478d68	0.0030449275
225	0xbd9a2e13	-0.07528319
226	0xbd854d16	-0.065088436
227	0x3b8ec40d	0.004356867
228	0x3ca0efa1	0.019645514
229	0x3dab3bec	0.083610386
230	0xbde3b267	-0.11118012
231	0xbd22a345	-0.039706487
232	0xbc32e700	-0.0109193325
233	0xbe463adf	-0.19358395
234	0xbdee11c7	-0.116244845
235	0xbda7a181	-0.08185101
236	0x3dffc278	0.12488264
237	0xba824f00	-0.0009941757
238	0x3da36e34	0.07980004
239	0x3c502241	0.012703479
240	0x3d698016	0.057006918
241	0x3d632104	0.055451408
242	0xbc528040	-0.01284796
243	0xbe138acd	-0.14408417
244	0x3da7fe40	0.08202791
245	0xbd98016f	-0.074221484
246	0x3d44f4cc	0.04808502
247	0x3d0bbfa4	0.03411831
248	0x3d8a11c2	0.06741668
249	0xbd9bcbbc	-0.076072186
250	0xbdc48a75	-0.09596721
251	0xbde1651a	-0.11005612
252	0x3c5aa7a5	0.013345634
253	0xbd052314	-0.032504156
254	0xbd864674	-0.065564066
255	0x3da2ffdf	0.0795896

encoder.2.bias f4 [64]
0	0x401f4bc1	2.4889987
1	0xbec0166f	-0.37517115
2	0xbe0db9c1	-0.1384039
3	0xbda7d181	-0.081942566
4	0x3dd260f6	0.102724
5	0xc05bc66f	-3.4339864
6	0xc087e500	-4.246704
7	0xbe33b22b	-0.17548434
8	0x3e5e7e88	0.21727955
9	0x3e4b3ef1	0.19848229
10	0x3d878c5d	0.06618569
11	0x409fe2bc	4.9964275
12	0xc03ae7a5	-2.9203885
13	0x3dca32aa	0.09872945
14	0x3d1f6196	0.038911425
15	0x3d76ced4	0.06025584
16	0x3d73b0c4	0.05949475
17	0xbd543393	-0.051806998
18	0xbd178b1f	-0.03699791
19	0xbe10710d	-0.14105625
20	0x3effd45c	0.49966705
21	0xbc91a93e	-0.017780896
22	0x3d2dfc0c	0.0424767
23	0xbe459773	-0.19296055
24	0xc01873c4	-2.3820658
25	0xbd534488	-0.05157903
26	0xbe2750c2	-0.163394
27	0xbe4b43e8	-0.19850123
28	0xbe109ab1	-0.1412151
29	0x40b9aa94	5.8020725
30	0xbdc3a168	-0.0955227
31	0xbcb175a3	-0.021662539
32	0xbf8d6f5e	-1.1049612
33	0xbc83cbb8	-0.016088352
34	0xbd088c72	-0.033337064
35	0x3e501b3f	0.20322894
36	0x402e9c6b	2.728297
37	0xbfee81d7	-1.8633374
38	0xbdd06f2b	-0.101774536
39	0x3e42a307	0.19007502
40	0xbe03055a	-0.1279501
41	0x3dbd3c01	0.092399605
42	0xbd44a00b	-0.04800419
43	0x3c798d4d	0.015231443
44	0xbcb5f5f0	-0.022211999
45	0xbd7623e4	-0.06009282
46	0xbee5dae5	-0.44893566
47	0xbe90dcc0	-0.2829342
48	0xbe051879	-0.12997617
49	0xc0c707c0	-6.219696
50	0xbe164e4d	-0.14678307
51	0x401bb6ec	2.4330397
52	0x3ec71e88	0.3889048
53	0xbd647fcb	-0.055785935
54	0xbd96a320	-0.073553324
55	0xbd753e37	-0.059873786
56	0xbcd77ab1	-0.026303621
57	0xbe1ba05b	-0.1519789
58	0x3c1766d2	0.009240823
59	0xbdaf50ca	-0.08560331
60	0xbe3a5848	-0.18197739
61	0xbf993304	-1.1968694
62	0x4084f3cc	4.1547604
63	0xbb7c6556	-0.003851255

to_latent.weight f4 [16, 64]
0	0x3d545b3c	0.05184482
1	0x3db01444	0.08597615
2	0xbd596bb8	-0.053081244
3	0x3da61530	0.0810951
4	0xbd298014	-0.04138191
5	0x3d0f399c	0.03496705
6	0xba563100	-0.0008170754
7	0xbcd2cec0	-0.025733352
8	0x3d304d74	0.043042615
9	0x3c3a2860	0.011362165
10	0xbc0bf590	-0.008542433
11	0xbd5549f8	-0.052072495
12	0x3d659c78	0.056057423
13	0x3deb5374	0.11490527
14	0xbdd1df5c	-0.102476805
15	0x3d6b6304	0.057467476
16	0x3cab7610	0.02093032
17	0xbdfddbba	-0.12395425
18	0x3ca1dd88	0.019758955
19	0xbdb9953c	-0.09061667
20	0x3dc65f50	0.09686148
21	0x3da55156	0.08072154
22	0xbd3ae8cc	-0.04563217
23	0xbbea7ea0	-0.007156208
24	0x3da96828	0.08271819
25	0xbbf10b20	-0.0073560625
26	0x3d9c928e	0.076451406
27	0xbd892d34	-0.06698075
28	0xbbc9f8a0	-0.0061636716
29	0xbcb73c98	-0.02236776
30	0x3d1917a4	0.03737606
31	0xbd50b57c	-0.050954327
32	0x3d618c60	0.055065513
33	0x3dca36de	0.09873746
34	0x3dddf542	0.10837795
35	0x3c6e4580	0.014542937
36	0xbd49aedc	-0.049239025
37	0xbd2236ac	-0.03960292
38	0x3d34264c	0.043981835
39	0x3d068028	0.032837063
40	0xbda53940	-0.0806756
41	0xbdda8afc	-0.106710404
42	0x3d6d8bf4	0.057994798
43	0xbd6060ec	-0.054779932
44	0xbdb819bc	-0.089892834
45	0xbde9cbe6	-0.11415844
46	0x3d8fd590	0.07023156
47	0x3d4f90ac	0.05067508
48	0xbdbe2852	-0.09285034
49	0x3da2e034	0.079529196
50	0x3dae0592	0.08497156
51	0xbdfa8568	-0.122324765
52	0x3d3605f0	0.044439256
53	0xbd1d7068	-0.038437277
54	0xbd8b1ef4	-0.06793013
55	0x3d948c24	0.07253292
56	0xbd9242fa	-0.07141681
57	0xbdea04f6	-0.114267275
58	0xbcea3380	-0.02858901
59	0xbd26554c	-0.04060869
60	0xbd8233c2	-0.06357528
61	0x3d30ed60	0.04319513
62	0xbdbf4428	-0.09339172
63	0xbdf8d6ca	-0.12150343
64	0x3d901256	0.07034747
65	0x3dc2b390	0.09506905
66	0xbc0863d0	-0.008324578
67	0x3d1b6b14	0.037943915
68	0x3d196528	0.037449986
69	0x3c8ebea0	0.017424881
70	0xbd073438	-0.033008784
71	0xbb7264c0	-0.0036986321
72	0xbdf62c3c	-0.12020156
73	0xbdbd7f08	-0.09252745
74	0xbdc0094a	-0.09376772
75	0xbd847022	-0.064667
76	0x3df64e58	0.12026662
77	0xbdafcb5a	-0.08583708
78	0xbdc350e8	-0.09536916
79	0x3d8f9096	0.070099995
80	0x3d176294	0.036959246
81	0xbdf9bc4e	-0.121941194
82	0xbdf4ab70	-0.119467616
83	0xbcb09e18	-0.02155976
84	0xbd4f6334	-0.050631717
85	0x3d153c8c	0.036434695
86	0x3da105c4	0.07862428
87	0x3d3b69d4	0.045755222
88	0xbd29bd30	-0.04144019
89	0xbce44208	-0.027863517
90	0xbd11f118	-0.035630316
91	0xbcfabec8	-0.03060855
92	0xbcecdfe8	-0.02891536
93	0xbd2b34b8	-0.041798323
94	0x3dacd480	0.08438969
95	0x3d849586	0.06473832
96	0xbd62062c	-0.055181667
97	0xbcb095d8	-0.021555826
98	0xbdd7b09c	-0.105317324
99	0x3ccc6438	0.024950132
100	0x3d979f58	0.07403439
101	0xbd150cbc	-0.036389098
102	0xbd39d0bc	-0.04536508
103	0xbd808102	-0.06274606
104	0x3d06b444	0.03288676
105	0x3cdba800	0.026813507
106	0xbde8841a	-0.113533214
107	0x3ca29240	0.019845128
108	0x3da2e548	0.07953888
109	0x3db25a3c	0.08708617
110	0xbdebbe0e	-0.115108594
111	0xbd88e7c0	-0.06684828
112	0xbdfda400	-0.12384796
113	0x3c110390	0.008850947
114	0xbda55516	-0.080728695
115	0xbdb6a740	-0.08918619
116	0x3cdbd478	0.026834711
117	0xbdb7476a	-0.08949168
118	0x3dd421dc	0.10358021
119	0xbd37f238	-0.044908732
120	0xbd54a6e8	-0.051916987
121	0xbdbc286c	-0.09187397
122	0xbd8daac2	-0.06917335
123	0x3cbe7a18	0.023251578
124	0xbd4d7d18	-0.050168127
125	0x3c58c4f0	0.013230547
126	0x3ccdfa20	0.025143683
127	0xbd8c342e	-0.0684589
128	0xbd7f1534	-0.06227608
129	0x3d2fc8c4	0.042916074
130	0xbd01b0ac	-0.031662628
131	0xbdf356f4	-0.11881819
132	0x3c260df0	0.010135159
133	0xbd221858	-0.039573997
134	0xbdde7d62	-0.108637586
135	0x3d93e1fa	0.07220836
136	0x3dc52f30	0.09628141
137	0x3d80af54	0.06283441
138	0xbd7c39ac	-0.061578438
139	0x3c54b920	0.01298359
140	0x3caf2af8	0.021382794
141	0x3bb95380	0.005655706
142	0xbd0ba398	-0.034091562
143	0x3d667224	0.056261197
144	0x3d05533c	0.03255008
145	0xbd937972	-0.07200898
146	0x3d21eef4	0.039534524
147	0x3cf78910	0.030216724
148	0x3ccdccb0	0.025122017
149	0xbdc1a038	-0.094543874
150	0xbd8c0584	-0.068369895
151	0xbdd038ba	-0.1016707
152	0xbccf4c10	-0.025304824
153	0xbdf72892	-0.12068285
154	0x3dbc4670	0.091931224
155	0xbd298794	-0.041389063
156	0xbce69a90	-0.028149873
157	0xbdbe4de8	-0.09292203
158	0x3ddf528c	0.109044164
159	0xbc113e50	-0.008864954
160	0x3cb8c890	0.022556573
161	0xbd796d80	-0.060895443
162	0xbdbe65a0	-0.09296727
163	0x3d98353e	0.0743203
164	0x3dc3c924	0.09559849
165	0x3b5baac0	0.0033518523
166	0xbdf8d900	-0.121507645
167	0x3cde95b0	0.027170986
168	0x3cd4a680	0.0259583
169	0x3cc79d50	0.024367005
170	0x3ca8dca8	0.02061303
171	0x3cb00f68	0.021491721
172	0x3daa241e	0.0830767
173	0x3ca59670	0.020213336
174	0xbdc6652e	-0.09687267
175	0xba01a800	-0.00049459934
176	0xbcccd938	-0.025005922
177	0x3d2339b4	0.039849952
178	0xbde97b7e	-0.114005074
179	0x3df518f8	0.11967653
180	0x3d383c04	0.04497911
181	0xbd687368	-0.056750685
182	0x3dca44d2	0.09876408
183	0x3de4be64	0.11169127
184	0x3de20b7a	0.11037345
185	0xbdeb99ac	-0.1150392
186	0xbd785734	-0.06063004
187	0x3d27b1e0	0.04094112
188	0x3da9897c	0.08278176
189	0x3db49fbe	0.08819531
190	0x3dfc0a7c	0.12306687
191	0x3dac2bbc	0.08406779
192	0xbdd4eb76	-0.10396473
193	0x3ddff6fa	0.10935779
194	0x3dcffd80	0.10155773
195	0xbda3bd54	-0.07995096
196	0x3df95b66	0.12175636
197	0xbcb900b8	-0.02258335
198	0x3d3c546c	0.04597895
199	0xbdfba748	-0.12287766
200	0xbcb0e770	-0.021594733
201	0x3d9967d4	0.07490507
202	0x3ccd49d8	0.025059626
203	0x3d9b010e	0.075685605
204	0x3df3b4d4	0.118997246
205	0xbc8bf668	-0.01708527
206	0x3c7f1690	0.015569344
207	0x3c5fb880	0.013654828
208	0xbc7b58f0	-0.015341029
209	0x3cfd63f0	0.030931443
210	0x3b952780	0.004551828
211	0x3d829812	0.06376661
212	0x3d219540	0.039448977
213	0x3d0a1318	0.033709615
214	0x3cfe5868	0.031048015
215	0x3de4e550	0.111765504
216	0xbd7f33a0	-0.062305093
217	0xbd1e08ac	-0.03858249
218	0xbde60762	-0.11231877
219	0x3df69202	0.120395675
220	0xbc663500	-0.014050722
221	0xbd51cff0	-0.051223695
222	0x3d17fd48	0.037106782
223	0x3db45940	0.088060856
224	0xbc8afcc8	-0.016966239
225	0x3de45a38	0.1115002
226	0x3d991ce2	0.07476212
227	0xbd423a54	-0.047418907
228	0xbdbf0e66	-0.09328918
229	0x3d9688b2	0.07350291
230	0xbd800a9a	-0.06252022
231	0x3dc6bd90	0.09704125
232	0x3dcf571c	0.10124037
233	0xbdb629fa	-0.08894725
234	0xbc2bf8c0	-0.010496318
235	0x3dd5a7b6	0.10432379
236	0x3d26cbe8	0.040721804
237	0xb9dfe600	-0.00042705238
238	0xbd229e40	-0.0397017
239	0x3cadb720	0.021205485
240	0x3ccb77b0	0.024837345
241	0x3cb1f800	0.0217247
242	0x3c6bc040	0.014389098
243	0xbdd81cbe	-0.10552357
244	0x3be530e0	0.0069943517
245	0x3d7441fc	0.05963324
246	0x3a80ef00	0.0009836853
247	0xbd9e3782	-0.07725431
248	0x3dd9bad6	0.10631339
249	0xbdc90c88	-0.09816843
250	0xbde6aa8e	-0.112629995
251	0x3d68acb8	0.056805342
252	0x3dd952f4	0.10611525
253	0x3deda03e	0.116028294
254	0xbd1ae598	-0.037816614
255	0xbd7d47b4	-0.06183596

to_latent.bias f4 [16]
0	0xbc9c12e8	-0.019051984
1	0x3dbceb32	0.092245474
2	0xb8943000	-7.066131e-05
3	0xbd093b94	-0.033504084
4	0x3da4002c	0.08007845
5	0x3d2673f4	0.040637925
6	0x3d0c4000	0.034240723
7	0x3c8e50d8	0.017372534
8	0x3d27d584	0.04097511
9	0xbdde37c6	-0.10850482
10	0x3dd76c3e	0.105186924
11	0xbd70ac78	-0.05875823
12	0xbdbeb5ba	-0.09312005
13	0x3d13252c	0.03592412
14	0xbdec7b28	-0.11546928
15	0xbc7a4c70	-0.015277013

decoder.0.weight f4 [64, 80]
0	0xbcb37fd8	-0.021911547
1	0xbd051bb9	-0.03249714
2	0xbd088e2e	-0.033338718
3	0x3cffad92	0.031210694
4	0xbca51004	-0.020149238
5	0xbd50bbce	-0.050960355
6	0xbc925059	-0.017860578
7	0x3de0f936	0.10985033
8	0xbe12663b	-0.1429681
9	0x3d4a5040	0.04939294
10	0xbdbd01c0	-0.092288494
11	0xbc9398a3	-0.018017119
12	0x3d420cef	0.047375616
13	0x3d227cd0	0.03966981
14	0xbd12d0cc	-0.035843655
15	0x3ceaa3c0	0.028642535
16	0xbd8c4788	-0.06849581
17	0xbd45132a	-0.04811398
18	0xbd6359ee	-0.055505686
19	0x3d2a27f8	0.041542023
20	0xbe17dd08	-0.1483041
21	0xbd2ae8d6	-0.041725956
22	0xbbfb622f	-0.0076716165
23	0x3d2a8434	0.041629985
24	0xbe14c1fe	-0.14527127
25	0x3d95b876	0.07310574
26	0xbcfd0a1d	-0.030888611
27	0xbe0c74ec	-0.13716477
28	0xbd9ae5d8	-0.075633705
29	0xbda103bf	-0.07862043
30	0xbd8f4b4a	-0.06996782
31	0x3cd9f418	0.02660565
32	0x3cfb3130	0.030663103
33	0xbd035e42	-0.032072313
34	0xbbfcc5d0	-0.007714011
35	0xbcd9445e	-0.026521858
36	0xbd71ee55	-0.05906518
37	0xbd06fad1	-0.03295404
38	0xbc1f4c90	-0.009722844
39	0xbd72c1f5	-0.059267003
40	0xbdeaad9c	-0.114588946
41	0xba7b9799	-0.000959748
42	0xbcdaec5f	-0.026724039
43	0x3cb69657	0.022288484
44	0xbcddbaf4	-0.027066685
45	0xbdd6d153	-0.10489144
46	0xbe0b3079	-0.1359271
47	0xbdabd539	-0.08390278
48	0x3ce474f8	0.027887806
49	0xbd91fa46	-0.07127814
50	0x3c410b00	0.011782408
51	0xbdfcac5f	-0.12337565
52	0xbd194ceb	-0.03742687
53	0xbd891952	-0.066942826
54	0xbdd21743	-0.10258343
55	0x3d873192	0.06601252
56	0x3dd5a604	0.104320556
57	0xbda9328d	-0.08261595
58	0x3cf591e8	0.0299768
59	0x3d65be28	0.05608955
60	0xbbfd3c70	-0.007728152
61	0x3db0e2f2	0.086370364
62	0xbb1864f0	-0.0023253523
63	0xbdf19f47	-0.11797958
64	0x3d0f6599	0.035009
65	0xbc391666	-0.011296844
66	0x3d317014	0.043319777
67	0x3c967f34	0.018371202
68	0x3c77c8f7	0.015123597
69	0xbc32a003	-0.010902408
70	0x3d750058	0.05981478
71	0xbcd24df8	-0.025671944
72	0xbc3510b2	-0.011051344
73	0xbdd54c24	-0.10414913
74	0x3b8e8809	0.0043497127
75	0xbc2da1ee	-0.010597689
76	0x3a0bd9a4	0.000533486
77	0x3d8d977c	0.06913659
78	0x3c616153	0.013756114
79	0xbb70c1a9	-0.0036736524
80	0x3d4c277e	0.04984235
81	0x3d864bae	0.065574035
82	0x3c35d01e	0.011096982
83	0x3d94d150	0.07266486
84	0xbc8072ec	-0.015679799
85	0xbbb1dd7f	-0.0054280157
86	0xbd9681b1	-0.073489554
87	0x3c2535b4	0.010083605
88	0xbda0d734	-0.07853547
89	0xbe06a692	-0.13149479
90	0xbc9d81dd	-0.019226963
91	0xbc6eda32	-0.014578389
92	0xbcc33d12	-0.023832832
93	0xbddece2b	-0.10879167
94	0xbdd4693e	-0.10371636
95	0xbb5a9080	-0.003335029
96	0xbbd857f0	-0.00660228
97	0xbdf51de9	-0.119685955
98	0x3d87bf2e	0.066282615
99	0xbd9b2f93	-0.075774334
100	0x3bc16fba	0.0059032114
101	0xbdcd2db2	-0.10018481
102	0xbde0523a	-0.109531835
103	0x3dd29891	0.10283006
104	0xbdd4c86e	-0.103897914
105	0x3ddfad24	0.10921696
106	0x3c720553	0.014771777
107	0xbc406e39	-0.011745029
108	0x3c8b47b8	0.017001972
109	0xbde13a28	-0.109974205
110	0xbd8aaef9	-0.06771655
111	0x3dba16d3	0.090863846
112	0x3d5ba793	0.053626608
113	0xbb340509	-0.0027468821
114	0xbde5c135	-0.11218492
115	0xbd6616e2	-0.056174167
116	0xbd6657d8	-0.056236118
117	0xbde4d1f2	-0.111728564
118	0xbdd75412	-0.10514082
119	0xbe15b70c	-0.14620608
120	0xbd903478	-0.070412576
121	0xbe09981a	-0.13436928
122	0x3cbe773d	0.023250217
123	0xbe1a0f40	-0.1504488
124	0xbc2edea0	-0.010673195
125	0x3da6fab2	0.08153285
126	0xbd96b282	-0.073582664
127	0xbd634b9c	-0.05549203
128	0xbda3a6c2	-0.07990791
129	0xbd1197af	-0.035545047
130	0xbd372e98	-0.04472217
131	0xbe16ce2f	-0.1472709
132	0x3d4c9244	0.049944177
133	0x3dd32eba	0.10311647
134	0x3d9c9536	0.07645647
135	0x3d194b38	0.03742525
136	0x3cc83a78	0.024441943
137	0xbc9d82e0	-0.019227445
138	0x3d40f55c	0.047108993
139	0x3c0fe3f8	0.008782379
140	0x3d5319f8	0.051538438
141	0xbd11c06c	-0.0355839
142	0xbbb920f0	-0.0056496784
143	0xb9fb081b	-0.0004788049
144	0x3dcc38f5	0.09971801
145	0x3c3990d0	0.01132603
146	0x3c801901	0.015636923
147	0x3da238b0	0.079209685
148	0xbcdc5a5b	-0.026898554
149	0x3d177a44	0.036981836
150	0xbbc26a40	-0.005933076
151	0x3d90a093	0.07061877
152	0x3d061427	0.032734063
153	0xbd0d4963	-0.034493815
154	0x3c158000	0.009124756
155	0xbd407e9e	-0.04699575
156	0x3c59d853	0.013296205
157	0x3c9ee314	0.019395389
158	0xbd110167	-0.035401728
159	0xbcc69e70	-0.02424547
160	0xbf2a86d0	-0.6661196
161	0x3ebe9c00	0.37228394
162	0xbe0d4bd7	-0.13798462
163	0x3da2a545	0.07941679
164	0xbd8b5eb8	-0.068051755
165	0xbf949866	-1.1609008
166	0x3ddcaf78	0.107756555
167	0xbd3a62da	-0.04550443
168	0x3c0d11fa	0.008610243
169	0xbd65776d	-0.056022096
170	0x3e1ea4d6	0.15492567
171	0xbe89b4a0	-0.26895618
172	0xbfc8b0e6	-1.5678985
173	0x3de4d134	0.11172715
174	0xbdccb41b	-0.0999529
175	0xbcdb79d7	-0.026791496
176	0x3d4055a8	0.04695669
177	0x3cb5941c	0.02216535
178	0xbd8a3b10	-0.067495465
179	0xc08d4cb0	-4.4156113
180	0xc0b61e1e	-5.6911764
181	0xbd49d34c	-0.049273774
182	0x3f0da431	0.5532866
183	0x38941a30	7.062068e-05
184	0x3e8ca3be	0.27468675
185	0x3dafd338	0.08585209
186	0x3db58b1b	0.08864423
187	0xbf88772e	-1.0661371
188	0xbd04bbc3	-0.032405626
189	0x3eb894c0	0.36050987
190	0x3ccebd4f	0.025236754
191	0x3d7e0391	0.06201512
192	0xbdde8ecd	-0.10867081
193	0x3d81e707	0.06342893
194	0x3da9b0ef	0.082857005
195	0xbf054780	-0.52062225
196	0x3fcf809d	1.6211125
197	0xbff1c119	-1.8887054
198	0xbd5adca7	-0.053433087
199	0x3ef82244	0.48463643
200	0x3cd190f5	0.025581816
201	0x3e21ede3	0.15813403
202	0xbdc7692d	-0.097368576
203	0x3d8987a5	0.06715325
204	0x3d38aa74	0.04508443
205	0x3dcfe660	0.101513624
206	0x3f338135	0.7011903
207	0xbc40202d	-0.011726421
208	0xbd03b2c1	-0.032152895
209	0xbdc127a8	-0.09431392
210	0x3d1c835f	0.038211223
211	0x3ecf2781	0.40459827
212	0xbd9f5df2	-0.077815905
213	0x3dfd4f09	0.123685904
214	0x3d3fef70	0.046859205
215	0x3c7fa8be	0.015604196
216	0xbcc74e12	-0.024329219
217	0x3ae21d00	0.0017251074
218	0xbd6b4dcc	-0.05744724
219	0xbdd4f546	-0.10398345
220	0x3d8dfd95	0.069331326
221	0xbdb8aa70	-0.090168834
222	0xc0021a72	-2.032864
223	0xbd850f8e	-0.064971074
224	0x3d283670	0.04106754
225	0xbe9fe41b	-0.31228718
226	0xbec1d67f	-0.3785896
227	0xbcd06c51	-0.025442274
228	0x3d160b8b	0.036632102
229	0x3c835531	0.016031833
230	0x3d9e2915	0.077226795
231	0xbda6d74c	-0.08146533
232	0x3e0ada7e	0.1355991
233	0xbe43b1ce	-0.19110796
234	0xbdd663f1	-0.10468281
235	0x3e540f07	0.20708857
236	0x3e0ffd92	0.14061573
237	0xbbeffd01	-0.0073238616
238	0x3e439598	0.19100034
239	0xbeaadba6	-0.33370703
240	0x3e95ad71	0.29233888
241	0xbf4b0ddd	-0.7931803
242	0xbd91ac7b	-0.07112976
243	0xbd9f04e6	-0.07764606
244	0xbd4f9b82	-0.050685413
245	0xbf9a013b	-1.2031626
246	0xc0bacb02	-5.837281
247	0xbd9538b4	-0.07286206
248	0xbd099aa0	-0.033594728
249	0xbd09a7dd	-0.033607353
250	0x39851f00	0.00025390834
251	0xc0117bb2	-2.2731748
252	0x3f7795b6	0.96712816
253	0x3cd90df8	0.026495919
254	0xbd0a683a	-0.033790804
255	0xbdbe7976	-0.093005106

decoder.0.bias f4 [64]
0	0x3d68fe5f	0.056883212
1	0xbc2b7f90	-0.010467425
2	0x3f64d556	0.89388025
3	0x3f187fc4	0.59569955
4	0xc02d4b48	-2.7077198
5	0xbf0f491d	-0.55970937
6	0x3d142334	0.036166385
7	0x3fb454a2	1.4088328
8	0xbdf0e65a	-0.11762686
9	0x3e2ed0e6	0.17071876
10	0xbdc5a88a	-0.09651287
11	0x3e8e0a41	0.27742198
12	0x404280bd	3.0391076
13	0x3f66e455	0.9019216
14	0x3afe5a40	0.0019405559
15	0xbd874a23	-0.06605937
16	0x3f0de808	0.55432177
17	0xbe17ccf4	-0.14824277
18	0x3f22a876	0.635383
19	0x3cd16752	0.025561962
20	0x3d1fc10c	0.039002463
21	0x3ecfcd67	0.40586397
22	0x40d79b8e	6.7377386
23	0x3f0578f4	0.52137685
24	0xbdcbb447	-0.099464945
25	0x3d8ceda9	0.068812676
26	0xbb524995	-0.0032087315
27	0x3ee3f39a	0.4452179
28	0xbcc0de86	-0.023543607
29	0x3c154dbb	0.009112771
30	0xbdfd797a	-0.123766854
31	0xbdb07cb2	-0.08617534
32	0xbd0dd8dd	-0.034630645
33	0x3de0f749	0.10984666
34	0xc065e9b2	-3.5923886
35	0x3eb14a7d	0.34627143
36	0xbc41f3f2	-0.011837946
37	0x40527263	3.2882316
38	0xbccc5ee7	-0.024947597
39	0xbe091548	-0.13387024
40	0xbd88a04e	-0.06671201
41	0x3e7fe2c7	0.24988852
42	0x3dff55f7	0.12467568
43	0xbd7d72e2	-0.06187714
44	0x3e12a5a9	0.14321007
45	0x3f19952b	0.5999324
46	0x3cd40fc8	0.025886431
47	0x3c897c4d	0.016782904
48	0x3d83dd0d	0.064386465
49	0xbe52e171	-0.20593812
50	0xbe23f258	-0.16010416
51	0x3dcf6782	0.101271644
52	0x3e4bf29a	0.19916764
53	0xbe1c5864	-0.15268093
54	0xc017f861	-2.3745348
55	0x40d7b53d	6.740874
56	0x3c7a233b	0.015267189
57	0x3ed26b48	0.41097474
58	0xbb221d47	-0.002473669
59	0x3ccf71d1	0.025322827
60	0xbf8e9ca6	-1.1141555
61	0xbea0d677	-0.31413624
62	0xbda485c8	-0.08033329
63	0x3d7a6329	0.061129723

decoder.2.weight f4 [24, 64]
0	0x3d3c1067	0.04591408
1	0x3d0b0736	0.033942424
2	0xbbb73d32	-0.005592012
3	0xb93b83b8	-0.00017882779
4	0xbb16beba	-0.0023001865
5	0x3c87ee25	0.016593048
6	0xb9236508	-0.00015582528
7	0x399684d9	0.0002870921
8	0xbd2546bd	-0.040350664
9	0x3cf7b631	0.030238243
10	0x39bf4829	0.00036484122
11	0xbd7351a4	-0.05940403
12	0x3c92a898	0.017902657
13	0xbda712d6	-0.081578895
14	0x3ca0ec60	0.019643962
15	0x3c0e1062	0.008670898
16	0x3f10d783	0.56578845
17	0x3da3db4d	0.08000813
18	0xbc3a16bc	-0.011357959
19	0x3b6689fd	0.0035177462
20	0x3c07b021	0.0082817385
21	0x3e3043d3	0.17213373
22	0xbb151e1d	-0.0022753545
23	0x3ec431fa	0.3831938
24	0xbc985642	-0.018595818
25	0xbdd80d5a	-0.105494216
26	0xbd48f869	-0.049065027
27	0x3bec3492	0.0072084153
28	0x3bcec285	0.0063098096
29	0xbcd46c6d	-0.025930608
30	0x3c9cecd0	0.01915589
31	0xbdc855b6	-0.09781973
32	0x3c8139a4	0.015774556
33	0xbc8cf03c	-0.017204396
34	0xbc8ced97	-0.017203135
35	0xbc5bed18	-0.013423227
36	0x3d8b0f83	0.06790068
37	0xb940547f	-0.00018342024
38	0x3cf05eeb	0.029342135
39	0x3cddaad7	0.027059002
40	0x3bbf33b7	0.0058350223
41	0xbc647337	-0.013943485
42	0xbc66acdf	-0.014079302
43	0x3d44a0ef	0.04800504
44	0xbd6cfc0a	-0.05785755
45	0xbe8ae7f3	-0.27130088
46	0xbdac5c74	-0.084160715
47	0x3de22aec	0.11043343
48	0xbd02925a	-0.031877853
49	0x3c20d741	0.0098169455
50	0xbaf03452	-0.001832614
51	0x3d0a1ee9	0.033720884
52	0x3c6d51b3	0.014484811
53	0x3c1e64a4	0.009667549
54	0xbb481ff2	-0.003053662
55	0x3a5efb27	0.00085060525
56	0xbdbe9cde	-0.09307264
57	0x3a806e78	0.0009798547
58	0xbd5f050d	-0.054448176
59	0xbc841ef4	-0.01612804
60	0x3d9ad8f6	0.07560913
61	0x3cc90a72	0.024541114
62	0xbd26c919	-0.040719125
63	0xbc18c80e	-0.0093250405
64	0xbcfdcd7c	-0.030981772
65	0x3ddf7746	0.109114215
66	0x3ccf39e3	0.025296157
67	0x3b4c78c4	0.0031199912
68	0xbbdb63d4	-0.00669525
69	0xbd8e4e68	-0.069485486
70	0x3d75992f	0.05996054
71	0xba750b1f	-0.00093476655
72	0xbc87e9cf	-0.01659098
73	0xbc58c7ce	-0.013231231
74	0xba2a1053	-0.0006487418
75	0xbd48fbfa	-0.04906843
76	0xbbbce52e	-0.005764625
77	0xbe8d0b7e	-0.2754783
78	0x3dfc34d0	0.12314761
79	0x3d4a672a	0.04941479
80	0xbd96a4f5	-0.07355682
81	0x3d36e86b	0.044655245
82	0x3c80388b	0.015651962
83	0x3d882005	0.06646732
84	0x3c4a4208	0.012344845
85	0xbeebc874	-0.4605137
86	0x3c0e9614	0.008702774
87	0x3c890b40	0.016728997
88	0xbde9d42e	-0.11417423
89	0x3d55b18e	0.052171282
90	0xbba0cf65	-0.004907536
91	0x3b0e7efd	0.0021743171
92	0x3d600d9a	0.05470047
93	0xbd7ffe47	-0.062498357
94	0x3b23a15f	0.002496801
95	0x3d234983	0.039865028
96	0x3d4c53af	0.049884494
97	0xbd35481d	-0.044258226
98	0x3cc75497	0.024332328
99	0xbc26a4c3	-0.010171118
100	0xbe0429b1	-0.12906529
101	0x3b966ad1	0.00459037
102	0xbd038f09	-0.03211883
103	0x3ce7d32d	0.028298939
104	0x3c5f0342	0.013611617
105	0xbcd418ec	-0.02589079
106	0x3bba316f	0.0056821625
107	0xbcf084a0	-0.029360116
108	0x3cae482d	0.02127465
109	0x3cc92fba	0.02455889
110	0xbdbd12d2	-0.09232105
111	0xbd109d12	-0.035306044
112	0xbd18f90a	-0.037346877
113	0xbad938f4	-0.001657276
114	0x3d39ab3f	0.04532933
115	0x3dddc2ac	0.10828146
116	0xbba56450	-0.0050473586
117	0xbde8a2c4	-0.1135917
118	0x3a15d43a	0.0005715523
119	0xbb79440a	-0.003803494
120	0x3d85105b	0.0649726
121	0xbc40e6a3	-0.011773738
122	0x3d8a38c5	0.06749109
123	0x3e079813	0.13241605
124	0xbc8c6707	-0.017138971
125	0x3e05c24a	0.13062397
126	0x3dcc3a6a	0.09972079
127	0x3da63d9c	0.0811722
128	0xbce7f511	-0.028315099
129	0xbd0e88c8	-0.034798414
130	0xbc22ee4d	-0.009944511
131	0x39f489e8	0.00046642055
132	0x3bd4edc4	0.0064980704
133	0xbc899c2f	-0.016798107
134	0xb995c3f6	-0.00028565497
135	0xb9f13b1f	-0.0004601115
136	0x3d0b5146	0.034013055
137	0x3d016ecf	0.031599816
138	0x3d426708	0.04746154
139	0xbd4e77c3	-0.050407182
140	0x3c583000	0.013195038
141	0xbd8ad7fa	-0.067794755
142	0x3dcb4d24	0.09926823
143	0x3d1b2e96	0.037886225
144	0x3f0d6319	0.55229336
145	0xbcd8f0b0	-0.026481956
146	0xbc750a0b	-0.014956008
147	0xbe1aac92	-0.15104893
148	0xbd38ec4a	-0.045147218
149	0x3e2ac568	0.16676867
150	0x3bb9d8e1	0.005671606
151	0x3ec9ac3f	0.39389226
152	0x3c1a4cd6	0.009417733
153	0xbdca458d	-0.09876547
154	0xbce72f36	-0.028220754
155	0xbad46719	-0.0016205042
156	0xbe13b496	-0.14424357
157	0xbdb5f8b3	-0.08885326
158	0x3dac9572	0.08426942
159	0x3de3fcbe	0.11132191
160	0x3d9e13be	0.07718609
161	0x3c9a43cb	0.018831154
162	0xbc9e516d	-0.019325936
163	0xbcd05d87	-0.025435222
164	0x3d8ce110	0.06878865
165	0x3bb7d2f6	0.0056098653
166	0x3d17e227	0.03708091
167	0x3d8ab064	0.06771925
168	0x3dfc3c25	0.12316159
169	0xbd174e93	-0.03694017
170	0xbc86e45b	-0.01646631
171	0xbc93ca45	-0.018040786
172	0xbbd2b294	-0.0064299796
173	0xbe691db1	-0.22765233
174	0xbd88226a	-0.06647189
175	0x3d672ce9	0.056439314
176	0xbdb060b9	-0.086121984
177	0xb8dd8ccf	-0.00010564329
178	0x3c5e9d56	0.0135873165
179	0xbdab284b	-0.08357295
180	0x3c489a0c	0.012243759
181	0x3d979d8b	0.07403096
182	0xbbc648c2	-0.006051154
183	0x3b968d55	0.004594485
184	0xbc3fd20f	-0.011707797
185	0xb780e69d	-1.5366177e-05
186	0xbc4ec5ee	-0.012620432
187	0xbdd574d6	-0.10422675
188	0x3d24c0f0	0.040223062
189	0x3c80c4a2	0.015718762
190	0x3e02abb8	0.12760818
191	0xbd9695ff	-0.07352828
192	0xbd9a21a0	-0.07525945
193	0xbd34fcbf	-0.04418635
194	0x3c0ec565	0.008714055
195	0xbb875e36	-0.004131104
196	0x3a6bdb0f	0.0008997181
197	0xbd159104	-0.03651525
198	0x3c5104fe	0.012757538
199	0x3bd48154	0.0064851437
200	0xbd049a3f	-0.032373663
201	0xbc5512ab	-0.013004939
202	0x3c0cb6c8	0.0085885
203	0xbcc28548	-0.023745194
204	0x3c17ccfc	0.009265181
205	0xbe769aed	-0.24082537
206	0xbcf015d0	-0.029307276
207	0x3aed27db	0.0018093543
208	0xbcb8f2cf	-0.022576718
209	0x3d4f4eb2	0.05061216
210	0x3b2f010e	0.002670351
211	0x3e29782a	0.16549745
212	0x3caada5d	0.020856077
213	0xbeed3015	-0.46325746
214	0xbb04c7e1	-0.0020260739
215	0xbd7abe38	-0.061216563
216	0xbc5a5cb7	-0.013327769
217	0xbdb08b43	-0.08620312
218	0x3b001273	0.0019542247
219	0xbb021e79	-0.001985459
220	0xbcf74b19	-0.030187177
221	0xbddec55c	-0.10877487
222	0xbd7818f2	-0.060570665
223	0xbcdf7db9	-0.027281629
224	0x3c889e88	0.016677156
225	0xba7a0fc8	-0.0009539095
226	0x3cf72286	0.03016783
227	0xbcce9ee8	-0.025222257
228	0x3d9be20f	0.07611477
229	0xbb4b3eac	-0.0031012697
230	0x3d921170	0.07132232
231	0xbde02560	-0.10944629
232	0xbd91c7a0	-0.071181536
233	0xbd218867	-0.039436724
234	0x3c46d0c7	0.012134737
235	0xbdb5f280	-0.08884144
236	0xbcece04e	-0.02891555
237	0x3cc44e37	0.023963077
238	0x3c152e30	0.00910525
239	0xba693cf6	-0.00088973285
240	0xbe112f6b	-0.14178245
241	0x3baa2aa3	0.005193071
242	0xbd8383bf	-0.06421613
243	0xbdf485a6	-0.11939554
244	0x3b8e5c5b	0.0043445057
245	0x3c81754d	0.015803004
246	0xbaad1ba6	-0.0013207092
247	0x3bdcdc30	0.0067401156
248	0xbb9e1b43	-0.004825027
249	0xbb5096e5	-0.0031828221
250	0xbdf8e3d7	-0.12152832
251	0x3e11626e	0.14197704
252	0xbc02ed71	-0.007991181
253	0x3de3ac5d	0.1111686
254	0x3d7601bb	0.060060244
255	0x3d7eb94a	0.062188424

decoder.2.bias f4 [24]
0	0x3e3809fb	0.17972557
1	0x3d3705ae	0.04468315
2	0x3e9ff6ae	0.3124289
3	0x3b5fd869	0.003415609
4	0x3ee697e8	0.4503777
5	0xbdf8969b	-0.12138101
6	0x3f1e4b5c	0.6183374
7	0xbe2c9b1e	-0.16856048
8	0x3f39d9bc	0.7259786
9	0xbe749aaa	-0.23887125
10	0x3f6b6c50	0.91962147
11	0xbea51bb4	-0.32247698
12	0x3f841da0	1.0321541
13	0xbecb5b2f	-0.39718005
14	0x3f99be5c	1.2011218
15	0xbf0998ce	-0.53748786
16	0x3fa9b39e	1.325794
17	0xbf1d94ca	-0.6155516
18	0x3fbe45ea	1.4865086
19	0xbf326d80	-0.69698334
20	0x3fd1cb9b	1.639026
21	0xbf485046	-0.7824749
22	0x3fdf9729	1.7468005
23	0xbf5398ff	-0.8265533
