models/v2/LSTM_xy_epoch_120_h-h_8-12_pt1_pf1.2.pth (torch, 340895 bytes, 14 tensors)

lstm.weight_ih_l0 f4 [256, 2]
0	0x3f13c12c	0.5771663
1	0xbe800916	-0.25006932
2	0x3e9da0c9	0.30786732
3	0x3e4cbf72	0.19994906
4	0xbd457cf5	-0.04821487
5	0x3e0b73b7	0.1361836
6	0x3f06a6fc	0.5259855
7	0xbf07a03b	-0.5297887
8	0x3f1f7788	0.62291765
9	0xbeacd457	-0.33755752
10	0xbef8a5e4	-0.48564065
11	0xbe3edf6e	-0.18639919
12	0x3e6d3cd6	0.23167738
13	0x3c9fa500	0.019487858
14	0xbe910d81	-0.28330615
15	0x3e7b1d7e	0.24522969
16	0x3efee4fd	0.4978408
17	0xbf365965	-0.71230155
18	0x3d7cd640	0.061727762
19	0x3d05f3d7	0.032703247
20	0x3e24c3e0	0.16090345
21	0xbe06da1f	-0.13169144
22	0x3ec3bc2f	0.3822951
23	0x3e6daea6	0.23211154
24	0x3d8e97e8	0.069625676
25	0xbd0b4eec	-0.034010813
26	0x3f3695fe	0.7132262
27	0x392901e9	0.00016117808
28	0x3f178942	0.59193814
29	0xbf225ca9	-0.6342264
30	0x3ef5f402	0.48037726
31	0xbf19245b	-0.598211
32	0xbe2f6b7d	-0.17130847
33	0x3e06db4e	0.13169596
34	0x3f19f0b5	0.60132915
35	0xbe6bd6f4	-0.23031217
36	0x3f296d3f	0.6618232
37	0xbe8df07e	-0.27722543
38	0xbe46ea7b	-0.19425385
39	0x3dc57a00	0.0964241
40	0x3f4396b5	0.76401836
41	0xbe3e9517	-0.18611561
42	0xbe0dec0a	-0.13859573
43	0x3e875608	0.26432824
44	0x3f152ae8	0.58268595
45	0xbf0135c1	-0.50472647
46	0x3e84980f	0.25897262
47	0x3ecd64e8	0.40116048
48	0x3f1dfde4	0.6171553
49	0x3ebfd4be	0.37466997
50	0xbe0ce5c6	-0.13759527
51	0x3e5d2676	0.21596703
52	0x3e22cb5d	0.1589789
53	0x3f04730d	0.51738054
54	0x3f115973	0.56777114
55	0xbeba9b7d	-0.36446753
56	0x3e057197	0.13031612
57	0x3f31a740	0.6939583
58	0x3f29b24d	0.6628769
59	0xbea158c9	-0.3151305
60	0x3f19b408	0.6004033
61	0xbef44f38	-0.4771669
62	0x3f15561e	0.5833453
63	0xbeac1410	-0.33609056
64	0xbe1b60b4	-0.15173608
65	0x3e0f0131	0.13965298
66	0x3deb7263	0.11496427
67	0xbdba3969	-0.09092981
68	0x3f0e94a0	0.55695534
69	0xbe9be454	-0.30447638
70	0xbeb6ff70	-0.35741758
71	0x3bec92d1	0.0072196503
72	0x3f0b3e65	0.5439208
73	0xbf284d9d	-0.6574343
74	0x3e492ac9	0.19645227
75	0xbe49e03c	-0.19714445
76	0x3eee2305	0.46511093
77	0xbf0f334f	-0.55937666
78	0x3eb6b082	0.3568154
79	0xbf254e5e	-0.64572704
80	0xbe7d07a9	-0.24709953
81	0x3e53a9a4	0.20670182
82	0x3f23c845	0.6397746
83	0xbe8f4ab7	-0.2798669
84	0x3f077061	0.5290585
85	0xbf128d94	-0.5724728
86	0x3f02a7ac	0.51037097
87	0xbf187d7c	-0.59566474
88	0x3efe6098	0.4968307
89	0xbf38fe8d	-0.72263414
90	0xbe07e317	-0.13270222
91	0x3e030f5b	0.12798826
92	0x3d337e6d	0.04382174
93	0xbe74c94c	-0.23904914
94	0x3e2944b7	0.16530119
95	0x3ec15aca	0.3776458
96	0x3ec41a7d	0.3830146
97	0x3f1f7345	0.6228526
98	0xbe8bf2c0	-0.2733364
99	0x3e6ef451	0.23335387
100	0x3e45f1b4	0.19330484
101	0xbe1f8700	-0.15578842
102	0x3f1ec78b	0.6202323
103	0xbee5a2dc	-0.44850814
104	0x3ecdffb7	0.40234157
105	0x3ee77116	0.45203465
106	0xbed333e0	-0.41250515
107	0x3daac616	0.08338563
108	0x3ed214c2	0.41031462
109	0xbe53bade	-0.20676753
110	0x3f07108f	0.5275964
111	0xbedce5ea	-0.4314416
112	0x3f1defb0	0.6169386
113	0xbf16f4f9	-0.5896755
114	0xbe0fbdae	-0.14037201
115	0x3e2b75af	0.16744111
116	0xbe7b328d	-0.24531002
117	0xbde3a2bd	-0.11115024
118	0x3f22ad68	0.63545847
119	0xbf00bfad	-0.50292474
120	0x3f1cb8fc	0.61219764
121	0xbe48886d	-0.19583292
122	0xbe6dfcfa	-0.23241034
123	0xbfa08be1	-1.2542688
124	0x3f0e2049	0.55518013
125	0xbde209aa	-0.110369995
126	0xbe0368dc	-0.1283297
127	0x3e83d54b	0.25748667
128	0x3ef739fa	0.4828642
129	0xbe9f5849	-0.31122044
130	0xbee0e54d	-0.43924943
131	0x3ebd6484	0.3699075
132	0x3ef6be82	0.4819222
133	0xbea3c09f	-0.31982896
134	0x3e88105f	0.2657499
135	0xbf0063cb	-0.5015227
136	0x3ec95a6d	0.39326802
137	0xbe25599a	-0.16147462
138	0x3e96cf95	0.29455248
139	0xbec20390	-0.37893343
140	0xbeb5432f	-0.3540282
141	0x3e98dc3e	0.2985553
142	0x3e5edcb6	0.21763882
143	0xbe8268e7	-0.2547066
144	0x3ec05e9f	0.3757219
145	0xbec6171b	-0.38689503
146	0x3e09eada	0.13468495
147	0xbe2382b4	-0.15967828
148	0x3d779d42	0.060452707
149	0xbf4b642a	-0.79449713
150	0x3e3571b9	0.17719163
151	0x3e97c63a	0.29643422
152	0x3f0a217e	0.53957355
153	0xbea4eb2f	-0.3221068
154	0xbea2ed6f	-0.31821772
155	0xbf2af506	-0.66780126
156	0x3ea8d42f	0.32974383
157	0xbeb35b33	-0.35030517
158	0x3e9dc7ee	0.30816597
159	0xbe2f5398	-0.17121732
160	0xbe585bcb	-0.21128766
161	0x3e573c1e	0.21019027
162	0x3e4e39cc	0.20139235
163	0xbe6c10e5	-0.2305332
164	0x3eada087	0.33911535
165	0xbeb50b7f	-0.35360333
166	0xbe61ef6a	-0.22063985
167	0x3e2553a1	0.16145183
168	0xbed902c5	-0.42384925
169	0xbd6c466d	-0.05768435
170	0xbe34f1cb	-0.17670362
171	0x3e9f641f	0.31131074
172	0x3e666c57	0.22502266
173	0xbe90f37b	-0.2831076
174	0x3e124fd3	0.14288263
175	0xbe7e58c7	-0.24838553
176	0xbdb8f080	-0.09030247
177	0xbdbd861c	-0.09254095
178	0xbe57b29d	-0.2106423
179	0x3e77b54e	0.24190256
180	0x3e89d74d	0.26922074
181	0xbe339657	-0.17537819
182	0xbf06d027	-0.52661365
183	0xbe9768d3	-0.29572162
184	0x3d49128a	0.049089946
185	0x3f940ebb	1.1566995
186	0x3ee7817e	0.45215982
187	0xbded7bba	-0.115958646
188	0x3ea2ad14	0.31772673
189	0xbe6d8a78	-0.23197353
190	0x3e935fd3	0.28784046
191	0xbedf466d	-0.43608418
192	0x3efa3b4b	0.48873362
193	0xbedd17eb	-0.4318231
194	0x3efcc7dc	0.4937123
195	0x3eb510fc	0.3536452
196	0x3eb81133	0.35950622
197	0xbe342c41	-0.17595007
198	0x3ec6b57e	0.38810343
199	0xbe9a54da	-0.30142862
200	0x3ed094e2	0.4073859
201	0xbeb4439b	-0.3520783
202	0x3f0e143b	0.5549962
203	0xbe923471	-0.28555635
204	0xbf3a92d0	-0.7288027
205	0x3e9ee074	0.3103062
206	0xbe8df432	-0.2772537
207	0xbdcbea28	-0.09956771
208	0x3eabeef8	0.33580756
209	0xbe37626f	-0.17908643
210	0x3f051ec5	0.52000076
211	0xbe23c0fc	-0.15991586
212	0x3f057e8c	0.5214622
213	0xbe42a56a	-0.19008413
214	0x3e3a80f4	0.18213254
215	0xbeddb632	-0.43303066
216	0x3efb2058	0.49048114
217	0xbf242090	-0.64112186
218	0x3f0a82c5	0.5410579
219	0xbec65270	-0.3873477
220	0x3eb5c528	0.3550198
221	0xbf281b8f	-0.6566705
222	0x3eb7e933	0.35920104
223	0xbed3f1bd	-0.4139537
224	0xbe27ce95	-0.16387399
225	0x3f65e2e0	0.8979931
226	0x3edffc04	0.4374696
227	0xbdb09509	-0.08622176
228	0x3efee740	0.49785805
229	0xbec3704d	-0.38171616
230	0x3e98e819	0.29864576
231	0xbeb17bc2	-0.34664732
232	0x3f1bb9d3	0.6083042
233	0x3e1c91df	0.1529002
234	0x3f031412	0.512025
235	0xbedf1ffa	-0.43579084
236	0xbe0e9d21	-0.13927127
237	0x3ea07c94	0.31345046
238	0x3ebadab7	0.3649499
239	0xbeb3e053	-0.35132083
240	0xbf0e2475	-0.5552438
241	0x3e822301	0.2541733
242	0x3ef90fc0	0.4864483
243	0xbec8c458	-0.39212298
244	0x3efca837	0.49347088
245	0xbe846085	-0.2585489
246	0xbebc8e45	-0.36827293
247	0x3dfb1911	0.122606404
248	0x3eb38387	0.35061285
249	0xbe780f3e	-0.24224564
250	0xbe8f683f	-0.2800922
251	0xbe90db58	-0.28292346
252	0xbd5351ee	-0.051591806
253	0x3ed02da6	0.40659827
254	0xbd87ad04	-0.06624797
255	0x3f7f0e0f	0.99630827

lstm.weight_hh_l0 f4 [256, 64]
0	0x3f0dc1f8	0.553741
1	0xbeac3849	-0.33636692
2	0x3f1c3244	0.610142
3	0x3e8aa39f	0.27077958
4	0xbeea53b8	-0.45766997
5	0xbea53df9	-0.32273844
6	0xbda599bb	-0.080859624
7	0x3e95600d	0.29174843
8	0xbf22a111	-0.6352702
9	0x3ee8d4b6	0.45474786
10	0xbe8397a2	-0.25701624
11	0xbec0705a	-0.37585717
12	0x3ec0ea31	0.37678674
13	0x3e874a6b	0.26423964
14	0xbec424b3	-0.3830925
15	0xbeb34951	-0.35016873
16	0xbef797b9	-0.48357943
17	0x3ec88c4b	0.39169535
18	0xbf0084b4	-0.5020249
19	0xbed63221	-0.4183512
20	0xbdf2aaa5	-0.11848954
21	0xbef0da57	-0.4704158
22	0xbf188405	-0.59576446
23	0x3ea4e830	0.32208395
24	0xbedfba07	-0.43696615
25	0xbf2a3b78	-0.6649699
26	0xbf0cb91e	-0.54969966
27	0xbe5ef34a	-0.21772495
28	0xbe8cdb97	-0.27511284
29	0xbea77fe7	-0.3271477
30	0xbf078d15	-0.5294965
31	0xbf1cf2f9	-0.61308247
32	0x3e7f03f3	0.2490385
33	0x3ea722af	0.3264365
34	0x3e43ef48	0.19134247
35	0x3ea0518d	0.31312218
36	0x3ec0382d	0.3754286
37	0xbe87620d	-0.26441994
38	0xbea691cd	-0.32533112
39	0xbe598367	-0.21241532
40	0xbebfb982	-0.3744622
41	0x3e73fe76	0.23827538
42	0xbee49f22	-0.4465266
43	0xbefa2eb7	-0.48863766
44	0xbd8274cf	-0.06369936
45	0x3ef2ef9b	0.4744843
46	0x3ec43ad0	0.3832612
47	0x3cd21a23	0.025647229
48	0x3e58f22e	0.21186134
49	0x3e3eae0b	0.1862108
50	0xbe6d4a8e	-0.23172972
51	0xbef5eb82	-0.4803124
52	0xbed84f96	-0.4224822
53	0x3e84cb8c	0.25936544
54	0xbd1176a8	-0.03551355
55	0xbe7271f8	-0.23676288
56	0xbeb566e0	-0.3543005
57	0xbf640fda	-0.8908669
58	0x3d7a73da	0.06114564
59	0xbe6ff3d4	-0.23432857
60	0x3f160704	0.58604455
61	0x3ec6b83e	0.3881244
62	0x3ea472f3	0.3211895
63	0xbf22ae9d	-0.6354769
64	0x3e6826cb	0.22671048
65	0x3e925503	0.28580484
66	0xbf73ce74	-0.952369
67	0x3e2ff09a	0.17181626
68	0x3dcd3a88	0.100209296
69	0x3fc3e518	1.5304289
70	0x3c5d17ed	0.013494474
71	0xbe0ff63a	-0.14058772
72	0xbc454c00	-0.012042046
73	0x3ebae0f1	0.36499742
74	0xbe1c21aa	-0.15247217
75	0xbf87dccc	-1.0614257
76	0x3f17962b	0.59213513
77	0x3e682735	0.22671206
78	0x401de484	2.4670725
79	0x3e6e4cf6	0.23271546
80	0x3ea55820	0.32293797
81	0x3b6e154d	0.0036328614
82	0xbd7fd131	-0.06245536
83	0xbe1caf12	-0.15301159
84	0x3f1e2099	0.6176849
85	0x3d553a16	0.05205735
86	0xbe7ae12d	-0.2449996
87	0xbfa669ba	-1.3001015
88	0x3bab3e69	0.0052259457
89	0xbeca22b3	-0.39479598
90	0x3f88430e	1.0645463
91	0x3c582b5d	0.013193932
92	0x3f6092f0	0.8772421
93	0xbeb8ba60	-0.36079693
94	0x3d795789	0.060874496
95	0x3b33afb1	0.0027417953
96	0xbc16b745	-0.009198968
97	0xbf9cb142	-1.2241595
98	0x3e90ae63	0.28258047
99	0x3f332623	0.69980067
100	0x3e7ad799	0.24496306
101	0xbc6a2254	-0.014290411
102	0xbe86cd33	-0.2632843
103	0x3e198c16	0.14994845
104	0xbf80c7e2	-1.0060999
105	0x3ebe3b99	0.37154844
106	0xbf831ede	-1.0243795
107	0x3e3ab792	0.18234089
108	0x3e3e4158	0.18579614
109	0xbdcdef4e	-0.10055409
110	0x3e56863a	0.20949641
111	0xbe856a1b	-0.26057515
112	0x3c5cd75b	0.013479079
113	0xbf7d0707	-0.9883885
114	0xbee2403e	-0.44189638
115	0xbe6e9c85	-0.23301895
116	0x3d77186a	0.060326017
117	0x3ff6fca3	1.9295849
118	0x3e44ff30	0.19237971
119	0x3d96fb94	0.073722035
120	0xbe399e4d	-0.18126793
121	0x3ecaba60	0.39595318
122	0x3f24a4db	0.6431405
123	0xbedfb043	-0.43689165
124	0x3e784510	0.24245095
125	0x3e9fe0d7	0.31226227
126	0x3e36e75e	0.17861697
127	0x3e949f42	0.29027754
128	0xbea8c63b	-0.32963738
129	0x3f03ef35	0.51536876
130	0xbfb22fb4	-1.3920808
131	0xc035990f	-2.837467
132	0xbf13f27a	-0.57791865
133	0x3f26c3c8	0.6514249
134	0x3f472761	0.7779446
135	0xc059f540	-3.4055939
136	0xbf351da9	-0.7074838
137	0xbe24a4b8	-0.1607846
138	0xbe2574b3	-0.16157798
139	0x3e4c4251	0.19947173
140	0x3f4385f7	0.7637629
141	0xbf0c5940	-0.54823685
142	0xbd0e75d2	-0.03478033
143	0xbda846e8	-0.08216649
144	0x3ea9f20e	0.33192486
145	0xbf3856cb	-0.72007436
146	0xbec57ba5	-0.38570896
147	0xbf0c3bbd	-0.54778653
148	0x3ea0ca6a	0.3140443
149	0x3e828686	0.25493258
150	0xbf6202db	-0.8828561
151	0xbd31f281	-0.04344416
152	0x3db52a22	0.08845927
153	0xbf8a7d69	-1.0819522
154	0x3fe12217	1.7588528
155	0xbe81358e	-0.2523617
156	0xbf3db977	-0.7411112
157	0xbf8ab8a8	-1.0837603
158	0xbf341e42	-0.7035867
159	0x3f263300	0.6492157
160	0x3f0bdd9e	0.54635036
161	0xbd471e27	-0.04861274
162	0xbe0c940e	-0.13728353
163	0x3f0f267d	0.55918103
164	0xbe58524c	-0.21125144
165	0xbfe0227b	-1.7510523
166	0x3e1c5a0c	0.15268725
167	0xbf7e97db	-0.99450463
168	0x3f10667d	0.56406385
169	0xbe4183a4	-0.18897873
170	0xbf715585	-0.9427112
171	0xbf64fbed	-0.8944691
172	0x3efc32ee	0.49257606
173	0xbdccf5e6	-0.10007839
174	0x3f0ab53a	0.5418278
175	0x3f4ce93a	0.80043375
176	0x3e72a21c	0.23694652
177	0xbfdcb68b	-1.7243208
178	0xbfba265a	-1.4542954
179	0xbf8601ef	-1.046934
180	0x3d390769	0.045173083
181	0x3f499250	0.7873888
182	0xbf2a09dd	-0.664213
183	0xbfa4bc26	-1.2869918
184	0x3e9fbd9c	0.31199348
185	0xbdc98cdc	-0.0984132
186	0xbe2a5693	-0.16634588
187	0x3e9895ea	0.29801875
188	0x3f2669a1	0.65004927
189	0xbef948bf	-0.48688313
190	0xbe553788	-0.20821965
191	0xbe3ca445	-0.18422039
192	0x3e7dad45	0.24773128
193	0x3bfe220d	0.007755524
194	0x3f4ed772	0.80797493
195	0xbd9928ca	-0.07478483
196	0x3e224c89	0.15849508
197	0x3e4d1727	0.20028363
198	0x3ee6039e	0.44924635
199	0xbdf0733d	-0.1174073
200	0xbe0de3eb	-0.13856475
201	0xbd9e8e1c	-0.07741949
202	0x3f569a53	0.8382923
203	0x3eb2b6ee	0.3490519
204	0xbed4d823	-0.4157115
205	0xbed5362b	-0.4164289
206	0x3cc9db9b	0.024640849
207	0x3e506829	0.20352234
208	0xbd5af9d7	-0.053460922
209	0x3c99e56e	0.018786158
210	0x3cc1963d	0.02363121
211	0xbdb8939d	-0.0901253
212	0x3e70dd7e	0.23521993
213	0x3c2ab87d	0.010419962
214	0xbe2eb17e	-0.17059895
215	0xbf135a86	-0.5756
216	0x3e363ddb	0.17797033
217	0x3dbcbc9a	0.092156604
218	0xbe8781b7	-0.26466152
219	0x3ec7e775	0.39043775
220	0xbe0a62e4	-0.13514286
221	0xbd81a4dd	-0.06330273
222	0xbd09e0b9	-0.033661578
223	0xbd295aad	-0.04134624
224	0x3f354bc1	0.70818716
225	0xbef8c6ab	-0.48589072
226	0xbeb15010	-0.34631395
227	0x3e4aabac	0.1979205
228	0xbd9045c9	-0.070445605
229	0x3f7725af	0.96541876
230	0x3d9fb81e	0.077987894
231	0xbc96f1db	-0.018425873
232	0xbf299c67	-0.66254276
233	0x3e3a7f20	0.18212557
234	0xbe43b927	-0.19113599
235	0x3e82bb34	0.2553345
236	0xbe5b51d4	-0.21417934
237	0x3c7a2ac6	0.015268987
238	0xbe92efa9	-0.2869847
239	0xbe14f071	-0.14544846
240	0xbeafb1fa	-0.34315473
241	0xbe9ad423	-0.30239972
242	0x3fcd88a2	1.6057322
243	0xbe8a1d87	-0.26975653
244	0x3ecb5a6a	0.39717418
245	0xbf789477	-0.9710154
246	0xbd8342a9	-0.06409199
247	0x3e3960da	0.18103352
248	0xbdc589c0	-0.09645414
249	0xbee24c85	-0.44199005
250	0xbcce4195	-0.025177756
251	0x3dc5838a	0.0964423
252	0xbe05223b	-0.13001339
253	0xbde64ed7	-0.11245506
254	0xbec32574	-0.38114512
255	0x3e246796	0.1605514

lstm.bias_ih_l0 f4 [256]
0	0x3f0bff54	0.54686475
1	0x3f28ff40	0.6601448
2	0x3f90d90e	1.131624
3	0xbd2ebd8e	-0.042661242
4	0x3e16fb8c	0.14744395
5	0xba2883ce	-0.0006428332
6	0xbf0d2092	-0.55127823
7	0xc0080f02	-2.125916
8	0x3f18a529	0.59627014
9	0xbfe571f9	-1.7925407
10	0xbf154265	-0.58304435
11	0xbf002b02	-0.50065625
12	0xbdcae95f	-0.09907793
13	0x3d93cc89	0.07216746
14	0x3c8deb19	0.017324017
15	0xbe86cf3c	-0.26329982
16	0x3f646549	0.8921705
17	0x3eb0bced	0.3451914
18	0x3eafb7df	0.3431997
19	0x3f459ed6	0.7719549
20	0x3f0933c7	0.5359463
21	0x3f416a9d	0.75553304
22	0x3e2924f6	0.16518006
23	0x3ea4b39a	0.32168275
24	0xbeea492d	-0.45758954
25	0x3fc35023	1.5258831
26	0xbf636c66	-0.8883728
27	0x3f044f3b	0.51683396
28	0x3efb81a8	0.49122357
29	0x3def4e94	0.116849095
30	0x3e311ad2	0.17295387
31	0x3eeb1d44	0.45920765
32	0x3e867644	0.26262105
33	0xbf9b8571	-1.2150098
34	0x3e1a12fc	0.15046304
35	0xbf3a8488	-0.72858477
36	0xbed5c471	-0.41751435
37	0xbf4c140e	-0.797181
38	0x3f5c12b3	0.8596603
39	0x3e7de967	0.24796067
40	0xc009c0df	-2.152397
41	0x3ecefaeb	0.4042581
42	0x3f27f273	0.65604323
43	0x3be08b89	0.0068525714
44	0x3ecb34bd	0.39688674
45	0x3f09629b	0.53666085
46	0xbfe4a8dd	-1.7864033
47	0xbfd637f9	-1.6735831
48	0xbf55a295	-0.83451205
49	0xbfc1e3a5	-1.5147597
50	0xbf37ea43	-0.7184183
51	0x3e418ef1	0.18902184
52	0x3f8eb5a2	1.114918
53	0x3f1f5c13	0.6224987
54	0x3e981a43	0.29707536
55	0x3eaa3d21	0.33249763
56	0xbecee375	-0.4040791
57	0x3efdade5	0.49546733
58	0x3e763391	0.24043109
59	0x3e0fa07b	0.14026062
60	0x3efd5d4a	0.49485236
61	0x3f2e66dd	0.68125707
62	0xbe6c38f8	-0.23068607
63	0x3f8680f4	1.0508103
64	0x3de2aceb	0.11068138
65	0xbe5a4f2e	-0.21319267
66	0x3e62e89f	0.2215905
67	0xbefcba68	-0.49360967
68	0x3e860db0	0.26182318
69	0x3e957950	0.29194117
70	0xbebfe7f7	-0.37481663
71	0x3de59167	0.11209374
72	0x3da5bec9	0.0809303
73	0xbf1cb0ad	-0.61207086
74	0xbedfd3a8	-0.43716168
75	0xbef6cc3c	-0.48202693
76	0x3eb23393	0.34804973
77	0xbeaca159	-0.33716848
78	0x3e601322	0.21882299
79	0x3e7333e3	0.23750262
80	0x3f158a57	0.58414215
81	0x3f0f8759	0.560659
82	0x3e968df8	0.2940519
83	0x3f52a73b	0.82286423
84	0x3eb86f57	0.36022446
85	0x3f1612e3	0.5862257
86	0x3eeb49b1	0.4595466
87	0x3e3f7555	0.18697102
88	0xbf2a5286	-0.6653217
89	0x3f772202	0.96536267
90	0x3c05b5c8	0.008161016
91	0x3f1644c5	0.58698684
92	0x3c9acbfa	0.018896092
93	0x3d91b37d	0.07114313
94	0x3e3a1ca2	0.18174985
95	0x3e3e2d2d	0.1857192
96	0x3de7e12a	0.113222435
97	0xbf12b852	-0.573125
98	0x3e3f8832	0.18704298
99	0x3e2ebeef	0.17065023
100	0x3e27cfc4	0.1638785
101	0x3e69a0ce	0.22815248
102	0xbd30856b	-0.043095987
103	0x3f033dbd	0.5126608
104	0xbda8005d	-0.08203194
105	0x3d858897	0.06520193
106	0x3dfe3545	0.12412504
107	0xbf136666	-0.5757812
108	0x3d0d5b27	0.034510758
109	0x3e0b43ea	0.13600126
110	0xbe33e7cc	-0.17568892
111	0x3e033d85	0.12816437
112	0xbeae8c63	-0.34091482
113	0x3e14082a	0.1445624
114	0x3ed11b16	0.40840977
115	0x3e28d305	0.16486748
116	0xbce73f69	-0.028228479
117	0xbd13ad99	-0.036054228
118	0xbe8a9c08	-0.27072167
119	0x3e1393cc	0.14411849
120	0x3c425737	0.011861614
121	0x3ea7411c	0.32666862
122	0x3e5a3d61	0.21312477
123	0x3e46a072	0.19397143
124	0x3e9155b0	0.28385687
125	0x3f1f0ea6	0.62131727
126	0xbf6b9a88	-0.9203267
127	0x3e850b8b	0.2598537
128	0x3d3b29af	0.04569405
129	0x3f10ca8e	0.56559074
130	0x3ddb9c94	0.10723224
131	0xbe157ec0	-0.14599133
132	0xbe151116	-0.14557299
133	0xbe9d0a4c	-0.30671918
134	0xbdffdc97	-0.12493246
135	0x3de35e3f	0.111019604
136	0xbebb4234	-0.36573946
137	0x3e64ab92	0.22331074
138	0xbe08d546	-0.13362607
139	0x3f30f72c	0.69127154
140	0xbfc7fdad	-1.5624291
141	0xbc899c07	-0.016798032
142	0xbda32b62	-0.07967259
143	0x3cf660b5	0.03007541
144	0xbd1f5d35	-0.03890725
145	0x3e658150	0.2241261
146	0xbd9ce969	-0.07661707
147	0xbe823d8d	-0.25437585
148	0xbf6ae2a1	-0.9175206
149	0xbcdff52a	-0.027338583
150	0xbd46cb7b	-0.048533898
151	0xbd318b40	-0.04334569
152	0xbc68584f	-0.014181211
153	0x3c77437a	0.015091771
154	0xbea243ec	-0.31692445
155	0xbe1aac54	-0.151048
156	0xbdd58560	-0.1042583
157	0xbca511e5	-0.020150134
158	0xbded9cac	-0.116021484
159	0xbe0deff7	-0.1386107
160	0x3e1210b0	0.14264178
161	0x3cb15600	0.021647453
162	0x3e2f70ba	0.17132846
163	0x3e16e542	0.14735892
164	0xbeeceb25	-0.4627315
165	0x402ad0a2	2.668984
166	0xbe3a40a8	-0.18188727
167	0xbe00d55d	-0.12581392
168	0x3bf70eb2	0.0075395936
169	0x3e3e16e1	0.18563415
170	0xbe4fcc5f	-0.20292805
171	0xbd0482f2	-0.03235144
172	0x3e9dce4a	0.3082145
173	0xbc402fa1	-0.011730106
174	0x3ce8b4b0	0.028406471
175	0xbe9f0a11	-0.31062368
176	0xbdf47ac6	-0.1193748
177	0x3df762f1	0.120794185
178	0x4030f5d4	2.7650042
179	0xbc9e36f9	-0.019313322
180	0xbdc5df58	-0.0966174
181	0x3eb4fc56	0.35348767
182	0x3e1141b6	0.14185223
183	0xbd91751f	-0.07102417
184	0x3ea3ff2a	0.32030612
185	0x3a8efce9	0.0010909113
186	0x3d5d8d10	0.054089606
187	0x3dd0ff3e	0.102049336
188	0x3e313495	0.17305215
189	0x3ddc430a	0.10754974
190	0xbdaac01f	-0.083374254
191	0xbec7f48f	-0.3905377
192	0x3edadea4	0.42747986
193	0x3e5db056	0.21649298
194	0x3e5ef792	0.21774128
195	0xbfbf4d1f	-1.494541
196	0xbf3752bf	-0.71610636
197	0x3e21558a	0.15755287
198	0xbf88dbe9	-1.0692111
199	0xbf904c07	-1.1273202
200	0x3f86896f	1.0510691
201	0x3f023bc0	0.5087242
202	0x3e76f28a	0.24115959
203	0xbf83c907	-1.0295724
204	0x3f0a1bd4	0.5394871
205	0xbfa13fc2	-1.2597582
206	0x3e64a296	0.22327647
207	0xbfc44edc	-1.5336566
208	0x3da16356	0.07880275
209	0x3f5ddcbb	0.8666493
210	0x3f9e1940	1.2351456
211	0x3ed41a7a	0.4142645
212	0xbf710eab	-0.94163007
213	0x3f114a3f	0.56753916
214	0x3fc380c7	1.5273675
215	0x3d7abec3	0.06121708
216	0xbef211f8	-0.47279334
217	0x3e47ad78	0.19499767
218	0x3d88f626	0.06687574
219	0x3f1fbb2a	0.62394965
220	0x3ebe5098	0.37170863
221	0x3fa1be60	1.2636223
222	0x3fa52bdf	1.2904013
223	0x3f1c2161	0.6098843
224	0x3d0df635	0.03465863
225	0xbede21b3	-0.43385085
226	0xbe40eb57	-0.18839775
227	0x3ef84ee6	0.48497695
228	0xbf19f70c	-0.6014259
229	0x3e429287	0.19001208
230	0xbe596ffd	-0.21234126
231	0x3f0c8533	0.54890746
232	0xbf3cba6b	-0.7372195
233	0x3e5eefbc	0.21771139
234	0x3fb21678	1.3913107
235	0xbf74ee28	-0.956759
236	0x3f690ea1	0.91037947
237	0x3de53fe0	0.11193824
238	0x3bfea70d	0.007771379
239	0xbf86b9f9	-1.0525504
240	0x3bfff27c	0.007810889
241	0xbfbbce23	-1.4672283
242	0x3e75e9f2	0.24015024
243	0x3f9f056e	1.2423532
244	0x3eb8cab7	0.3609216
245	0x3d9aa047	0.07550102
246	0x3eac99f4	0.33711207
247	0xbd9cc9e8	-0.07655698
248	0xbe41494c	-0.18875617
249	0x3e619223	0.22028403
250	0x3ba773ee	0.0051102554
251	0x3eeab717	0.4584281
252	0x3f9335eb	1.150083
253	0xbe03d2bc	-0.12873358
254	0xbfa01d89	-1.2509013
255	0x3ec8c145	0.39209953

lstm.bias_hh_l0 f4 [256]
0	0x3f0825b2	0.5318252
1	0x3efbc639	0.4917467
2	0x3f8393f9	1.0279533
3	0x3dbb2178	0.09137243
4	0x3c4201d0	0.011841252
5	0xbde6e9ee	-0.11275087
6	0xbf3f86f2	-0.74815285
7	0xc00491a9	-2.0713904
8	0x3edd1f6f	0.43188044
9	0xbfd6f5f2	-1.6793807
10	0xbf216a65	-0.6305297
11	0xbed5d30d	-0.4176258
12	0x3c679a9d	0.014135984
13	0x3db6337f	0.08896541
14	0x3e4a9c0e	0.19786093
15	0xbe9e3d8b	-0.3090633
16	0x3f4adb74	0.7924111
17	0x3eaa55e3	0.3326865
18	0x3ef3d2de	0.47621816
19	0x3f45ac1e	0.77215755
20	0x3ed30c81	0.41220477
21	0x3f51cc53	0.819524
22	0x3e4e293a	0.20132914
23	0x3ed9916d	0.42493764
24	0xbf269997	-0.6507811
25	0x3fd53bf4	1.6658921
26	0xbf7b9634	-0.98276067
27	0x3ee6eea2	0.45103937
28	0x3f011d28	0.50435114
29	0x3d8d01ba	0.06885095
30	0x3e477bd9	0.19480838
31	0x3ed943f2	0.4243465
32	0x3e7b8290	0.24561524
33	0xbf999c14	-1.2000756
34	0x3d2c6e19	0.042097185
35	0xbf6d36fb	-0.9266202
36	0xbe788ef2	-0.2427328
37	0xbf4e13a5	-0.80498725
38	0x3f69a54b	0.9126784
39	0x3e650a48	0.22367203
40	0xc00aabc2	-2.1667333
41	0x3e919834	0.28436434
42	0x3f23f617	0.6404738
43	0x3dada3e9	0.08478529
44	0x3efe3966	0.49653167
45	0x3f07f473	0.53107375
46	0xbff5e749	-1.9211208
47	0xbfda296c	-1.7043891
48	0xbf57fc2d	-0.84369165
49	0xbfc33946	-1.5251853
50	0xbf2e83f2	-0.6817008
51	0x3e0f872a	0.14016405
52	0x3f7af699	0.9803253
53	0x3f13e8b1	0.57776934
54	0x3eec49ce	0.46150059
55	0x3f09c1d3	0.5381138
56	0xbe9fde7c	-0.3122443
57	0x3eede2c1	0.46462062
58	0x3e681913	0.22665815
59	0x3e238225	0.15967615
60	0x3ea0b7de	0.3139028
61	0x3f34ee26	0.70675886
62	0xbe226d45	-0.15861996
63	0x3f6fffc0	0.9374962
64	0x3e374056	0.17895636
65	0xbe04ea60	-0.12980032
66	0x3ec8efec	0.39245546
67	0xbed3d65a	-0.41374475
68	0x3e80a671	0.25126985
69	0x3ea25c1c	0.317109
70	0xbe4fad3e	-0.2028093
71	0x3e96788e	0.2938885
72	0x3e5f1e10	0.21788812
73	0xbf2bac1f	-0.6705951
74	0xbefaccd0	-0.48984385
75	0xbf2570e4	-0.6462538
76	0x3e94c3c9	0.29055622
77	0xbebb035e	-0.36526006
78	0x3e5bcf1f	0.21465729
79	0x3e54a22f	0.20764993
80	0x3ebfde98	0.37474513
81	0x3f006db1	0.50167376
82	0x3ea9933b	0.3312014
83	0x3f4872d5	0.7830022
84	0x3e2fe2e9	0.17176403
85	0x3f0927e0	0.5357647
86	0x3edfd181	0.43714526
87	0xbccdd610	-0.025126487
88	0xbf129eae	-0.57273376
89	0x3f5cee26	0.86300886
90	0x3e0c3484	0.13691908
91	0x3f26157b	0.64876527
92	0xbe073e25	-0.132073
93	0x3dbcdf72	0.09222306
94	0x3e90c854	0.28277838
95	0x3e7a1f02	0.24425891
96	0x3dc41167	0.09573632
97	0xbee09506	-0.43863696
98	0x3e13541b	0.14387552
99	0x3e9f8d45	0.31162468
100	0x3d0c0403	0.034183513
101	0x3e5dfdab	0.21678798
102	0xbc86e8a6	-0.016468357
103	0x3ee4fa29	0.44722107
104	0xbdc6fae7	-0.097158246
105	0x3d8269e5	0.06367854
106	0x3d809679	0.062787004
107	0xbf2a31fb	-0.66482514
108	0x3e4ec8de	0.20193812
109	0x3e76eea3	0.2411447
110	0xbe9026f4	-0.2815472
111	0x3e7993d7	0.24372803
112	0xbf065c29	-0.52484375
113	0x3da40512	0.080087796
114	0x3e428c44	0.1899882
115	0x3e8589ee	0.26081795
116	0xbe53b51e	-0.2067456
117	0xbcac9fca	-0.021072287
118	0xbe3f3f07	-0.18676387
119	0x3e189559	0.14900722
120	0xbe59c5a9	-0.21266808
121	0x3e397b74	0.181135
122	0x3e097d2b	0.13426654
123	0x3e8e251d	0.2776269
124	0x3e218c3a	0.15776148
125	0x3f05e146	0.52296865
126	0xbf56f26f	-0.83963674
127	0x3ec46789	0.3836024
128	0x3dca64c5	0.098825015
129	0x3ef68fdc	0.4815663
130	0x3db7e316	0.0897886
131	0xbe35cbd1	-0.17753531
132	0xbdfb06f5	-0.12257186
133	0xbea1a581	-0.31571582
134	0xbcfe588e	-0.031048086
135	0x3e8bde75	0.2731816
136	0xbe4affed	-0.1982419
137	0x3dd9b870	0.10630882
138	0xbe6306cd	-0.22170563
139	0x3f1ba871	0.60803896
140	0xbfddd496	-1.7330501
141	0xbd92145a	-0.07132788
142	0xbd43bd08	-0.047787696
143	0x3e160daf	0.14653657
144	0x3ccd304f	0.02504745
145	0x3e1466e4	0.14492375
146	0xbd5d4504	-0.054020897
147	0xbeb087d1	-0.3447862
148	0xbf7bbc13	-0.98333853
149	0xbd669aba	-0.056299902
150	0x3bb99917	0.0056640017
151	0xbccc68c8	-0.024952307
152	0x3d31d7f6	0.043418847
153	0xbe2657b8	-0.162444
154	0xbe669c38	-0.2252053
155	0xbd48b4b3	-0.049000453
156	0xbdf3cc6a	-0.11904223
157	0x3d9e5678	0.07731336
158	0xbdae0aa5	-0.08498124
159	0xbc493612	-0.012280958
160	0x3d6aaacb	0.057291787
161	0x3daca2aa	0.08429463
162	0x3db7ef13	0.08981147
163	0xbcc8f4ed	-0.024530852
164	0xbeba9cd7	-0.36447784
165	0x40323a00	2.78479
166	0xbe28ee30	-0.16497111
167	0x3b9270c2	0.004469008
168	0x3d7c8a62	0.06165541
169	0x3c2030fb	0.009777303
170	0xbe820388	-0.2539332
171	0x3d5734d1	0.052540604
172	0x3eefbf80	0.4682579
173	0xbc7efbbb	-0.015562947
174	0x3da0000f	0.07812511
175	0xbe982a46	-0.29719752
176	0xbddfad18	-0.10921687
177	0xbd1ad7b6	-0.037803374
178	0x403d1346	2.9543014
179	0xbdb48ad3	-0.08815541
180	0x3d517bc3	0.05114342
181	0x3f021fd7	0.50829834
182	0x3e0717f3	0.1319273
183	0xbe2cb0bc	-0.16864294
184	0x3eef486e	0.46734947
185	0xbddac3d4	-0.106818825
186	0x3db47a49	0.088123865
187	0xbd5f702e	-0.054550342
188	0x3e1299dc	0.14316505
189	0x3e608c12	0.21928433
190	0xbe103f58	-0.14086664
191	0xbe8928c5	-0.26788917
192	0x3ec64a6b	0.3872865
193	0x3e8408f3	0.25788078
194	0x3daccfef	0.08438098
195	0xbfb440dc	-1.4082294
196	0xbf2ce803	-0.6754152
197	0x3dc25041	0.094879635
198	0xbf792eff	-0.97337335
199	0xbf847a15	-1.0349756
200	0x3f813c02	1.0096438
201	0x3ee78209	0.45216396
202	0x3e6919f0	0.227638
203	0xbf9e0209	-1.2344371
204	0x3f03c21e	0.51468074
205	0xbfa2aff2	-1.2709944
206	0x3e91aab3	0.28450546
207	0xbfd20432	-1.640753
208	0x3e7b46b1	0.24538685
209	0x3f55eb61	0.83562285
210	0x3f991ff6	1.1962879
211	0x3e4a78a6	0.19772586
212	0xbf404287	-0.7510151
213	0x3f0fe944	0.5621531
214	0x3fcc2002	1.5947268
215	0x3dd7e7b4	0.10542241
216	0xbec2520d	-0.37953225
217	0x3ece4f20	0.40294743
218	0x3e34d637	0.17659841
219	0x3f03c73b	0.51475877
220	0x3e7ba92c	0.24576253
221	0x3f8334b4	1.0250459
222	0x3f95cb19	1.1702605
223	0x3f24d0c3	0.64381045
224	0x3e69e24c	0.22840232
225	0xbf26a010	-0.65087986
226	0x3b86a642	0.004109175
227	0x3eb5295d	0.3538312
228	0xbed01209	-0.4063876
229	0x3c55d886	0.0130521115
230	0xbe66c32b	-0.22535388
231	0x3f304c9f	0.68866915
232	0xbf40a223	-0.752474
233	0x3e26bc95	0.16282876
234	0x3fbbd0ee	1.4673135
235	0xbf681e18	-0.9067092
236	0x3f72434a	0.94633925
237	0x3e104cfd	0.14091869
238	0xbde1b918	-0.11021632
239	0xbf6afc8f	-0.91791624
240	0xbe471b05	-0.19443901
241	0xbfb675b6	-1.4254673
242	0x3e2e9625	0.17049463
243	0x3fb8c30f	1.4434527
244	0x3f0f27ed	0.55920297
245	0x3e787146	0.2426196
246	0x3ee008dc	0.4375676
247	0xbe4a71a5	-0.19769914
248	0xbe8b9709	-0.27263668
249	0x3e2c26a0	0.1681161
250	0xbc97fc36	-0.01855288
251	0x3f146ea5	0.5798133
252	0x3f8b5ffc	1.0888667
253	0xbcf9c2c6	-0.030488383
254	0xbfb0b2c1	-1.3804551
255	0x3e9e7a01	0.30952457

lstm.weight_ih_l1 f4 [256, 64]
0	0xbd973b2a	-0.073843315
1	0x3e9e8352	0.30959564
2	0xbdef29af	-0.116778724
3	0xbf121471	-0.5706244
4	0x3ec1d7c0	0.37859917
5	0xbd18d8ad	-0.037316013
6	0x3e161873	0.14657764
7	0x3dcdfe49	0.10058267
8	0xbf0b1f55	-0.54344684
9	0xbe213fac	-0.15746945
10	0x3e4994f2	0.19685724
11	0xbd9c97f7	-0.076461725
12	0x3b39ecb6	0.002836985
13	0xbefa3951	-0.48871854
14	0xbea4c74b	-0.32183298
15	0x3f08f554	0.5349934
16	0xbea8b3ee	-0.32949775
17	0x3f489049	0.7834516
18	0xbef6ea0e	-0.48225445
19	0xbe6264e1	-0.22108795
20	0x3eaf73d8	0.3426807
21	0xbf18c059	-0.596685
22	0xbe6fc332	-0.23414305
23	0xbd43d785	-0.047812957
24	0x3e8a2a15	0.2698523
25	0xbea8677f	-0.3289146
26	0x3e92cce0	0.28671932
27	0x3ded52c5	0.11588053
28	0xbd75c3b9	-0.06000111
29	0xbe40dfe7	-0.18835412
30	0xbedfcf76	-0.43712968
31	0xbf2a46bf	-0.665142
32	0xbf92525e	-1.1431386
33	0xbe017b67	-0.1264473
34	0xbc79c5d5	-0.015244921
35	0x3f045935	0.5169862
36	0xbdc3c033	-0.095581435
37	0x3cc88bd1	0.024480732
38	0x3e37401b	0.17895548
39	0xbd11d37c	-0.035602078
40	0xbdd65fc5	-0.10467485
41	0x3d02aae6	0.031901263
42	0xbe3a3436	-0.1818398
43	0x3cd3249f	0.025774298
44	0xbe125d04	-0.14293295
45	0x3ab362c7	0.0013686054
46	0xbe2e55e4	-0.17024952
47	0xbe19c853	-0.15017824
48	0xbdb52e4f	-0.08846723
49	0xbea33f35	-0.3188416
50	0x3f5938f7	0.84852546
51	0xbed12f16	-0.40856236
52	0x3d058d0f	0.032605227
53	0xbd9610f0	-0.07327449
54	0x3de5788e	0.112046346
55	0xbe7fafe1	-0.24969436
56	0x3e641fee	0.22277805
57	0x3ee72ec5	0.4515287
58	0x3dadc391	0.08484567
59	0x3e25859a	0.16164246
60	0x3efdeeda	0.49596292
61	0xbe5b45ef	-0.21413396
62	0xbedfc90e	-0.4370808
63	0xbf0b9e9e	-0.54538906
64	0x3ea4575e	0.32097906
65	0xbee70cf4	-0.4512707
66	0x3ef07636	0.46965188
67	0xbd40b5a4	-0.047048226
68	0xbecca679	-0.3997076
69	0x3f7c24f7	0.98493904
70	0xbcd27b03	-0.025693422
71	0x3de83509	0.11338241
72	0xbeae5b11	-0.34053853
73	0xbdf077e6	-0.11741619
74	0xbe76db35	-0.24107058
75	0x3e1cf9e9	0.15329708
76	0xbedcae7d	-0.43101874
77	0xbdfe1b8e	-0.124075994
78	0xbf473b52	-0.7782489
79	0xbe1469f2	-0.1449354
80	0xbd9655c0	-0.07340574
81	0x3e6dc8f7	0.23221193
82	0xbead3879	-0.33832148
83	0xbe52bc2e	-0.20579597
84	0xbe8f657a	-0.28007108
85	0xbe182e26	-0.14861354
86	0xbeed86d9	-0.46391943
87	0xbe787643	-0.24263863
88	0xbec7b7e4	-0.39007485
89	0xbf27b39d	-0.65508443
90	0x3f606011	0.87646586
91	0xbe13eeee	-0.14446613
92	0xbf196251	-0.59915644
93	0xbd29afd6	-0.041427456
94	0xbeeda6e8	-0.46416402
95	0xbe37ef40	-0.1796236
96	0x3ed741c9	0.42042378
97	0x3b5197b4	0.0031981291
98	0x3e4642f1	0.19361474
99	0x3e2332e3	0.1593738
100	0x3e8ecc0a	0.27890044
101	0x3eb48648	0.35258698
102	0xbeaa01c6	-0.33204478
103	0xbef5b057	-0.479861
104	0xbe6d7e24	-0.2319265
105	0x3e9b2ab4	0.30306017
106	0xbef74b67	-0.48299715
107	0xbe1995aa	-0.14998499
108	0x3dc69d8f	0.09698021
109	0x3f55f62f	0.8357877
110	0x3d6d3c65	0.057918925
111	0xbdf42243	-0.119205974
112	0x3e48c0cb	0.19604795
113	0xbf1737f2	-0.5906974
114	0x3d1a9fef	0.03775018
115	0x3d40a448	0.04703167
116	0x3ea61c64	0.32443535
117	0x3ee6b277	0.45058033
118	0x3ef15b78	0.47140098
119	0xbe8a4aa2	-0.27010065
120	0xbe064ce5	-0.1311527
121	0xbfdbb29a	-1.716388
122	0x3e8ad8fe	0.27118677
123	0xbe532fe2	-0.20623735
124	0x3da71ade	0.081594214
125	0x3e5c7ac0	0.215312
126	0xbf072d9b	-0.52803963
127	0xb9e8bee2	-0.00044392707
128	0xbde66927	-0.11250525
129	0x3dba62d9	0.09100885
130	0xbe90df74	-0.2829548
131	0xbe621f43	-0.22082238
132	0xbdc6a9eb	-0.09700378
133	0x3e7974e9	0.24361004
134	0x3e2cee29	0.16887726
135	0xbebb1b7d	-0.3654441
136	0xbd2306d3	-0.03980143
137	0x3c72d056	0.014820179
138	0x3d1b8ccb	0.037976068
139	0xbd990e1a	-0.07473393
140	0x3d36ed12	0.04465968
141	0x3d8b1585	0.06791214
142	0x3d32fe67	0.04369965
143	0x3e9ff641	0.31242564
144	0xbbd850cd	-0.006601429
145	0x3c6db698	0.014508866
146	0xbd84464a	-0.06458719
147	0xbe3e13a8	-0.18562186
148	0x3e2704b8	0.16310394
149	0xbdeed33a	-0.11661382
150	0xbcbbf845	-0.022945533
151	0xbdd4ecdd	-0.103967406
152	0xbda68e39	-0.081325956
153	0x3a9dcf33	0.00120399
154	0x3e90c3d3	0.28274402
155	0xbea64c77	-0.32480213
156	0x3c226d04	0.009913687
157	0xbe53bc66	-0.20677337
158	0xbd96f5c2	-0.07371093
159	0xbe4039a8	-0.18771994
160	0x3e0f4306	0.13990411
161	0xbb781448	-0.0037853885
162	0x3c9440c1	0.018097283
163	0xbe6c9d59	-0.23106898
164	0xbda9da02	-0.08293535
165	0xbe19b579	-0.15010633
166	0x3e47bd04	0.19505697
167	0xbe0f790d	-0.14011021
168	0x3e38a9ff	0.18033598
169	0x3c5f7f64	0.013641212
170	0xbd2a1caf	-0.04153126
171	0x3de26ae2	0.110555425
172	0x3dd11b23	0.10210254
173	0x3ed01267	0.4063904
174	0xbd17d275	-0.03706594
175	0x3e0bd146	0.1365405
176	0x3e42c55f	0.19020604
177	0xb998a8f6	-0.00029117585
178	0xbdca51c4	-0.09878877
179	0xbe38d2d9	-0.18049182
180	0xbcce8e02	-0.025214199
181	0x3efec16f	0.49756953
182	0x3e7ceacb	0.24698941
183	0xbe83e4e9	-0.25760582
184	0x3e4eac26	0.20182857
185	0xbf4e97d4	-0.8070042
186	0x3f0385c3	0.5137598
187	0x3e10125b	0.14069502
188	0x3df4f6b1	0.11961115
189	0xbe2602cf	-0.16212009
190	0x3cc906aa	0.02453931
191	0xbd2692eb	-0.040667456
192	0xbe95d9be	-0.29267687
193	0xbd878391	-0.06616891
194	0x3eb637e4	0.35589516
195	0x3f49e6d1	0.7886782
196	0x3cc5d1fd	0.024147982
197	0x3e5d7d1a	0.21629754
198	0xbe5c4ba0	-0.21513224
199	0x3f9d99c4	1.231255
200	0x3ef72272	0.48268467
201	0x3f19acc4	0.60029244
202	0x3d2f12c1	0.042742494
203	0xbe351afe	-0.17686078
204	0x3e4112eb	0.18854873
205	0xbd46c300	-0.04852581
206	0xbdb81713	-0.08988776
207	0xbf116100	-0.56788635
208	0xbe86ffb2	-0.26366955
209	0x3e1a1f23	0.1505094
210	0x3f2739f0	0.6532278
211	0xbd93fa44	-0.07225469
212	0x3ec283fe	0.37991327
213	0xbe481eb3	-0.19542961
214	0x400ac367	2.1681764
215	0xbf217e93	-0.6308376
216	0x3e99d778	0.30047202
217	0x3f865ae9	1.0496494
218	0x3ed0bae8	0.40767598
219	0x3f81f913	1.0154136
220	0xbe5a8f57	-0.21343742
221	0x3ff0b296	1.88045
222	0x3f8a879d	1.0822636
223	0xbd826130	-0.06366193
224	0xbe9bf12a	-0.3045743
225	0xbe6107a3	-0.2197557
226	0x3e258d0e	0.1616709
227	0xbe38da82	-0.18052104
228	0xbe72481e	-0.23660323
229	0x3e9fc9e4	0.31208718
230	0x3eae8b1e	0.34090513
231	0x3e588ef9	0.2114829
232	0xbef3257e	-0.47489542
233	0xbe06826f	-0.13135694
234	0x3f07632e	0.5288571
235	0xbeb2494b	-0.34821543
236	0x3cd9dc7c	0.026594393
237	0xbe769f46	-0.24084195
238	0xbec0495c	-0.3755597
239	0xbec933d5	-0.39297357
240	0x3f791549	0.97298104
241	0x3eebbc59	0.46042135
242	0x3f033707	0.5125584
243	0x3fdfdbe0	1.7488976
244	0x3db0387b	0.08604523
245	0xbe6770ab	-0.22601573
246	0xbdf091b9	-0.117465444
247	0x3ddad9ff	0.10686111
248	0x3e6c3028	0.23065245
249	0x3ec4e7bd	0.38458052
250	0x3df7ff57	0.12109249
251	0x3e779699	0.24178542
252	0xbf0b752a	-0.54475653
253	0x3bdc6c06	0.0067267446
254	0x3db72309	0.08942229
255	0x3e393712	0.18087414

lstm.weight_hh_l1 f4 [256, 64]
0	0xbe341aa3	-0.17588286
1	0x3f397602	0.7244569
2	0xbd03ceba	-0.03217957
3	0xbeb01dae	-0.34397644
4	0x3f91b6b4	1.1383882
5	0x3f2ce5f4	0.6753838
6	0x3f8b7197	1.089404
7	0x3e14de0e	0.14537832
8	0x3e2f004a	0.17089954
9	0x3f3e0613	0.7422802
10	0x3e939a37	0.28828594
11	0xbe1c1ff8	-0.1524657
12	0x3e9ea476	0.3098485
13	0x3f672977	0.90297645
14	0x3df2bfb6	0.11852972
15	0xbec65c66	-0.3874237
16	0x3f14c353	0.5811054
17	0x3eae4ca3	0.34042844
18	0x3ece7a51	0.40327695
19	0xbe63ade2	-0.222343
20	0xbeb622c6	-0.35573405
21	0x40982e24	4.7556324
22	0x3f7c7c73	0.98627394
23	0x3f6e2893	0.9303066
24	0xbe09b45c	-0.13447708
25	0xc050605d	-3.2558815
26	0x4039f564	2.9056025
27	0x3e9592fb	0.292137
28	0x3f638a83	0.8888323
29	0xbf469e0d	-0.77584916
30	0x3f6477df	0.8924541
31	0x3ee7d5f8	0.45280433
32	0xbcbc6e96	-0.02300195
33	0x3d83467a	0.06409927
34	0xbf0f2a46	-0.5592388
35	0xbf51cf41	-0.8195687
36	0x3ddf721a	0.10910435
37	0xbebad091	-0.3648725
38	0xbfa0c6ad	-1.2560631
39	0x3f738f7b	0.9514081
40	0xbef8dd94	-0.4860655
41	0xbf2aed9f	-0.6676883
42	0xbf93dea0	-1.1552315
43	0x3d7d4bc6	0.06183984
44	0xbf9d1c90	-1.2274342
45	0x3e512b21	0.20426609
46	0xbf6bc474	-0.9209664
47	0x3e2437f5	0.16036971
48	0x3f3a4df6	0.7277521
49	0x3e6d3698	0.23165357
50	0xbd4e204a	-0.050323762
51	0x3d493f97	0.04913291
52	0xc0300644	-2.7503824
53	0x3dd0eb8e	0.102011785
54	0x3f2dd5e7	0.67904514
55	0xbf0344b9	-0.5127674
56	0xbf382ed6	-0.71946466
57	0xc0511434	-3.266858
58	0xbebbe526	-0.36698264
59	0xbea59495	-0.32339922
60	0xbf1bbabb	-0.60831803
61	0x3f590ac1	0.84782034
62	0x3f87f277	1.0620869
63	0xbee62aa6	-0.44954413
64	0x3fceece4	1.6166043
65	0xbf856e58	-1.0424299
66	0x3e46057f	0.19338034
67	0xbeacd45b	-0.33755764
68	0x3f584d2c	0.84492755
69	0xbfe5d347	-1.7955102
70	0x3f605742	0.87633145
71	0x3e8f304c	0.27966535
72	0x3ed23081	0.4105263
73	0xbe837317	-0.25673744
74	0xbd56fbee	-0.052486353
75	0xbea50dac	-0.32236993
76	0xbefd9cfa	-0.49533826
77	0x3d990ae7	0.074727826
78	0xbe926d9f	-0.2859926
79	0x3d66a28e	0.056307368
80	0xbe79d295	-0.24396737
81	0x3e940395	0.28908983
82	0x3ec858f8	0.39130378
83	0x40074102	2.1133428
84	0xbd9701a7	-0.07373362
85	0x3e204fbf	0.1565542
86	0xbf5ed5b2	-0.87044823
87	0x3ef67bbc	0.48141277
88	0x3f010b26	0.50407636
89	0xbd1960a2	-0.03744567
90	0xbfda686c	-1.7063117
91	0x3e841bd7	0.2580249
92	0xbe345254	-0.1760953
93	0x3f17d053	0.5930225
94	0xbfe3a216	-1.778384
95	0x3e0d99db	0.13828222
96	0xbe5f2bfe	-0.21794125
97	0x3dfa3cd0	0.1221863
98	0xbbf0b70a	-0.0073460387
99	0xbe1a778d	-0.15084668
100	0x3e9e817e	0.3095817
101	0x400a18cf	2.1577642
102	0xbdb9d574	-0.09073916
103	0x3eebe5fd	0.46073905
104	0xbdd6b061	-0.1048286
105	0xbed82d15	-0.42221895
106	0x3dbaef59	0.09127683
107	0xbf22b54e	-0.635579
108	0xbf1f5383	-0.62236804
109	0x3f249afd	0.64298993
110	0xbdc2c9bd	-0.09511135
111	0xbf8de3dd	-1.1085163
112	0xbf9f6fa0	-1.245594
113	0xbea57cf2	-0.32321888
114	0x3f8aee72	1.0854018
115	0x3ed5d3b0	0.41763067
116	0x3d7082ac	0.05871837
117	0x3f356b0f	0.70866483
118	0xbe099fab	-0.13439815
119	0x3f6dcc82	0.9289018
120	0x3f87ecb0	1.0619106
121	0xbeada97e	-0.33918375
122	0xbd3f3cab	-0.046688717
123	0xbf0ad977	-0.54238075
124	0x3e772a20	0.24137163
125	0x3f14278a	0.5787283
126	0xc08840f1	-4.2579274
127	0x3ea7a5e0	0.3274374
128	0xbf04637f	-0.5171432
129	0xbf603f2b	-0.87596387
130	0x3e0bbd8b	0.13646524
131	0xbdb45e22	-0.08807017
132	0x3ea6db83	0.3258935
133	0x3e98d7ac	0.29852045
134	0x3e581758	0.21102655
135	0x3efce6e2	0.493949
136	0xbf1ffd5a	-0.6249596
137	0xbe2a7c35	-0.16648944
138	0xbf0c7699	-0.54868466
139	0xbe95c4c3	-0.2925168
140	0x3dcff4d4	0.10154119
141	0xbe99e35c	-0.30056274
142	0x3fc33f28	1.5253649
143	0xbe1a5db2	-0.15074804
144	0xbf13866f	-0.57627004
145	0x3f0b701e	0.5446795
146	0xbd5d5ea9	-0.054045353
147	0xbde2416d	-0.11047635
148	0x3e050695	0.12990792
149	0x3ea19d64	0.31565392
150	0xbe7699b5	-0.24082072
151	0x3f3fb288	0.7488179
152	0xbe96f3d8	-0.29482913
153	0x3f9565a9	1.1671649
154	0x3f386aa2	0.7203771
155	0x3f102812	0.5631114
156	0xbf039618	-0.514009
157	0xbd545197	-0.051835623
158	0xc066c752	-3.6059155
159	0x3d376e3a	0.044782855
160	0x3d07be13	0.033140253
161	0xbe977975	-0.29584852
162	0xbeecbb15	-0.46236482
163	0xbf280970	-0.656394
164	0x3e94f546	0.2909338
165	0x3fea8572	1.8321974
166	0x3f00cff5	0.5031732
167	0x3eef66aa	0.46758014
168	0xbdbd0d3c	-0.0923104
169	0xbeb52cfc	-0.35385883
170	0x3e059677	0.13045679
171	0x3dcea0f1	0.10089291
172	0x3edf78f2	0.4364696
173	0xbea127a8	-0.31475568
174	0x3ea93b79	0.33053187
175	0xbe5dbba6	-0.21653613
176	0x3e4f65cc	0.20253676
177	0x3da46160	0.08026385
178	0x3fe8680a	1.815675
179	0x3f133011	0.5749522
180	0xbe045782	-0.12924007
181	0xbda48e3f	-0.08034944
182	0x3ee83966	0.45356292
183	0xbe9a8391	-0.30178502
184	0xbe254bfc	-0.16142267
185	0xbdb6aed2	-0.08920063
186	0x3da25c58	0.079277694
187	0x3eef7b82	0.46773916
188	0xbf756b30	-0.9586668
189	0x3eb332ae	0.34999603
190	0x3f27f48c	0.65607524
191	0x3aac005c	0.0013122666
192	0x3e1a5f09	0.15075316
193	0x3eb13d08	0.34616876
194	0x3e53343c	0.20625395
195	0x4006dd4c	2.107257
196	0xbd4794a1	-0.048725728
197	0x3e34af69	0.17645039
198	0x3e9ab151	0.30213407
199	0xbee90dfe	-0.45518488
200	0x3f624220	0.8838215
201	0x3e561f7a	0.20910445
202	0xbe902cee	-0.2815928
203	0x3b747c74	0.0037305625
204	0x3e25d3f9	0.16194142
205	0x3d42ffe0	0.047607303
206	0xbe0cddeb	-0.1375653
207	0x3a22e6c7	0.0006214198
208	0xbf19de2a	-0.6010462
209	0xbe60f9f3	-0.21970348
210	0xbe9df5f0	-0.30851698
211	0xbe96d1ab	-0.2945684
212	0x3f40b236	0.7527193
213	0xbe7f4233	-0.24927597
214	0x3e073663	0.1320434
215	0xbedaeed0	-0.42760324
216	0x3f4c0736	0.79698503
217	0xbe09ca36	-0.13456044
218	0x3dbc2e81	0.091885574
219	0xbdaab577	-0.08335393
220	0xbc55f5e8	-0.013059117
221	0x3e6062da	0.21912709
222	0xbf97678e	-1.1828477
223	0xbf691721	-0.91050917
224	0xbf207a9c	-0.6268709
225	0xbe35e94f	-0.17764781
226	0xbf073813	-0.5281994
227	0xbe9c1ab2	-0.30489117
228	0x3e42f2e8	0.19037974
229	0x3f369605	0.7132266
230	0x3ee5f20d	0.44911233
231	0x3fc16784	1.5109715
232	0x3dd53805	0.104110755
233	0xbf094a6c	-0.53629184
234	0xbdcf5a1e	-0.1012461
235	0xbebb74c7	-0.36612532
236	0xbdfe7796	-0.12425153
237	0xbda092e2	-0.07840516
238	0x3f0a576c	0.54039645
239	0x3e0de571	0.13857056
240	0x3efe9862	0.49725634
241	0xbda56e58	-0.08077687
242	0xbdf34246	-0.11877875
243	0xbd502c1f	-0.050823327
244	0x3f454c40	0.77069473
245	0xbe9b4dd8	-0.30332828
246	0x3eac6448	0.3367026
247	0xbea49b3f	-0.32149693
248	0xbebbd3b2	-0.36684948
249	0x3d892cbc	0.066979855
250	0x3e1b756f	0.15181516
251	0xbe34ad3f	-0.17644213
252	0xbe747e46	-0.23876294
253	0xbef652b3	-0.4810997
254	0xbf368be7	-0.71307224
255	0x3db615a7	0.088908486

lstm.bias_ih_l1 f4 [256]
0	0xbe319966	-0.17343673
1	0x3e9cbbe1	0.3061209
2	0xbdc69ea2	-0.096982256
3	0xbe6ac80f	-0.22927879
4	0xbe8d8cc1	-0.2764645
5	0xbcda57fa	-0.026653279
6	0xbdc61f0c	-0.096738905
7	0xbcecaecb	-0.028891942
8	0x3ed9cf6f	0.42541072
9	0xbd137794	-0.03600271
10	0xbd159bc2	-0.036525495
11	0x3d7a587b	0.061119538
12	0xbac42eae	-0.0014967525
13	0xbe8b4e1a	-0.27208024
14	0x3f0f9623	0.56088465
15	0xbe388810	-0.18020654
16	0xbed772a2	-0.42079645
17	0x3e5df632	0.21675947
18	0xbeb56e9e	-0.35435957
19	0xbcb815c6	-0.02247132
20	0xbdab9793	-0.0837852
21	0xbe455874	-0.19272023
22	0x3e60a429	0.21937622
23	0x3cde70a4	0.02715332
24	0xbc587b5b	-0.013213004
25	0xbebaf171	-0.3651233
26	0xbec3430e	-0.38137096
27	0x3dc045c1	0.093883045
28	0x3e36de64	0.17858273
29	0x3e95e7e1	0.29278472
30	0xbe4f929f	-0.20270775
31	0xbe40246f	-0.18763898
32	0x3dff197e	0.12456034
33	0xbce0a7d9	-0.027423786
34	0xbea315e7	-0.31852648
35	0xbe7e221c	-0.24817699
36	0xbe6984b5	-0.2280453
37	0xbe1e46df	-0.15456723
38	0xbd1df38b	-0.03856234
39	0xbe57c8ce	-0.21072695
40	0xbd52ecc7	-0.05149534
41	0xbd59293c	-0.05301784
42	0xbca3cf31	-0.019996257
43	0xbe5b448b	-0.21412866
44	0x3ca133c3	0.019678002
45	0x3e148ec6	0.14507589
46	0x3e42619a	0.18982545
47	0xbe13881b	-0.14407389
48	0xbebd55de	-0.36979574
49	0xbc62e4db	-0.013848509
50	0x3e39cffb	0.18145745
51	0x3eb02617	0.3440406
52	0x3ede4224	0.43409836
53	0x3e8f232d	0.27956524
54	0xbe133d94	-0.14378959
55	0xbe93f1f8	-0.28895545
56	0xbd836cfc	-0.064172715
57	0x3bf60852	0.007508316
58	0x3d9f6dd5	0.07784621
59	0xbe042eee	-0.12908527
60	0xbe884476	-0.26614732
61	0xbedd1ceb	-0.43186125
62	0xbd6f1b43	-0.05837561
63	0xbe5e88ab	-0.21731822
64	0xbdd2b5a5	-0.10288552
65	0x3dc491d4	0.09598127
66	0xbe2eff8d	-0.17089672
67	0x3eea02bc	0.4570521
68	0x3d274a6a	0.04084245
69	0x3e5c5078	0.21515071
70	0xbdf80078	-0.121094644
71	0x3d1fd20a	0.03901867
72	0x3de25a96	0.11052434
73	0xbe5e42bc	-0.21705145
74	0x3e65af17	0.22430073
75	0x3d3920ac	0.045197174
76	0x3ece9732	0.40349728
77	0xbd85aba7	-0.06526881
78	0xbe013998	-0.12619627
79	0x3de9a590	0.11408532
80	0xbe8250ef	-0.25452372
81	0xbeafd762	-0.34344012
82	0x3d082fa7	0.03324857
83	0x3e76d555	0.24104817
84	0x3c1b8ba4	0.009493742
85	0xbdc72542	-0.09723903
86	0x3f29aa58	0.6627555
87	0x3b6fb3a6	0.0036575585
88	0x3e8eb4b8	0.27872252
89	0x3e75221a	0.2393879
90	0xbe36ee09	-0.1786424
91	0x3e88dd31	0.26731256
92	0x3ee17b8d	0.44039574
93	0x3dece8e5	0.115678586
94	0x3e29d500	0.1658516
95	0x3f35b985	0.70986205
96	0x3e80fe20	0.25193882
97	0xbd1c0eae	-0.038099937
98	0x3cdf4027	0.02725227
99	0x3e0e59d2	0.13901451
100	0x3eaa4a46	0.3325979
101	0xbda7405a	-0.08166571
102	0x3d8e48ea	0.06947501
103	0x3e998f71	0.2999225
104	0xbdd4afd3	-0.10385098
105	0x3e1567d8	0.14590394
106	0xbcc55113	-0.02408651
107	0x3ed09051	0.40735105
108	0xbdec66f4	-0.11543074
109	0x3e0c5e57	0.13707863
110	0x3ecee9d1	0.40412763
111	0xbe0a0359	-0.1347784
112	0x3ee67e0a	0.45018035
113	0x3f6c94ad	0.9241436
114	0xbce673fd	-0.02813148
115	0x3f092765	0.53575736
116	0x3e70c3f8	0.23512256
117	0xbe670ce8	-0.22563517
118	0x3d846f14	0.06466499
119	0xbe68ad95	-0.22722466
120	0x3e52b1be	0.20575616
121	0x3db0f2ea	0.08640082
122	0xbeab2fe4	-0.33434975
123	0xbe6f0717	-0.23342548
124	0x3db2f035	0.08737222
125	0x3dc3c209	0.09558494
126	0x3de3717b	0.11105629
127	0xbe12af1d	-0.14324613
128	0xbdde9c5e	-0.108696684
129	0x3e643c29	0.22288574
130	0xbd496102	-0.04916478
131	0xbcc16f65	-0.023612687
132	0xbd485fa9	-0.048919354
133	0xbdc15a05	-0.09440998
134	0x3d859da4	0.06524208
135	0x3e67e0ae	0.22644302
136	0x3e87df96	0.2653777
137	0x3bfec457	0.0077748704
138	0x3c01e724	0.007928643
139	0xbd9b00ab	-0.07568487
140	0x3d68cb24	0.056834355
141	0x3e83c255	0.257342
142	0xbd89c73e	-0.067274556
143	0x3e3b165a	0.18270245
144	0xbdc56b69	-0.096396275
145	0x3e8efa36	0.2792527
146	0xbe8a8181	-0.2705193
147	0xbd37551f	-0.044758912
148	0xbd0de10b	-0.034638446
149	0x3df1cacf	0.11806261
150	0x3e8e20fe	0.27759546
151	0x3e54e798	0.20791471
152	0x3e428fc3	0.19000153
153	0xbc9eced8	-0.01938574
154	0x3e318d2c	0.17339009
155	0xbe55f4e9	-0.20894207
156	0x3e308f52	0.17242172
157	0x3c79286d	0.015207392
158	0xbde7b126	-0.11313085
159	0x3ecae5a9	0.39628342
160	0xbddffc49	-0.109367914
161	0x3c70dec8	0.014701553
162	0x3d438fc7	0.04774454
163	0x3e83cfe2	0.2574454
164	0xbd870065	-0.06591872
165	0x3da95db4	0.082698256
166	0x3e546a5d	0.207437
167	0x3e0eed3a	0.13957682
168	0xbdcb5888	-0.09928995
169	0x3e608d4a	0.21928898
170	0x3ea90bda	0.33016855
171	0xbe90fa8d	-0.28316155
172	0xbe92ebed	-0.28695622
173	0x3dc789ee	0.09743105
174	0xbe612c5f	-0.21989582
175	0x3df9e71f	0.12202286
176	0x3e1f697d	0.15567584
177	0x3d89eb97	0.06734388
178	0x3e3c272e	0.18374321
179	0xbe0cabf3	-0.13737468
180	0x3ef83e9f	0.48485276
181	0x3e916090	0.28393984
182	0xbc2e5267	-0.010639763
183	0xbe9c8a2d	-0.3057417
184	0x3e1cb931	0.1530502
185	0xbe35ceda	-0.17754689
186	0xbdf3234a	-0.11871965
187	0xbed95efd	-0.42455283
188	0xbe045e4a	-0.12926593
189	0xbc74593c	-0.014913853
190	0xbdad50b9	-0.08462662
191	0xbe8add1d	-0.2712182
192	0x3e9e5e32	0.3093124
193	0x3d2475ad	0.040151287
194	0xbdf471f2	-0.11935796
195	0x3e824342	0.2544194
196	0x3ec1d792	0.3785978
197	0xbdae3b20	-0.08507371
198	0x3d4ac058	0.04949984
199	0x3caeda12	0.021344218
200	0xbe4a6cf4	-0.19768125
201	0x3d9ecaa3	0.07753494
202	0x3f286ead	0.6579388
203	0xbd3db6fb	-0.046317082
204	0x3f1a083d	0.6016882
205	0xbdbd158a	-0.09232624
206	0xbd2ef270	-0.042711675
207	0xbede38d8	-0.43402743
208	0xbe63b2ce	-0.22236177
209	0xbe0c0624	-0.13674217
210	0x3e433249	0.19062151
211	0x3edc8b19	0.43074873
212	0xbe3c5460	-0.18391562
213	0x3cc1dfdf	0.02366632
214	0x3cd781a4	0.026306935
215	0xbd3f7787	-0.04674485
216	0xbe9c135e	-0.30483526
217	0x3dfe6389	0.124213286
218	0xbd92f6f4	-0.07176009
219	0x3d10751b	0.03526793
220	0xbf004488	-0.5010457
221	0xbe01302a	-0.1261603
222	0xbcd83617	-0.02639298
223	0x3eba83e4	0.3642875
224	0xbd54764c	-0.05187063
225	0xbe9240c4	-0.28565037
226	0x3e53ecdf	0.20695828
227	0xbe650310	-0.2236445
228	0xbe450eb7	-0.19243895
229	0xbbdd1b5c	-0.0067476463
230	0xbd884529	-0.06653816
231	0x3ebb4040	0.36572456
232	0x3e2f5125	0.17120798
233	0x3f29b850	0.66296864
234	0x3d9a8b9c	0.075461596
235	0x3eb76375	0.35818067
236	0xbe0a156d	-0.13484736
237	0xbd67a2d3	-0.056551766
238	0xbccc66ce	-0.024951365
239	0xbdc873fb	-0.097877465
240	0x3f080781	0.5313645
241	0x3ede28ec	0.43390596
242	0x3dc8fa80	0.09813404
243	0xbe69cca0	-0.22831964
244	0x3e5562b9	0.20838441
245	0x3ddef260	0.10886073
246	0xbeb79400	-0.35855103
247	0xbd4fc5d9	-0.05072579
248	0x3e43a5e9	0.19106258
249	0xbe322218	-0.17395818
250	0xbda5ca73	-0.08095255
251	0x3ed5c272	0.41749913
252	0xbe639238	-0.22223747
253	0x3f293833	0.6610138
254	0xbd694210	-0.056947768
255	0xbdbbbcb0	-0.09166849
