models/v2/LSTM_xy_epoch_40_h-h_8-12.pth (torch, 339986 bytes, 14 tensors)

lstm.weight_ih_l0 f4 [256, 2]
000000 2b 7a 18 bd 1b 16 b8 3d 20 48 20 3f 90 04 e7 be
       -0.037225883 0.08988591 0.62610054 -0.45120668
000010 ef 64 23 3f 13 bf 62 be 8a c1 ad bd e9 f7 f0 3d
       0.6382589 -0.22143202 -0.0848418 0.11766035
000020 a0 53 a7 3d 87 50 0b 3e 5f a5 bf bd 60 55 31 3e
       0.08170247 0.13604937 -0.09357714 0.17317724
000030 1b 25 22 3d b6 62 d3 bb 0c 34 24 3f ab 96 af be
       0.039586168 -0.0064509762 0.6414192 -0.34294638
000040 00 64 22 be 9f 60 fa bd 50 1d 15 3f 90 81 e5 be
       -0.1585846 -0.1222546 0.5824785 -0.4482541
000050 2b fe d8 bd b4 33 7a bd ef 7c 90 3d 7d d4 5d bc
       -0.10595354 -0.061084464 0.07055079 -0.013539431
000060 e6 de ab 3e 7f 2c 06 bf 21 7e 08 3f 55 b4 ad be
       0.33568496 -0.52411646 0.5331746 -0.33926645
000070 d5 8d e8 bd d0 5c 4a 3d e0 05 a1 3e b6 d8 c0 be
       -0.11355177 0.04940492 0.31449795 -0.37665337
000080 50 57 bb 3c 85 1d b1 bc 77 aa 10 3e 42 f3 fc 3d
       0.022868782 -0.021620521 0.14127527 0.12351085
000090 f9 d3 1a 3f 3d 3b ac be ee f8 7c 3d cf bf c7 bc
       0.60479695 -0.33638945 0.061760835 -0.024383454
0000a0 bf a5 e3 bc d2 0d 5d bd 53 0f a4 3d 1d b6 f9 bc
       -0.027788995 -0.05396826 0.08010735 -0.030482346
0000b0 9e c6 ba 3d 93 e9 a1 3e 9b e5 04 3f 64 b8 f6 be
       0.091199145 0.31623515 0.5191285 -0.48187554
0000c0 74 a2 a7 bd c5 1c 28 be 79 2e 07 3d 7d b7 73 3b
       -0.08185282 -0.16417225 0.033003304 0.0037188225
0000d0 98 01 1a 3f 5d aa ae be 8b bb 14 3f ac 52 f9 bc
       0.6015868 -0.34114352 0.5809867 -0.030434929
0000e0 3e 82 cb 3e 09 67 a9 be dc 16 2d 3e ac 6b 92 bd
       0.39747804 -0.33086422 0.16903251 -0.07149443
0000f0 81 e5 b5 bd 91 0f a2 3d 9e c9 99 3d 59 26 75 3e
       -0.08881665 0.07913125 0.075091586 0.2394041
000100 0a ab eb 3e 9d 74 c6 be f9 89 03 be 88 36 06 3d
       0.4602893 -0.38760844 -0.12845601 0.03276685
000110 96 ac 1b 3f 86 37 b9 be be a8 c1 3e ff 7e c0 be
       0.6081022 -0.36175174 0.37824053 -0.3759689
000120 b3 7b 22 3f 59 dc 05 bf 84 0a 12 3f de 70 eb be
       0.6347 -0.5228935 0.57047296 -0.45984548
000130 82 6d 8f 3d fd 63 11 3d 01 d9 ba 3d 99 96 91 3d
       0.07003309 0.035495747 0.091234215 0.07108802
000140 9b 51 e8 3e a0 58 19 bf 0c c3 0f 3f 80 32 ff be
       0.4537476 -0.59900856 0.5615699 -0.49843216
000150 8c 07 69 3d cb 92 e6 bd 93 da ec 3e 12 8d df be
       0.056891963 -0.11258467 0.4626051 -0.43662316
000160 8e db a1 bd e6 4f d2 3d f2 fa 2a 3f ab e6 8d be
       -0.07903205 0.10269146 0.6678916 -0.27715048
000170 40 e6 19 3f 0e c3 72 be 4e 7e 21 3f 76 35 98 3c
       0.6011696 -0.2370722 0.6308335 0.01858018
000180 c4 28 28 3e e8 22 f3 3d 2a 30 49 be 0a 36 55 3d
       0.16421801 0.11871892 -0.1964728 0.05205349
000190 c1 85 7c 3c ef 49 a9 3a e3 51 fe bc 90 7f ed 3c
       0.015412749 0.0012915711 -0.031044906 0.02899149
0001a0 c9 eb 26 3d f2 b5 02 bd 0c ed 13 3f 86 09 cb be
       0.040752206 -0.031911798 0.5778358 -0.39655703
0001b0 a8 c9 e7 bd ff 60 ca 3c 08 8c 4c 3d 57 0a ea bd
       -0.1131776 0.024704454 0.04993823 -0.114277534
0001c0 1d 9d ef bd 03 8a 9e 3d 93 45 ad 3e 8f cd b0 be
       -0.11699889 0.077411674 0.33842143 -0.3453183
0001d0 99 72 22 bb 5c 88 9d bc 8e 70 bd bd b4 12 01 3e
       -0.0024787544 -0.01923006 -0.09249984 0.12604791
0001e0 25 f0 1d 3e fe 6d 40 3e 46 7c 01 3f b3 76 17 bf
       0.15423639 0.18791959 0.5058025 -0.59165496
0001f0 a9 89 23 3f 13 a4 ce be 9e aa 00 3d 0a 9b 2d bb
       0.6388193 -0.40359554 0.031412713 -0.0026490116
000200 31 30 04 3f 21 5e a5 be 6d 52 46 bd 32 7e 04 3e
       0.51636034 -0.32298377 -0.04841845 0.12938765
000210 0d f6 d4 3e fa ce 8b be 53 b0 0f be ed 79 80 3d
       0.41593972 -0.27306348 -0.14032106 0.062732555
000220 b3 56 ba 3e 37 3e 1f bf 6d 1f c3 3e b2 ad c7 be
       0.3639427 -0.6220431 0.38109913 -0.38999707
000230 07 b0 ab 3d 53 ba 83 bd ad 93 c3 be 42 87 99 bc
       0.08383184 -0.06432023 -0.38198605 -0.018741254
000240 61 64 7c be 4a 3d df 3d 82 1b c8 3e 1e ba 8d be
       -0.24647667 0.10900362 0.39083487 -0.2768106
000250 0a 80 37 3e bd 70 c8 be 13 d0 a9 3e b2 ec a9 be
       0.17919937 -0.39148512 0.3316656 -0.33188397
000260 2b a4 ca 3d dd 6b 23 3d 68 6f 9f 3e 34 41 92 be
       0.09894594 0.03989779 0.31139684 -0.2856537
000270 b1 dc 18 be 8a 85 57 3d d6 a1 59 3e 8d 50 8f be
       -0.14927937 0.052617587 0.21253142 -0.27991143
000280 fb ed 83 3d fc c7 77 bd 60 e3 ee 3e 49 a8 8b be
       0.064418755 -0.060493454 0.46657848 -0.2727683
000290 af 12 5a bd 4a 69 ef 3d c2 11 ff 3d 40 43 6a be
       -0.053240474 0.11690004 0.12454559 -0.22877216
0002a0 72 52 f2 3d 4b c4 bb be bb 44 9e 3e 79 d7 8a be
       0.118321314 -0.36673197 0.30911812 -0.27117518
0002b0 3d f1 08 3f 04 81 62 be 60 60 f9 bc b9 9b ce 3e
       0.534931 -0.22119528 -0.030441463 0.40353182
0002c0 04 b6 0b bf 44 0c 1f 3f f6 6a 34 3e 53 1d 2b be
       -0.5457461 0.6212809 0.17618927 -0.16710405
0002d0 7c c3 ab be e0 38 58 3e 2d 51 9c be 29 17 e0 3d
       -0.3354758 0.21115446 -0.30530682 0.109419174
0002e0 ba 12 bc 3e 93 b6 a6 be 02 b7 e0 3e 98 cf a3 be
       0.36733037 -0.32561168 0.43889624 -0.3199432
0002f0 57 ac df 3e 8b 4b a7 be 94 20 8f be 0c 33 83 3e
       0.43686172 -0.32674822 -0.27954543 0.25624883
000300 c4 9d b8 3e fb ae 69 be 31 25 01 be 7e fb 92 3d
       0.36057866 -0.22820656 -0.12611844 0.071768746
000310 09 97 9c 3e fd c6 8e be ea fe 47 be dc 5a 57 be
       0.3058398 -0.2788619 -0.19530836 -0.21030754
000320 90 75 b5 3e ef 71 e5 be 7e 78 c7 3e 2c 9e bb be
       0.35441256 -0.44813487 0.38959116 -0.36644113
000330 de 12 e5 3e 13 dc e6 be 5d d8 09 3e ff 89 b5 be
       0.44740957 -0.45089778 0.13461442 -0.35456845
000340 b8 7a 8f 3e b9 1a 66 be 89 4a 50 3e 2d 68 a7 be
       0.28023314 -0.22471131 0.20340933 -0.32696667
000350 84 8d d8 be 80 e1 8a bd 66 bc ce 3e 0b 59 9d be
       -0.42295468 -0.06781292 0.40378112 -0.30731997
000360 9f 05 e0 3e 78 c7 9c be b6 64 d2 3e da a3 b7 be
       0.4375429 -0.30620933 0.4109246 -0.35867196
000370 22 48 ec 3d 21 97 3f be 14 6c b4 3d 4a 2f 7d be
       0.11537196 -0.18709995 0.08809677 -0.2472507
000380 f0 2b b8 3d ef 89 24 be 95 4d b1 3e 11 12 c4 be
       0.089927554 -0.16068242 0.34629503 -0.38295034
000390 83 64 09 3f f0 34 c3 be db 31 94 3e d0 24 f5 bd
       0.53668994 -0.38126326 0.28944287 -0.11969912
0003a0 97 23 bd 3e 8b 9b c6 be a4 e0 df 3e 3f 3e e0 be
       0.36941215 -0.38790545 0.43726075 -0.4379749
0003b0 fd fa 67 be ee 16 78 3d 9e 05 f5 3e e5 77 9e be
       -0.22654338 0.060568742 0.47855848 -0.30950847
0003c0 a5 80 09 be 36 1a 71 3d b5 66 2f 3e 77 d3 45 be
       -0.1342798 0.058862887 0.17129023 -0.19318949
0003d0 dd ad ad 3d 5a 36 2f be ab 59 be 3e 92 cc f5 be
       0.084804274 -0.17110577 0.37177786 -0.48007637
0003e0 03 aa 1b 3e 17 b2 4e be 2f 1f 22 3e b7 75 d2 3d
       0.15201573 -0.20185123 0.15832208 0.102763586
0003f0 58 92 d1 3e ec b1 f6 be 65 ff 06 3f 00 6d ae be
       0.40931964 -0.4818262 0.5273345 -0.34067535

lstm.weight_hh_l0 f4 [256, 64]
000000 50 67 a2 3e a6 11 13 3f d2 9b 03 bf 35 41 0d 3d
       0.31719446 0.57448804 -0.5140964 0.034486014
000010 9e e6 18 3d 70 44 1d 3e 0b 9d 11 be 10 2c e1 be
       0.03732931 0.15358138 -0.14220063 -0.4397893
000020 1a 2d 92 3e b5 f3 13 be 99 01 28 3f 2f b0 85 3c
       0.28550035 -0.14448436 0.6562744 0.016319362
000030 4c fd e7 3e 87 fb d6 3e 69 60 b3 3c 22 0e bc 3e
       0.45310438 0.41988775 0.021896558 0.36729532
000040 03 d1 b2 be 93 8b bd be 11 a9 cd 3d 01 d0 73 be
       -0.34925088 -0.3702055 0.100420125 -0.23809816
000050 31 d5 61 be 13 2b d5 3e 72 2f 5b 3f cb e0 17 3f
       -0.22053982 0.41634426 0.8561927 0.5932738
000060 03 13 08 bf fe 6f 84 3d cc e5 45 3e 23 73 65 3e
       -0.5315401 0.06466673 0.19325942 0.22407202
000070 7f 7d 04 3e a6 5a ee be 81 bc 81 3c ef 61 fe 3e
       0.12938498 -0.46553534 0.015836956 0.49684092
000080 fd 5a d5 bd 80 4b 9f bc 69 f8 ac bd 37 5b fd 3e
       -0.10417745 -0.01944518 -0.08445818 0.49483654
000090 8a 69 6a 3d f7 2b 60 3e 43 ae e8 3e f4 b5 7c 3e
       0.057229556 0.21891771 0.4544545 0.24678785
0000a0 7d c8 db 3e 8e 94 d6 be 8c 77 5e 3f 0b 9b 29 3c
       0.42926398 -0.41910213 0.86901164 0.0103519065
0000b0 07 05 da 3b 89 a4 26 be 9b 36 39 be 7d 02 d1 bd
       0.0066534313 -0.16273703 -0.18087237 -0.10205553
0000c0 55 bc 8e bd cf 4a a6 b9 4f cf a7 be 45 3d ee bc
       -0.06969515 -0.00031717724 -0.3277535 -0.02908195
0000d0 2e a7 49 be 69 36 8a be dc 78 78 3e 49 9f 63 3e
       -0.1969268 -0.26994637 0.24264854 0.22228731
0000e0 a5 ac 0c 3e 8f 05 3a bc 1a 7a 5e be 3a 56 01 be
       0.13737734 -0.011353864 -0.21726266 -0.12630549
0000f0 d7 79 4f bd 2a a2 cf 3e 12 16 84 3d 09 06 ef be
       -0.050653305 0.4055341 0.06449522 -0.46684292
000100 c1 64 ec bd ee cd 3a be f0 f6 38 3e 63 80 34 be
       -0.11542655 -0.18242618 0.18062949 -0.176271
000110 57 b1 3d be 2c 4e 52 3d 5e c8 3d 3e c1 38 6f bc
       -0.18524681 0.05134408 0.18533465 -0.0146009335
000120 e8 02 82 3d 95 36 d2 3c 7e cc 10 bd 62 28 d9 bb
       0.063482106 0.025660792 -0.03535127 -0.0066271285
000130 d7 57 65 bd aa 78 b6 3c 30 b7 1d be 71 bf e2 bd
       -0.055991974 0.022274334 -0.15401912 -0.11071671
000140 ba db 6f 3e 66 c1 fe 3d b3 e9 d5 3d 41 1c f1 3c
       0.23423663 0.124392316 0.10444965 0.029432418
000150 cf e9 bc bd 8c c8 08 3e 0a dc bc 3d 44 ff d9 bd
       -0.09224283 0.13357753 0.092216566 -0.10644391
000160 c3 d8 18 3e cf cc ab bc 67 31 21 be d7 c3 94 bd
       0.14926438 -0.020971684 -0.15741502 -0.07263916
000170 e6 c2 3e 3d dc 80 dc 3d dd ca 7d bd 20 20 96 bd
       0.04657259 0.107667655 -0.061961044 -0.07330346
000180 3c 89 2a be d4 87 07 bd b6 b1 09 be ad 20 80 bd
       -0.16653913 -0.03308852 -0.13446698 -0.062562324
000190 be 4f 14 3d ab 97 0e 3e c9 87 21 3e cd e4 6a ba
       0.03620886 0.13925044 0.15774454 -0.00089604856
0001a0 45 99 1e be 62 d3 42 3c e8 a1 96 bc 86 2c 46 be
       -0.15488155 0.011891218 -0.01838775 -0.19352922
0001b0 e1 2b 1f 3e e4 86 12 3e 74 08 d0 bd fd 20 04 3d
       0.15544082 0.14309269 -0.10157862 0.032258023
0001c0 d2 2d 31 bd c2 dc 60 3d 98 c6 d9 bd b6 9d 21 be
       -0.04325659 0.05489803 -0.10633582 -0.15782818
0001d0 fb cb 51 3d 18 23 1a be 90 c2 82 3c 54 9b fa 3d
       0.05121992 -0.1505245 0.015961915 0.12236658
0001e0 89 7f 35 3c ed 55 8e 3d 51 81 97 bc 86 3c d5 3d
       0.01107777 0.06949983 -0.01849428 0.104119346
0001f0 7a a7 5a 3d 73 0c f7 bd 83 19 3a bb 1f 1c e8 bd
       0.053382374 -0.120629214 -0.0028396554 -0.11333489
000200 6f 9e eb 3d 86 d2 9e 3d b7 85 5e 3e d7 fe de bd
       0.11504828 0.07754998 0.21730696 -0.108884506
000210 14 fd 3d be f8 2e ed 3d 9d 03 5b 3e cb c0 52 3e
       -0.18553573 0.11581224 0.21388097 0.20581357
000220 27 13 6c be 2e f5 49 3d 86 38 f4 3d e7 74 ea be
       -0.23054181 0.049306087 0.119248435 -0.45792314
000230 38 82 42 bf 49 99 c6 bd 85 ba c9 bc a8 37 45 be
       -0.7597995 -0.096972056 -0.024625072 -0.19259512
000240 fe c3 bc 3d 53 0d 5e 3e e0 17 0d bc 03 21 f5 be
       0.0921707 0.2168477 -0.008611649 -0.47876748
000250 70 0f 04 3e bc e6 18 bd 2d 25 d1 bc ad e4 8d be
       0.12896514 -0.03732942 -0.025530422 -0.27713528
000260 38 d4 62 3e c8 cd b6 3e 51 23 63 3d c6 98 85 be
       0.22151268 0.35703874 0.055453602 -0.2609312
000270 7b f2 38 3e cd 43 dc bd e8 b3 a0 bd c2 89 18 be
       0.18061249 -0.107551195 -0.078468144 -0.148963
000280 62 29 91 bd 28 42 5a bd de 75 25 be 83 0d 6a 3d
       -0.07087971 -0.053285748 -0.16158244 0.057141792
000290 de 85 3b 3d 5c 32 4e 3d 52 61 50 3d c1 1f 16 bf
       0.045781963 0.050340995 0.050874062 -0.586422
0002a0 01 30 4e be 78 32 5d 3e bb 3b 83 be c8 6d a7 bd
       -0.201355 0.21601284 -0.25631508 -0.08175236
0002b0 69 7f 76 3d 47 02 0c b9 8e 17 75 be 53 a8 2b bd
       0.0601801 -0.00013352289 -0.23934767 -0.041908573
0002c0 65 db fd bd 37 e9 7f 3e 2a ab de 3d 6b d7 70 be
       -0.12395362 0.24991308 0.10872491 -0.23519675
0002d0 36 cf 03 3e 01 44 1a 3d 07 3d f9 3d 33 da 06 bd
       0.12872013 0.03766251 0.12169843 -0.032922935
0002e0 84 4a 1c 3d a3 9e 3b 3e bc e4 a1 3e 44 4a 43 3e
       0.038157 0.18322234 0.31619823 0.19071299
0002f0 0c 03 a4 3d d6 ad 07 be 05 c2 ea bd 83 e0 bb 3d
       0.08008394 -0.13249907 -0.114627875 0.091736816
000300 b5 60 c5 3e 77 22 d8 be 14 c9 e1 3e 82 e3 39 3d
       0.38550344 -0.42213795 0.44098723 0.045382984
000310 c1 9d 12 be ab 10 b3 3e fb e1 d5 3e 4d f3 c9 3e
       -0.14317991 0.34973654 0.41773972 0.39443436
000320 72 12 60 be 61 7c 29 3d 43 19 d5 bc 39 8c 19 bf
       -0.21882036 0.041378383 -0.026013022 -0.5997959
000330 42 70 e5 be 12 3b 87 bc 03 d5 a0 bc 72 91 89 bd
       -0.44812208 -0.01650766 -0.019632822 -0.067171946
000340 4b 9a fe 3e 8d 46 43 3e 9b 32 53 bb 41 d1 73 bd
       0.4972709 0.19069882 -0.0032226208 -0.059525732
000350 88 44 8b be 2d 15 8d 3e b3 7d 80 bd 02 c3 2c be
       -0.27200723 0.27555218 -0.06273975 -0.16871265
000360 c3 59 1d 3f a5 48 cc 3e b8 69 ef 3d ae 4b 14 bf
       0.6146509 0.39899173 0.11690086 -0.5792798
000370 de e4 2e 3e d5 8b 2c 3c 09 c7 10 be 8c d7 bc be
       0.17079493 0.010531385 -0.14138426 -0.368832
000380 4b 8f ef 3d 73 a0 1f be d4 87 fd 3d 11 20 73 3d
       0.11697253 -0.1558855 0.12379423 0.059356753
000390 0f f7 ef bd 78 b8 6f 3d 94 3b ce 3e 3d e1 7d be
       -0.117170446 0.058525532 0.4027983 -0.24792953
0003a0 d0 da 89 bd e7 45 cc 3e 7f 20 04 3c bc 84 fb bc
       -0.06731188 0.3989708 0.008064388 -0.030702941
0003b0 4e d6 ad be 86 de b4 bd 97 e5 92 3c 1d 74 42 bd
       -0.33952564 -0.088315055 0.017931743 -0.047474016
0003c0 76 8b 0c bf f7 90 06 3e fa 4c 52 bb 46 1d 32 be
       -0.549003 0.13141237 -0.0032089339 -0.1739398
0003d0 2d e1 13 3f c2 1e f9 3b 69 a6 8c bd 24 36 c8 bd
       0.57765466 0.0076025436 -0.06867678 -0.097759515
0003e0 4c 8f 80 3d 93 07 05 3e ae 7f ea 3e f8 48 af 3e
       0.06277332 0.1299117 0.45800537 0.34235358
0003f0 70 69 a0 3e e9 49 3b be ba 7e eb bd 38 33 e6 be
       0.31330442 -0.18289913 -0.114987805 -0.44960952

lstm.bias_ih_l0 f4 [256]
000000 36 3f 4a 3f b5 19 09 3f ce 38 e5 3d d4 9c 13 3f
       0.790027 0.5355485 0.11192475 0.57661176
000010 0a 5c 9d 3d d6 5e 36 3e a2 ff 5b bf 60 82 9a 3e
       0.07683571 0.17809615 -0.8593694 0.30177593
000020 c6 8e 7e 3e a2 cb 8d 3e 47 7f cb 3d 94 c0 b8 bf
       0.24859151 0.27694422 0.099363856 -1.443377
000030 db 79 88 be 1e 03 2e 3e ec 58 fd 3e 77 f0 6d 3e
       -0.26655468 0.16993377 0.49481905 0.23236261
000040 be ae 55 bf 2e 01 5e bf 67 5b 86 3e 54 55 08 bf
       -0.8346976 -0.8672055 0.2624161 -0.532552
000050 ec 52 0d bf 22 b9 16 be 27 04 15 bc e4 af d9 bd
       -0.55204654 -0.1471906 -0.009095228 -0.106292516
000060 b3 9a 6e 3e b4 ae 04 bf d9 64 24 3f 3b d9 59 3e
       0.233012 -0.51829076 0.6421638 0.21274273
000070 0d ef 9d 3e 55 1e 45 3e b7 70 b4 3e e1 68 e7 3e
       0.30846444 0.19249852 0.35242245 0.45197204
000080 b7 21 98 3c 48 86 e4 3e f6 75 91 3e 4e ea 99 3e
       0.018570764 0.44633698 0.2841031 0.30061573
000090 c2 70 8e 3c d9 db 0d 3e 38 27 33 bf 10 de 8c bd
       0.017387751 0.13853396 -0.6998172 -0.068782926
0000a0 e0 d0 26 3e c8 d6 a4 3e 93 d5 ad be 92 bd d0 3d
       0.16290617 0.32195115 -0.33952007 0.10192408
0000b0 61 c6 03 3e b1 6e 14 3e 83 9b c3 3e 7f 39 8e 3e
       0.12868644 0.1449535 0.38204584 0.2777824
0000c0 28 4b e0 be e1 d7 61 3c 82 a5 fb 3d 56 74 07 bf
       -0.4380734 0.01378438 0.122874275 -0.5291189
0000d0 6e f2 b0 bf 49 d7 00 3f 86 15 60 3f 29 43 54 bf
       -1.3823984 0.503285 0.8753284 -0.8291498
0000e0 e3 41 0d 3f b7 69 84 3d cb c8 48 bf 5d 9b ef 3d
       0.5517866 0.06465476 -0.78431386 0.11699555
0000f0 0b 9a 1c 3e 98 0f 60 3e c3 0b 19 3e c6 fe 21 be
       0.15293138 0.21880949 0.14945893 -0.15819845
000100 f4 9f c1 3e 8e b7 bd 3e 4e cf 91 3d 28 86 c7 3e
       0.37817347 0.37054104 0.07119618 0.3896954
000110 19 a2 22 3e 6b d5 10 3e 27 7f 27 bf c8 1c 58 3e
       0.15882148 0.14143912 -0.65428394 0.21104729
000120 03 7e 30 3e 6a bc 3a 3e 36 00 a8 3d a8 47 d7 3d
       0.1723557 0.18235937 0.08203165 0.10511714
000130 de ea 16 3e d4 b3 7c 3e 6b 58 83 3e aa e5 9a bb
       0.14738032 0.24677974 0.25653395 -0.004727085
000140 39 a3 06 bf ba 43 14 3e 4a 89 81 3e 4a 38 00 bf
       -0.5259281 0.1447896 0.25300056 -0.5008589
000150 2c 63 bd 3c 64 e9 f1 3e 4d ca 14 3e bb 5e db be
       0.023118578 0.47248375 0.14530297 -0.4284571
000160 fd f5 12 3e 66 a3 60 3e da f6 5b be db 1b 56 3c
       0.1435165 0.21937332 -0.21480885 0.013068165
000170 3a 0d 2c 3e e4 70 1d bd 09 d3 b3 3e 43 13 9a 3e
       0.1680192 -0.03843774 0.35121945 0.3009282
000180 09 a1 78 3d 08 25 86 3e d1 e5 be 3e b1 6e 12 3d
       0.06070045 0.26200128 0.3728471 0.035750095
000190 77 30 82 3e be 7f a2 3e b8 93 73 3d 2c a4 a8 3d
       0.254276 0.31738085 0.059467047 0.08234438
0001a0 5e f3 8d 3e b2 4c 85 3e f1 8f 90 be 2f b8 d8 3d
       0.27724737 0.26035076 -0.2823482 0.10582005
0001b0 e0 db a3 3e 0a 37 a8 3e fe 5d 36 bd d8 5c 68 3e
       0.3200369 0.3285449 -0.04452323 0.22691667
0001c0 27 33 83 be ec 50 87 3e d4 39 5d 3e b9 5a 66 be
       -0.25624964 0.26428926 0.21604091 -0.22495545
0001d0 06 87 83 3e 0e 7e 8c 3d ee 1b d1 3e d0 eb a7 3e
       0.25688952 0.068599805 0.4084162 0.32797098
0001e0 18 61 bb 3e ee 59 18 3e 17 b5 0e be a2 71 ae 3e
       0.36597514 0.14878055 -0.13936268 0.3407107
0001f0 f9 b1 f5 3d 32 d8 a0 3d 33 45 20 3e 1e f6 b3 3e
       0.11996836 0.07853736 0.15651397 0.3514871
000200 e9 37 8f be 59 4d b3 3d 79 fd 83 3e e8 ca cf bd
       -0.27972344 0.08754987 0.25779322 -0.10146123
000210 e0 6b 4e bd 24 d5 7a 3d f9 1e 10 3e 0c 2c b5 3d
       -0.050395846 0.061238423 0.14074315 0.08846292
000220 89 91 bb be 02 ab a4 3d 17 00 a8 bd 0d 64 ae 3c
       -0.36634472 0.0804043 -0.08203142 0.021287942
000230 17 82 80 be a8 a4 66 bd a9 c7 33 be 21 2f 04 bd
       -0.2509925 -0.056309372 -0.17556633 -0.032271508
000240 a2 29 e1 be f9 ab 75 bf 1c 00 8f 3e a3 22 04 3e
       -0.43977076 -0.95965534 0.2792977 0.12903838
000250 00 6d 09 3e 8e e6 b8 bf e1 5a cf be 8a f1 9b 3d
       0.13420486 -1.444536 -0.40499023 0.07614429
000260 b2 bb 8d 3d 5a 97 91 bf 96 80 e4 bd 0f 39 b0 bd
       0.06920566 -1.1374314 -0.11157338 -0.08604633
000270 f5 7a 92 3d 0f 3d d0 bd 0a e0 92 3e 4f e5 34 bd
       0.071523584 -0.10167896 0.28686553 -0.044164
000280 73 84 26 be dc 6a 65 bd 42 2f 96 bd 1a d1 15 bf
       -0.16261463 -0.056010112 -0.073332325 -0.5852219
000290 8c 82 67 3e 18 bd 1c 3d 3f 80 ca bf 10 03 9e be
       0.22608393 0.03826627 -1.5820388 -0.30861712
0002a0 48 a9 97 3c 1b 98 56 3d 13 fc 8a bd d7 92 00 bd
       0.018513337 0.052391153 -0.067863606 -0.031390037
0002b0 38 da e7 3d ca 13 f1 3d 92 67 62 be 73 3e f1 3d
       0.11320919 0.117713526 -0.22109821 0.11779489
0002c0 77 76 3a 3f 2e 17 63 3d 71 5a 03 3f 8d 39 14 3f
       0.72837013 0.055442028 0.5130988 0.57900316
0002d0 e1 20 21 bf d4 66 b1 3c 20 9c 05 be a7 00 33 bf
       -0.62940794 0.021655478 -0.13047838 -0.6992287
0002e0 f0 aa 73 3e 47 aa 27 3e 77 c9 a9 be 16 10 cb be
       0.23795676 0.1637355 -0.33161518 -0.3966071
0002f0 c8 14 e1 3d a5 69 83 bd 60 81 ef 3c 41 0c 9e 3f
       0.10990292 -0.064166345 0.029236495 1.234749
000300 86 30 b1 3e dc a6 72 3f 64 44 50 be d7 81 0b 3f
       0.34607333 0.9478586 -0.20338589 0.54494995
000310 22 45 db 3d a9 c3 67 3e 2c 0a 51 be e2 ae 62 3e
       0.107065454 0.22633232 -0.20414037 0.22137025
000320 dc 37 3a 3e c6 72 d0 3e 37 d1 ed be 01 9a 6c be
       0.18185371 0.40712565 -0.4644868 -0.23105623
000330 b2 59 b0 be 12 1b 2d 3f 5d 0d 1f 3f ae d5 c1 3e
       -0.34443432 0.6761943 0.62129766 0.37858337
000340 6e 86 28 bf 29 1e 16 3e b3 dd ec 3e 66 a2 30 3f
       -0.65830123 0.14659943 0.46262893 0.689978
000350 2e 9e 5f 3e 56 9a ba 3e fb 75 74 3a 9e ba 80 3e
       0.21837685 0.36445874 0.0009325442 0.25142378
000360 16 53 a1 3d c9 2c 0b 3e 5e 2e e5 3c 65 2c 75 3e
       0.078771755 0.13591303 0.027976211 0.23942716
000370 fa a8 c9 3e 66 cf d9 3d e6 07 d9 3e aa a8 a0 3d
       0.3938673 0.10635261 0.4238884 0.0784467
000380 dc eb c7 3e 5f e7 a3 3d 33 ef d7 3e a1 b9 46 be
       0.39047134 0.08003115 0.42174682 -0.1940675
000390 ae ce 07 3f 68 73 27 3f 01 fd 68 3e b7 7d ae be
       0.53049743 0.6541047 0.22752763 -0.34080288
0003a0 62 a6 0b 3d 88 99 ad 3e 03 c3 20 bf 44 54 25 3f
       0.034094222 0.33906198 -0.62797564 0.64581704
0003b0 58 a2 8e 3e 6b 18 41 3d 51 c0 c9 3e 3f 2b fa 3e
       0.27858233 0.047142427 0.39404538 0.4886112
0003c0 3f 2c 45 3e 49 57 71 3e bb 1a c1 3e 3f f6 60 be
       0.1925516 0.23568453 0.37715706 -0.21968935
0003d0 71 57 8e bf 9c f0 b1 3e 7e c4 fa 3d 55 7e 94 3e
       -1.1120435 0.34753883 0.12244509 0.29002634
0003e0 42 f1 6c 3e 29 84 44 3e 22 af d0 3d e7 7e 4a be
       0.23138908 0.1919104 0.10189654 -0.19774972
0003f0 a0 00 90 3e 43 36 f3 3e de 7f b8 3e 23 4c 30 be
       0.28125477 0.47502336 0.36035055 -0.17216544

lstm.bias_hh_l0 f4 [256]
000000 33 7c 45 3f 5f 21 d2 3e 51 cd 21 3e 66 b6 14 3f
       0.7714264 0.41041085 0.15800978 0.5809082
000010 37 22 36 3e f2 74 6d 3d 8b 1e 53 bf bb 4e 97 3e
       0.1778649 0.057972856 -0.8246848 0.29552254
000020 48 12 89 3e b0 91 a8 3d 22 ec df 3d b5 7e a5 bf
       0.2677176 0.08230913 0.10933711 -1.2929293
000030 24 ca 7a be 63 33 80 3e 65 de ba 3e b1 1f c2 3e
       -0.24491173 0.25039205 0.364978 0.37914804
000040 d6 39 7a bf f1 9c 65 bf e2 a6 aa 3e 10 2e e8 be
       -0.977445 -0.896926 0.33330446 -0.45347643
000050 af c2 24 bf 27 13 f4 bd d7 ab ec bd 54 51 3b 3d
       -0.64359564 -0.119177155 -0.11556213 0.045731857
000060 fc e9 48 3e 8d 6f de be 1e 82 12 3f af 8a 97 3e
       0.19620508 -0.43444481 0.57229793 0.29597995
000070 01 3e bb 3e 6d 13 3d 3e 2f 92 53 3e 4d 50 db 3e
       0.36570743 0.18464442 0.20661233 0.42834702
000080 e1 7f e7 3c 50 9c 04 3f bb 64 4c 3e 9c 36 5a 3e
       0.02825922 0.51801014 0.199603 0.21309894
000090 7b b2 8c 3d 02 a7 9d 3e 8e 2f 2e bf 83 f3 32 bd
       0.0686998 0.3079148 -0.6804131 -0.043689262
0000a0 90 9e 51 3e 5a cc b1 3d c8 93 fe be 18 01 45 3e
       0.20470643 0.08681555 -0.49722123 0.19238698
0000b0 76 81 37 3e ec 87 28 bb b5 f5 a3 3e 87 bb 20 3e
       0.17920479 -0.0025715781 0.32023397 0.15696536
0000c0 40 62 a7 be 11 80 6d bc b3 8d 73 3e 5c ae 15 bf
       -0.32692146 -0.014495865 0.23784523 -0.58469176
0000d0 77 f3 af bf 30 6b cb 3e 3a b1 72 3f 56 60 80 bf
       -1.3746175 0.39730215 0.94801676 -1.0029399
0000e0 10 ab e9 3e b9 1c f7 3d 8c ee 1c bf 14 e0 0c 3e
       0.45638323 0.12066025 -0.61301494 0.13757354
0000f0 9e 6a 37 3d e5 20 71 3e 91 e9 7d 3d 11 e9 89 be
       0.044779412 0.23547705 0.061990324 -0.26935628
000100 b8 38 2e 3e 77 f6 63 3e f3 4a 8a 3c 76 ca 6c 3e
       0.17013824 0.22261988 0.016881442 0.23124108
000110 9f cf d2 3d 3d 72 8b 3e c1 8e 33 bf 1b 9d 02 3d
       0.10293507 0.27235594 -0.701397 0.03188811
000120 78 21 29 3e b5 40 94 3e bf 73 36 3e 2e 9f 27 3e
       0.16516674 0.28955618 0.17817591 0.16369316
000130 69 e7 9b 3d de 57 88 3e de 50 cf 3e 8a 3b d4 bc
       0.07612497 0.26629537 0.40491384 -0.025907297
000140 30 08 0e bf fe 55 77 3e 1b 86 7f 3e 19 84 9d be
       -0.55481243 0.24153897 0.24953501 -0.30764845
000150 42 f7 6e 3d fa d4 da 3e 7d c4 c4 3c 67 2c bd be
       0.058341272 0.42740613 0.024019474 -0.3694794
000160 7d ac 57 3e 99 77 aa 3e 97 bf 8a be 61 95 c0 bd
       0.21061893 0.3329437 -0.27099296 -0.09403492
000170 b7 80 7c 3e 41 14 ed 3d 00 29 ab 3e ee d0 0f 3e
       0.24658476 0.11576129 0.33429718 0.14044544
000180 d9 c2 9c 3d ac 91 27 3e aa 12 6f 3e e8 31 31 3d
       0.07654352 0.16364163 0.23346964 0.043260485
000190 02 ab 7f 3e 78 be 88 3e e8 c5 ee 3b ad 31 5b 3d
       0.24967578 0.26707816 0.007286776 0.05351417
0001a0 bd dd 60 3e 26 98 72 3e 55 b8 14 be 38 5c 69 3e
       0.21959586 0.23690853 -0.14523442 0.22789085
0001b0 bb c2 dd 3e 34 63 47 3e 78 8a d3 bd b2 8c 91 3e
       0.4331263 0.19471437 -0.10329145 0.28427655
0001c0 b6 65 77 be 4a 49 a4 3e 00 56 6c bc 83 20 49 bd
       -0.24159893 0.32087165 -0.014424801 -0.04910327
0001d0 77 46 2f 3e 19 f9 9b 3e 5b 93 ae 3e d5 88 d6 3d
       0.17116724 0.30463484 0.34096798 0.104753174
0001e0 07 f8 d7 3e db e4 a2 3e 7b 8b 00 be b3 09 a8 3e
       0.42181417 0.31815228 -0.12553208 0.328199
0001f0 68 5a 35 3e e7 34 6a 3e 5f e8 59 3e 1e 3a 84 3e
       0.17710268 0.22871743 0.21280049 0.2582559
000200 83 9f 8b be 9a 28 04 bd c0 37 75 3e eb 0f 38 bd
       -0.27270135 -0.032265283 0.23947048 -0.044937056
000210 a8 92 1e 3d 7b 43 f1 bd 50 43 fc 3d 61 14 b5 3c
       0.03871408 -0.11780449 0.12317526 0.022104444
000220 ad a0 a0 be e1 1c 34 3e b8 55 dc 3c 02 77 84 3d
       -0.31372586 0.17589141 0.026896343 0.064680114
000230 82 e4 48 be 19 c0 e5 bd dc ec 5a be c8 26 89 3c
       -0.19618419 -0.1121828 -0.21379417 0.016742125
000240 4a a8 c7 be 8e 8b 73 bf 70 9e 89 3e cd 59 7d 3e
       -0.38995582 -0.9513482 0.2687869 0.24741288
000250 b1 dd a4 3d b5 14 be bf 91 d5 04 bf 94 44 dd bd
       0.08050097 -1.4850069 -0.51888376 -0.10804096
000260 c7 6f c3 3d 6c 8e 9e bf 59 b0 00 3d 2c 02 00 be
       0.09542804 -1.2387214 0.03141818 -0.12500829
000270 87 7a 1f 3e 8f ac 9b bc 4e 44 02 3e df 68 70 be
       0.15574084 -0.01900318 0.12721369 -0.23477505
000280 40 0c 4a be b1 ef 2c be 88 38 88 3d af 0f f3 be
       -0.19731236 -0.1688831 0.066514075 -0.47472903
000290 63 7f 8d 3e fb e8 0d 3e 7c aa c7 bf 24 ca 8f be
       0.2763625 0.13858406 -1.5598903 -0.2808391
0002a0 de ec 4a bd 2b 0f 9b 3d a1 ce 16 3d 3e 3d 03 bd
       -0.0495423 0.075712524 0.03681815 -0.032040827
0002b0 3d 2b 44 3e c1 e4 06 3d 91 29 04 be ca 56 62 3c
       0.19157119 0.032933 -0.12906481 0.013814637
0002c0 3e 14 10 3f ad 25 8c 3c f5 56 c3 3e c5 58 17 3f
       0.5628089 0.017107809 0.3815228 0.59119827
0002d0 01 05 da be 52 f3 71 3d 1d 39 e2 3c 4a 08 42 bf
       -0.42581943 0.05906994 0.027615124 -0.757939
0002e0 5f 47 0d 3e 5d 2c 50 3e ab 7c dd be a2 c4 0a bf
       0.13796757 0.20329423 -0.43259177 -0.5420629
0002f0 dd 15 bc 3c 92 35 a6 3c 25 4c 8b 3d 85 3a 9a 3f
       0.022959644 0.020289216 0.06801633 1.2049109
000300 8b 81 9b 3e d7 03 8e 3f 3c 9c 55 be 47 58 f1 3e
       0.3037227 1.1094922 -0.2086038 0.47137663
000310 4e 68 4d 3e d3 1a cb 3d bb 61 9a be 03 41 a1 3e
       0.2005932 0.09917226 -0.30152687 0.31494913
000320 bd 04 80 3d cd eb 05 3f 4b 3c 03 bf 6c d2 2c bd
       0.06250904 0.5231293 -0.51263875 -0.04219286
000330 99 a9 59 be 1b 0c 0a 3f 89 cf 28 3f 48 e4 85 3e
       -0.21256103 0.5392472 0.65941674 0.26150727
000340 f7 d4 2c bf 4c 9d 16 3e 73 ac 16 3f 85 4b 2c 3f
       -0.6751246 0.14708441 0.58856887 0.67302734
000350 e1 fd 90 3e 6a 69 e4 3e 64 27 f4 3d f5 c0 98 3e
       0.28318694 0.44611675 0.11921576 0.29834715
000360 71 c1 a2 3d 1c df 46 3e 46 80 96 bd 84 2d af 3e
       0.07947052 0.19421047 -0.07348685 0.34214413
000370 ec 6c f7 3e 21 ea 61 3e 74 25 eb 3e 39 0f 40 3c
       0.48325288 0.2206197 0.45927012 0.011722379
000380 ab 2a d9 3e 55 a3 0c 3e e1 f6 0c 3f e5 4a 81 be
       0.42415366 0.13734181 0.5506421 -0.25252452
000390 cd a6 08 3f b0 81 33 3f 75 98 91 3e ad db 9b be
       0.5337952 0.7011976 0.28436628 -0.30441037
0003a0 dd 23 ca 3b bd 7f 6d 3e 52 4a 1a bf aa db 27 3f
       0.006168826 0.2319326 -0.60269654 0.65569556
0003b0 28 db 2a 3e bc 4a 23 3c 2a 1c bd 3e d1 dc d9 3e
       0.16685164 0.0099665485 0.3693555 0.42551282
0003c0 b2 fb 72 3e b0 c1 99 3e 1b 84 8e 3e 7e 1d 64 be
       0.23728827 0.30030584 0.27835163 -0.22276875
0003d0 10 2a 76 bf f3 80 cd 3e 2d af 2a 3e cd 44 f7 3e
       -0.9615793 0.40137443 0.16668387 0.48294678
0003e0 06 8a 7a 3e 2b 3b 95 3e 1e 85 f9 bc 15 55 10 be
       0.24466714 0.29146704 -0.030458983 -0.14094956
0003f0 73 dd 54 3e ce 11 12 3f 6f 09 b5 3e c2 8d 32 be
       0.20787601 0.5705842 0.3535876 -0.17436889

lstm.weight_ih_l1 f4 [256, 64]
000000 9f da 4a 3e 77 0b de 3e ff 74 46 b9 2e f7 c3 bd
       0.1980996 0.43368122 -0.00018926336 -0.0956863
000010 2c de be 3d c0 1d 87 be fd fe b4 3e 3d cb 6b be
       0.0931972 -0.26389885 0.3535079 -0.23026748
000020 87 9c 81 bd 14 93 9c 3e c3 a4 44 3e 32 0b 4a be
       -0.06328683 0.30580962 0.19203477 -0.19730833
000030 78 f9 96 3e f5 43 9d bd 04 f0 32 be d7 db 23 3e
       0.29487205 -0.076789774 -0.17474371 0.16001831
000040 0d f1 12 3f 72 0b 8a 3e 7e 51 96 3e 93 49 39 3c
       0.57399064 0.26961857 0.2935905 0.011309045
000050 70 48 80 be 39 f0 7f 3d 2e 07 0f 3d 34 52 4d 3d
       -0.25055265 0.062484954 0.034918956 0.050127223
000060 9e 87 ec 3d 69 b4 64 3e bf 12 38 bf 6d 77 78 3e
       0.115493044 0.22334446 -0.71903604 0.24264307
000070 72 f4 4b bd 7f 9b 5d 3d 10 fb 09 be 0f 4b d6 3c
       -0.049793668 0.05410337 -0.13474679 0.026158838
000080 f2 49 8b be b6 08 47 bc 2c b7 82 be 65 d8 28 be
       -0.27204853 -0.012148073 -0.25530374 -0.16488798
000090 2d c4 02 3e 6e ad 71 3e 89 39 9d 3e c4 2e e7 3c
       0.12770148 0.23601314 0.30707958 0.028220542
0000a0 c9 67 c0 ba 6a 47 2a be 1c 37 fc 3e b0 41 1f 3d
       -0.0014679368 -0.16628805 0.49260795 0.038881004
0000b0 6e 40 7b bc 83 af f4 3d d8 7b a4 be 06 63 00 be
       -0.015335185 0.11947539 -0.32125735 -0.12537774
0000c0 4e 79 a6 bd 24 da 9c bd 35 fe 66 be 19 9e a7 bd
       -0.08128606 -0.076587945 -0.2255791 -0.081844516
0000d0 47 b3 d4 3e 87 19 f9 bc 85 83 73 be 1c c1 3e 3e
       0.41543028 -0.03040768 -0.2378064 0.18628353
0000e0 b3 89 3b 3e c7 81 80 3d 02 5b 8b 3d 85 b0 a4 3e
       0.18314247 0.06274753 0.06804468 0.32165924
0000f0 0f 77 a6 3d f0 a0 43 3e 62 33 50 3e 35 43 df bd
       0.081281774 0.19104362 0.20332101 -0.109014906
000100 dd 0a 48 3d 21 f1 7a 3d 5b 32 99 3c e1 87 fc bd
       0.048838485 0.061265115 0.01870077 -0.12330604
000110 50 28 77 3d 79 c7 33 be 65 50 3c be c2 3c 3c be
       0.06034118 -0.17556562 -0.18390043 -0.18382552
000120 92 5d 6e be 91 11 e9 3b b2 93 5b bd 28 00 56 3d
       -0.23277882 0.00711269 -0.05360765 0.052246243
000130 75 10 1d bd 6a 59 83 bc 18 bb 2d be 6e 53 85 3e
       -0.038345773 -0.016033847 -0.16965902 0.26040214
000140 d5 33 a9 be 64 9c 14 be 41 a9 b9 bd 38 05 e6 bd
       -0.33047357 -0.14512783 -0.09065486 -0.11231464
000150 ab 5c 3c 3e 02 76 92 be de 28 c0 3e 56 ad b8 3e
       0.18394725 -0.28605658 0.3753118 0.36069745
000160 b1 1a ea bd 44 96 16 bc 9f 0b 25 3f 79 d0 bb bc
       -0.11430872 -0.0091911 0.6447086 -0.022926556
000170 99 a0 82 bd ae c1 9b be 07 fc 0e 3e e2 d1 a4 3e
       -0.06378288 -0.30421203 0.13963328 0.32191378
000180 2a 88 1b be 43 e7 18 be 69 f9 74 bd a3 99 42 3e
       -0.15188661 -0.1493197 -0.05980817 0.1900392
000190 c7 d1 3e 3e 7e 26 69 3c 27 d8 10 bd 86 20 55 3d
       0.18634711 0.014230369 -0.03536239 0.05203297
0001a0 83 34 bf bc 03 26 0a bc bd 46 d9 3e 75 c7 e4 3d
       -0.02334047 -0.008431914 0.42436782 0.11170856
0001b0 10 a5 dc 3d b1 d1 c9 be 07 db 20 bd bf 74 6b be
       0.10773671 -0.39417794 -0.03927138 -0.22993754
0001c0 d7 e0 3a bc 3a f0 3a be e9 07 35 be cd 82 42 3e
       -0.011406145 -0.18255702 -0.17678799 0.18995209
0001d0 ce 41 7d be 7e 08 5f be 7f 72 75 be a2 94 97 3d
       -0.24732134 -0.21780583 -0.23969458 0.07401396
0001e0 a1 dd 1b 3e d0 8d ea 3d a8 56 6a be 4e e3 5e be
       0.15221263 0.1145283 -0.22884619 -0.21766397
0001f0 bd cf e9 3d fd 6e 00 3e 66 a7 c8 bd e1 a8 41 be
       0.11416576 0.12542339 -0.09797554 -0.18912078
000200 3f 53 68 be ef b3 0d 3f fd 20 df 3d 35 7b 47 3e
       -0.22688006 0.5535268 0.10894964 0.19480594
000210 37 4a a7 3d a1 9e 8c be 1e b1 df be 57 9a 5e bd
       0.08168452 -0.27464774 -0.43689817 -0.05434641
000220 83 e7 b0 be 2a fb d6 be 0d 08 3f be a5 db e2 3e
       -0.3455163 -0.41988498 -0.18655415 0.443082
000230 a7 37 1f bc 04 e3 cf 3e a2 d9 f4 3c 0b 5a 6a 3e
       -0.009717858 0.40602887 0.029888932 0.22885911
000240 d1 3c e5 be 72 c0 bc be 45 d9 07 bf ec 29 21 3f
       -0.44772962 -0.36865574 -0.530659 0.6295459
000250 bc 22 ec 3d 97 d9 9c bd 64 23 fe 3e 4c bf 4e 3e
       0.115300626 -0.076586895 0.49636376 0.20190161
000260 bd 5d 53 be 49 a3 9e be d2 2e 33 3f fd c2 16 3d
       -0.20641227 -0.30983952 0.6999332 0.03680705
000270 c2 c3 69 be 34 c8 33 be a5 20 ee 3e 89 1c 0f 3f
       -0.22828582 -0.1755684 0.4650928 0.55902916
000280 1e 4b b6 3e 45 c3 31 3e 93 81 39 3e f1 aa be 3c
       0.35604185 0.17359646 0.18115835 0.02327487
000290 41 f8 b2 be 1d 2b a2 be 25 9c d0 be e7 06 07 3e
       -0.34955028 -0.31673518 -0.4074413 0.13186227
0002a0 73 67 8c 3e e2 a3 b6 3d 74 52 b1 3d 5a 60 0b 3f
       0.27422675 0.08917977 0.08658305 0.54443896
0002b0 a7 ae 0d 3f 21 fb 98 be 1c f5 b4 3e f3 d3 ea 3c
       0.55344623 -0.29879096 0.35343254 0.028665518
0002c0 99 9d c2 3d 24 4d f5 be 9f 80 64 be b4 a8 8f bc
       0.095027156 -0.47910416 -0.2231469 -0.017536499
0002d0 2b c1 14 bf 06 61 31 3e d1 75 6f 3e 55 2d a4 bd
       -0.5810725 0.17322168 0.23384787 -0.08016459
0002e0 73 24 59 be 40 0e 75 bd a3 a4 40 be 3b 2f 8a be
       -0.2120531 -0.059828043 -0.18812804 -0.2698916
0002f0 b9 af da 3b 85 ce a4 bc 00 7f eb be 3a aa ad 3e
       0.00667378 -0.020118007 -0.4599533 0.33918935
000300 80 09 29 bf 65 92 23 3c 2a 2a 95 bd 6b 72 a3 bd
       -0.6603012 0.009983634 -0.07283433 -0.07980808
000310 ce 67 2d bd 70 85 02 bf 7f d6 02 be 13 12 7c bc
       -0.042335324 -0.5098486 -0.12777136 -0.015385169
000320 80 43 a8 bc 09 25 a3 3e 10 ee 91 bc e9 81 b0 3e
       -0.020539999 0.31864193 -0.017813712 0.34474114
000330 a1 f1 de 3d ca 89 e3 3d 66 59 0c bd bc d3 66 3c
       0.10885931 0.111102656 -0.034264944 0.014088567
000340 bc a8 1f be 2f 05 a3 be e9 fd e3 3e c0 98 5f 3d
       -0.15591711 -0.31839892 0.44529656 0.054589033
000350 eb d2 ca 3e c8 39 23 3e 75 dd fe bc f4 63 e0 3d
       0.39614043 0.1594001 -0.031111458 0.109565645
000360 36 33 57 b8 f7 d2 9a be b9 9a 83 bf 41 37 58 3d
       -5.130769e-05 -0.30239078 -1.0281593 0.05278707
000370 14 20 48 3e 33 08 7d 3d 95 02 11 3f 17 2c ef 3e
       0.19543487 0.061775398 0.56644565 0.46713325
000380 f6 2d 72 be c9 28 9e bd e3 3c a6 be 69 33 bd be
       -0.23650345 -0.07722623 -0.32468328 -0.36953285
000390 b5 3b 1f 3e 33 3f ab 3d 46 c6 35 be 67 1a 5d 3e
       0.1555012 0.08361664 -0.17751417 0.21592103
0003a0 ed 7b d6 3c cd 02 00 be c9 2c 8d 3e fd 1a 7d be
       0.02618214 -0.12501068 0.2757323 -0.24717326
0003b0 db 41 0b 3f 79 0b d0 3f 56 85 51 be d9 2c 2c be
       0.5439736 1.6253501 -0.2046102 -0.16813983
0003c0 6e 6d 0b 3f 6d 3c bf be 01 33 a8 be a4 e3 4a 3e
       0.5446385 -0.3735079 -0.32851413 0.198134
0003d0 b9 25 46 be 07 13 db bd 3f 2d 5d 3d 42 7e ca 3e
       -0.19350328 -0.106969886 0.05399823 0.39549452
0003e0 43 eb ff 3d ae 67 61 3e 00 ec 28 be ed d3 a7 bf
       0.124960445 0.22012207 -0.16496277 -1.311155
0003f0 a2 bd 33 3d 1d 06 36 3e b1 e3 7e 3e 9b 06 a7 3e
       0.04388202 0.1777577 0.24891545 0.32622227

lstm.weight_hh_l1 f4 [256, 64]
000000 83 58 fe bd 60 28 43 be 19 2f 5e 3e 1d 0e a6 be
       -0.12419226 -0.1905837 0.21697654 -0.32432643
000010 36 0e 16 3e 79 00 a5 3b fb 86 04 bd f9 d1 76 3e
       0.14653859 0.0050354567 -0.03235529 0.24103536
000020 0d 9a e4 bd 08 8c bf bd ea 52 5d 3e 3f b9 9e 3c
       -0.11162195 -0.09352881 0.2161366 0.019375442
000030 fd f2 62 be fc bd 0a 3f 0b c8 73 3d 48 4b 95 3d
       -0.22163005 0.54196143 0.059516948 0.072897494
000040 d0 9a 40 be e6 9f 8b 3d cb ce 64 be 9d a3 1b be
       -0.18809056 0.068176076 -0.2234451 -0.15199132
000050 29 99 40 bd 46 e3 6e 3e 55 7c 90 3d df 67 64 3e
       -0.047021065 0.23328885 0.070549645 0.22305249
000060 1e 3e ac 3d 55 a1 b3 be 65 f4 1a be f4 53 5d 3c
       0.084102854 -0.35084024 -0.15132292 0.0135087855
000070 31 a2 17 be e0 43 35 be aa f9 10 3e 34 79 3e 3e
       -0.14807965 -0.17701674 0.1415774 0.18600923
000080 f1 e6 81 be 11 ee eb be 46 35 57 3e 2d 08 6a be
       -0.25371507 -0.46080068 0.21016416 -0.22854681
000090 97 d1 31 3e ee 44 4c 3e ae 0f 3a 3f 00 08 76 be
       0.17365108 0.1994817 0.72680175 -0.2402649
0000a0 e9 59 a4 3d 94 37 09 bd 1e 81 81 3e 13 c2 18 be
       0.080249615 -0.03350027 0.2529382 -0.14917783
0000b0 40 7c 84 3e 0d d0 29 bc 2d 93 8a be 07 f6 76 bc
       0.25876045 -0.010364545 -0.2706541 -0.015073306
0000c0 be 48 eb be e0 4a f5 bd 97 26 53 3d 1c fa dd bd
       -0.45953935 -0.11977172 0.051550474 -0.1083872
0000d0 09 6f 1d be b1 08 b7 be 3a fe bb bd fb cd c2 bd
       -0.15374388 -0.3574882 -0.09179349 -0.09511944
0000e0 5d 21 76 be bf 4f 16 bf ff e9 2b 3a 86 07 20 3e
       -0.24036165 -0.5871543 0.00065580005 0.1562787
0000f0 84 26 41 bd fb ca 84 be c5 67 a6 be 95 fd 9d 3d
       -0.047155872 -0.25936112 -0.32501045 0.077143826
000100 2c e6 c8 bd 31 28 54 bf 9d 0d a9 be fa af d1 3c
       -0.09809527 -0.8287383 -0.330182 0.025596607
000110 da 4b 10 3d 46 85 53 bf 76 ec 9d 3e 48 3b fa 3e
       0.035228588 -0.82625234 0.30844468 0.48873353
000120 85 d2 8b 3d f8 b8 68 3d 3a aa a1 be ef 50 8b 3e
       0.06827263 0.056817025 -0.31575185 0.27210185
000130 7e a5 35 bd 01 a4 66 be 37 d1 ee 3e 91 05 fa bd
       -0.04434728 -0.225235 0.46643993 -0.12208093
000140 a3 6c cd be ff 86 06 3e c9 69 b1 be c3 32 e5 be
       -0.40121946 0.13137434 -0.3465102 -0.4476529
000150 8d 7d 0a bf 52 06 5d be 7f 97 b9 3e c2 4f a2 3c
       -0.54097825 -0.21584442 0.36248395 0.019813422
000160 af b8 60 bc 68 5a 4d 3e 77 b3 93 bd 8f d7 1e bf
       -0.013715907 0.20054018 -0.072119646 -0.62047666
000170 a2 96 ac 3e 24 5e db bd 31 31 4e 3e fd 1b 43 be
       0.33708674 -0.10711315 0.20135953 -0.19053645
000180 b9 e2 2d 3d c7 87 8e be dc e9 4c 3e 83 08 35 be
       0.042452548 -0.27837965 0.20011085 -0.17679028
000190 16 e7 a4 bc ab e8 c7 3e 73 02 cc 3e b2 9f 36 3e
       -0.020129722 0.390447 0.3984562 0.17834356
0001a0 83 7f c0 3d 39 89 ae bd c2 13 f3 bd 13 62 6e 3e
       0.09399321 -0.08522267 -0.11869003 0.232796
0001b0 de a9 a7 bd 62 d8 51 be 17 de 01 3e b9 a3 a7 3e
       -0.081866965 -0.204927 0.12682377 0.32742098
0001c0 ab d7 74 bb 11 30 1b be 81 c0 cd bd 97 a1 cf 3d
       -0.0037359993 -0.15155055 -0.10046483 0.10138243
0001d0 9e 9f bb bc cb 45 92 bf 30 ff 66 bc 68 ee fd be
       -0.02290326 -1.1427549 -0.014098927 -0.49595952
0001e0 83 94 5d 3e cb fa 96 3d 21 9e c2 3c 13 70 65 be
       0.21638684 0.07372054 0.023757042 -0.22406034
0001f0 af bc d3 3b f0 44 d0 bd d4 e2 a2 be 5b 3e c5 3d
       0.006461702 -0.10169399 -0.3181368 0.09631034
000200 20 3d c9 bd d1 b8 64 be d0 7f dd bd 04 04 f4 3e
       -0.09826112 -0.22336127 -0.10815394 0.47659314
000210 dc c7 0a be 1b bf 3e be 0c 76 88 3d 03 57 9a bc
       -0.13552803 -0.18627588 0.06663141 -0.018840319
000220 96 d3 d6 bd b0 76 5d 3d 13 fb 01 bf a5 0f f6 3d
       -0.104895756 0.054068267 -0.50773734 0.12014703
000230 c9 2e f4 be 19 44 8d be e7 69 78 bd fa 02 8d 3e
       -0.47691944 -0.27591017 -0.06064787 0.27541333
000240 6a ed 91 bd 37 7f af 3e e7 3d b3 3c 96 c7 55 be
       -0.07125361 0.34276745 0.021880103 -0.20876917
000250 27 9f 33 be 70 42 30 be f5 da 50 3e 93 1a b5 bd
       -0.1754118 -0.17212844 0.20396025 -0.08842959
000260 31 5c 11 bd 71 4a b3 bd 08 1a 8e 3d bd 0d d4 be
       -0.03548831 -0.08754433 0.06938559 -0.4141673
000270 38 32 26 be c3 6f 3b be e6 8b 46 be 5b 55 b6 be
       -0.16230094 -0.18304352 -0.19389305 -0.35611996
000280 f5 3b 9c be 54 96 b3 be ab 4c 81 bc 8c de 85 3d
       -0.30514494 -0.3507563 -0.015783628 0.06536588
000290 ae 0a 93 be e2 9b e2 bd 8e 2a 59 bd 34 3d d6 3e
       -0.28719085 -0.110648885 -0.0530191 0.4184357
0002a0 45 8d 84 3b d5 45 0c be 50 52 5a 3e 5f 55 84 3e
       0.004045161 -0.13698514 0.21320462 0.25846383
0002b0 70 aa b7 be 8e e6 6a be d0 7f 3d 3e de af d6 3e
       -0.3587222 -0.22939512 0.18505788 0.4193105
0002c0 bd 27 fc bb a2 7c 25 be 4d 6d a6 3e 4e ba 78 3d
       -0.007695167 -0.16160825 0.32505265 0.06072455
0002d0 31 f8 79 3e 0e 96 36 be f3 2e fb 3d 7f 90 a4 be
       0.24411084 -0.17830679 0.12264814 -0.32141492
0002e0 eb 3b 49 3d 86 39 97 3e 1c c5 a7 3e a2 e6 59 be
       0.049129408 0.29536074 0.3276757 -0.21279386
0002f0 d0 95 13 3e 33 69 cd bc 21 05 a2 be a7 81 93 be
       0.14412618 -0.025074577 -0.31644538 -0.28809854
000300 51 bd db bb 52 ed ee bd ba b9 86 bd 43 7d 64 3e
       -0.006705918 -0.11666359 -0.06578393 0.22313409
000310 27 b3 ca 3e 01 7d c0 be c7 6e 79 3e 8e a9 97 3d
       0.39589807 -0.3759537 0.24358664 0.07405387
000320 8c cc f0 3d 71 8c d4 3e 36 32 8f 3d d8 d9 84 be
       0.11757764 0.41513398 0.06991999 -0.25947452
000330 f4 f2 14 3f 3d 41 cb be fb 4a 73 bc 47 7c d4 be
       0.5818322 -0.3969821 -0.01484942 -0.41501066
000340 19 c0 51 3d 81 03 c2 3e 29 45 e0 3e 00 9f 80 be
       0.05120859 0.37893298 0.43802765 -0.25121307
000350 a0 3f 61 bd d1 6b 27 3f 8f 6f 03 be c1 79 a3 3e
       -0.05499232 0.6539889 -0.12835525 0.31928828
000360 cf 6f 00 3e 83 40 c9 be eb ef 8c bd 8a 4d 00 3f
       0.12542652 -0.3930703 -0.06881698 0.50118315
000370 02 75 7a 3e 54 d9 6f bf db c9 24 be 23 2d 91 bd
       0.24458697 -0.9369099 -0.16092627 -0.07088687
000380 d6 44 98 3e e3 26 32 bf 2d f5 28 3d 0e 52 e8 3e
       0.29740018 -0.69590586 0.041249443 0.45375103
000390 26 11 86 3e 89 ed e0 b8 71 be b5 3e 6c 4a 3a 3e
       0.26184958 -0.00010725397 0.35496858 0.18192452
0003a0 26 ef a3 3e 88 8f 32 bd 3b b8 38 bd 91 fe 1f be
       0.32018393 -0.043593913 -0.04509757 -0.15624453
0003b0 a3 bb d7 3e 04 90 41 bf 21 00 26 be 82 67 9d 3e
       0.42135343 -0.75610375 -0.16210987 0.30743033
0003c0 23 d6 e4 3f d1 75 f3 bd 18 c0 29 3f a8 00 d1 3d
       1.7877849 -0.11887706 0.66308737 0.10205203
0003d0 86 7f 93 3e 7d 23 5e 3d 64 a9 45 3e b7 d7 8c bd
       0.2880823 0.054233063 0.19302899 -0.06877082
0003e0 a3 e6 56 bf d8 63 82 3f 63 fc 89 3e 79 6d 83 be
       -0.83945674 1.018672 0.26950368 -0.25669459
0003f0 d9 dd 40 3f 93 9e 9b 3e 9a 8b 1d bf 12 3b 17 be
       0.7533851 0.3039442 -0.6154114 -0.14768627

lstm.bias_ih_l1 f4 [256]
000000 8b 19 6e be 29 7c 7a 3d fb bf 20 3e a1 af 39 bd
       -0.23251931 0.061153565 0.15698235 -0.04533351
000010 a3 d5 12 be 09 6d 15 be d7 e4 41 be cb a3 dc bd
       -0.14339308 -0.14592375 -0.18934952 -0.107734285
000020 02 74 b2 bd 03 73 4b bc a4 cb 80 3d 8c b2 63 bc
       -0.08713533 -0.012417558 0.06288841 -0.013897549
000030 0b a2 2c 3e 46 df b9 be 3e 29 9d be d3 de 0e be
       0.1685869 -0.36303157 -0.30695528 -0.13952188
000040 08 72 68 3e 3a 28 52 be 4f 7f a6 bd 65 44 52 be
       0.2269975 -0.20523158 -0.08129751 -0.20533903
000050 c2 27 bf bc e0 80 16 3e 56 ac a8 3d 8d 1f 3f bc
       -0.023334388 0.146976 0.082359955 -0.011665237
000060 03 69 81 be 59 9e ba bc b1 66 6b be 60 62 24 bd
       -0.2527543 -0.022780584 -0.22988392 -0.04013288
000070 47 fe 8c bc 60 2b a9 be 42 c7 88 be 3b a8 51 3e
       -0.017211093 -0.33040905 -0.26714522 0.20474331
000080 a3 ee d9 bd 7a c7 f9 bd 08 99 63 be 84 41 6a 3d
       -0.106412195 -0.1219625 -0.22226346 0.057191387
000090 66 91 e8 bd 12 ef bd bd ab a8 de bd 20 5e a5 bd
       -0.113558576 -0.09274115 -0.108720146 -0.080745935
0000a0 2f 54 17 be 56 14 ea bc bd 2c 5c 3d ac 4a 28 be
       -0.14778207 -0.02857415 0.053753603 -0.16434735
0000b0 a8 99 2b be e7 ac 3c be df de f9 bd f1 3e 33 3d
       -0.16757834 -0.18425332 -0.122007124 0.043761197
0000c0 12 55 4c be cf 26 33 bd 8f 3b d5 3d db aa 30 3d
       -0.19954327 -0.043738183 0.104117505 0.04313169
0000d0 c8 b9 9f be 01 ef 84 3e 93 0e 0c be a8 51 a7 3b
       -0.31196427 0.25963596 -0.13677435 0.0051061697
0000e0 6b 2b 3e be 47 8d 90 be 3c b6 14 be 34 0f 81 be
       -0.1857125 -0.28232786 -0.14522642 -0.25206912
0000f0 a3 73 ea be b1 b5 42 be 9c d3 c3 3b e8 a0 8c be
       -0.4579135 -0.19014622 0.0059761535 -0.27466512
000100 dd b4 4c be 09 3c bb 3e 2d 48 06 3d fe 25 9d 3e
       -0.19990869 0.3656924 0.032783676 0.30693048
000110 87 8b a2 bd dc 02 ce bc e8 d5 c0 3d 7b eb f6 3d
       -0.07936769 -0.025147848 0.094157994 0.12056633
000120 7b aa 74 bd 35 cc 1f be 72 ac 1c be f9 f1 b0 3e
       -0.059732895 -0.15605243 -0.15300158 0.3455961
000130 09 77 06 be 95 18 19 bc be 3c 1c 3e 31 74 d3 bd
       -0.13131346 -0.00934424 0.15257546 -0.10324896
000140 a3 35 d1 3d 76 97 b4 3d 80 b9 07 3e e4 e7 ea 3d
       0.102153085 0.088179514 0.13254356 0.11470011
000150 ec 48 93 3d 8f 2e 09 be df bd 82 3e 98 7b 23 3e
       0.07191643 -0.13396667 0.25535485 0.15965116
000160 19 2b b3 bc d2 fe 90 3e 17 61 2d be af 19 0f be
       -0.021871137 0.28319412 -0.16931568 -0.13974641
000170 d0 df f2 3d ea 73 2c 3e 40 60 8f bb b3 95 9b be
       0.11859095 0.16841093 -0.0043754876 -0.3038765
000180 88 06 9d 3c 3f bb 11 bd 69 c4 3d bd 89 38 d3 3d
       0.019168153 -0.035578962 -0.04632989 0.103135176
000190 3f 3d 3d be 1e 5a 88 be 0d 58 17 be 01 58 9b bd
       -0.18480395 -0.26631254 -0.14779682 -0.07585145
0001a0 79 c5 65 3e 15 8a 83 3e 0f c2 0a bd 3a 36 76 be
       0.22438611 0.25691286 -0.033876475 -0.24044123
0001b0 cd 82 92 3e 5e d2 3c bd 97 7f 86 3e d2 6a ae 3c
       0.28615418 -0.04609906 0.26269218 0.02129117
0001c0 d9 f0 4e 3e ed 73 8c be 25 da 79 3d 9c 74 5b 3d
       0.20209064 -0.27432194 0.060999054 0.053578004
0001d0 cc 8f 46 3e 20 46 04 3e 03 50 f6 bc 49 19 83 3c
       0.19390792 0.12917376 -0.03006745 0.016003268
0001e0 26 e2 f3 3d 24 5b 1f 3b ad 51 4f 3e 62 fd a6 3e
       0.11908369 0.0024315799 0.20246 0.3261519
0001f0 02 4f 94 3d fb 7a 46 3c 04 fb c4 bd bc 2b cc 3d
       0.07241632 0.012114282 -0.0961819 0.09969279
000200 5c d9 b8 bd 35 ed 82 3e 6a e8 ae be 32 c6 93 3d
       -0.09025833 0.255716 -0.34161693 0.07215537
000210 82 f6 3e bc 35 6d f4 bd a1 75 54 be 05 ac 0e be
       -0.011655452 -0.11934892 -0.20747997 -0.13932808
000220 fe a1 04 3e 37 cd 4c bd 6e 63 93 be c7 fc fc bd
       0.1295242 -0.050000396 -0.28786796 -0.12352901
000230 3d 4f f1 bc 6f 50 8c 3d 1b f1 0b be 4b 89 8a be
       -0.02945673 0.06851279 -0.13666193 -0.2705787
000240 c9 74 b2 3d 1b b8 2b 3a 9d a3 a5 3e 3a 8c cf 3c
       0.08713681 0.0006550566 0.3235139 0.02533542
000250 45 0b 36 3e 7e b0 2f be c6 a6 3b 3b 5a 4c d1 bd
       0.17777736 -0.1715717 0.002863334 -0.10219641
000260 f2 99 71 3e 25 75 6c 3d 63 92 0a be f8 ac 25 bc
       0.23593882 0.057728905 -0.13532405 -0.01011204
000270 91 77 dd 3b 3c aa 47 3e 7a 3a 1b 3e 6c 08 ac bd
       0.006758638 0.19498533 0.15159026 -0.08400044
000280 e2 5a 9f 3d 33 68 88 3a 0f 44 18 3e 23 8b 87 3d
       0.077810064 0.001040703 0.14869712 0.06618335
000290 c9 52 17 3c b5 81 d6 bd 40 26 34 be 8f cc 3b be
       0.009236046 -0.104739584 -0.17592716 -0.18339752
0002a0 00 96 1d bd 0a 63 ea 3d a8 88 45 be 57 f8 22 3e
       -0.03847313 0.114446715 -0.19290411 0.15915047
0002b0 c7 2e 2f 3e d2 e0 fb 3d e0 c3 df bd cc a7 f6 bd
       0.17107688 0.122987404 -0.10926032 -0.120437235
0002c0 25 d9 6c 3e 9d 79 cd 3d 6d 06 97 bd 30 15 be bd
       0.23129709 0.100329615 -0.073742725 -0.09281385
0002d0 bd 88 0a be 8f f8 44 3c 96 be 93 bb 99 dc 8b 3e
       -0.13528724 0.012022152 -0.0045088036 0.2731674
0002e0 09 c9 e7 3d 27 d4 9b 3d ae ce 06 be 91 9c 65 3e
       0.11317641 0.07608824 -0.1316478 0.22423007
0002f0 37 97 05 bd 21 15 3a bd 4b 57 19 be e5 a1 37 3c
       -0.032614913 -0.045430306 -0.14974706 0.011208032
000300 dd 5f 3e be b0 bc 60 3e d3 7b 71 3e 5e cd 4f 3e
       -0.18591256 0.21946979 0.23582391 0.20293185
000310 69 2c 7b 3e f1 95 93 be 7d a4 4b 3c 0c 91 1f 3f
       0.2452866 -0.28825334 0.012429354 0.623307
000320 28 cf a0 3d 2b ef 06 3f ab d4 f8 3d 2e a5 fb bd
       0.07852012 0.5270869 0.12149938 -0.12287365
000330 28 56 82 3e 92 cd 18 3d 44 61 49 3d aa 07 3c 3e
       0.25456357 0.037305422 0.049165025 0.18362299
000340 5f 00 df 3e 27 9e 8d bd df 3b b9 be 60 ce 9f 3d
       0.4355497 -0.06914931 -0.3617849 0.07803035
000350 67 de 84 3d 50 c7 24 3d 3d d8 89 be 32 d3 67 3e
       0.064877324 0.04022914 -0.2692279 0.22639158
000360 7f 46 a3 be 9b 9d b0 3d 2b 9a be be 16 ba 1b bd
       -0.31889722 0.08623811 -0.37226996 -0.038019262
000370 aa 9a 9d 3e ef 0b 06 bd 8c 50 d1 bd 11 82 93 bc
       0.30782062 -0.032726225 -0.10220441 -0.018006356
000380 98 c8 cb bd 5c 30 8f 3e 03 80 a5 bd 98 6a 84 3d
       -0.099503696 0.27966583 -0.08081057 0.06465644
000390 54 5d 64 be 8f 7b 0a 3c 32 ea 4c 3d f0 25 09 3f
       -0.22301227 0.00845231 0.050028034 0.53573513
0003a0 51 5f fa 3d 41 84 5e 3e d8 46 5e be 28 a2 16 be
       0.122252114 0.21730138 -0.21706712 -0.14710295
0003b0 e0 2c 96 3e 9f ad a9 3b 06 80 ba 3e c7 4a 95 3e
       0.29331112 0.005178168 0.364258 0.29158613
0003c0 94 92 11 be 91 1c 86 3d 6d 2d 4f 3d 77 3c a3 3d
       -0.14216071 0.06548417 0.05058043 0.07970517
0003d0 30 aa 32 3d d4 1d 3f 3d 0a 1b 54 bd 40 20 42 3e
       0.043619335 0.046659306 -0.0517836 0.18957615
0003e0 f7 ed 59 3e 89 f0 4d be 17 0e 8f 3f f8 00 c2 3e
       0.21282183 -0.20111288 1.1176175 0.37891364
0003f0 a4 a3 a6 3d 07 95 d4 3e 44 eb 05 be 12 1d 8f bd
       0.08136681 0.4151995 -0.13078028 -0.069879666
