models/v2/LSTM_xy_epoch_20_h-h_8-12_pt1_pf1.2.pth (torch, 340020 bytes, 14 tensors)

lstm.weight_ih_l0 f4 [256, 2]
0.19555792 -0.09143759 0.38654014 0.18354559 -0.14078501 0.1344791 0.23802371 -0.04273911
0.5379878 -0.19219594 -0.2778929 -0.09611102 0.16845664 0.03348115 -0.07997021 0.07209199
0.4803625 -0.7072804 -0.007259657 0.032558385 0.021528061 -0.023715213 0.15288202 0.139962
0.017254315 -0.06821694 0.3091801 -0.0086665 0.574247 -0.6296621 0.053576965 -0.1281908
-0.0923665 0.043145645 0.5695616 -0.1877234 0.65463394 -0.27485555 -0.09510125 0.040841445
0.27551416 0.18736294 -0.07026996 0.11639385 0.58950233 -0.50724006 0.12163466 0.15517473
0.060775183 0.12700984 -0.050632995 0.092462145 0.008149352 0.17686822 0.5572411 -0.36246023
0.04009204 0.30869955 0.65932095 -0.32078162 0.59079576 -0.47444788 0.5723122 -0.33400345
-0.12376349 0.08411114 0.14073579 0.08924544 0.31866643 0.022731377 -0.08994487 -0.12683752
0.14998151 -0.1376945 0.05846088 0.05059915 -0.006042322 -0.4760903 0.20210047 -0.4553377
-0.008091952 0.07420959 0.325264 -0.03867638 0.35588962 -0.50322086 0.14166985 -0.076107085
-0.014389842 -0.0063051754 -0.116715975 0.081630014 0.019784305 -0.07663475 0.013345908 -0.07072909
0.1672371 0.26132062 0.0010706608 0.12045926 0.05121393 0.0031225695 0.6159502 -0.44752055
0.19873632 0.20600434 -0.18610792 0.064845726 0.41933697 -0.052585486 0.50803834 -0.4259359
0.17104281 -0.10991741 -0.1318028 0.16255456 -0.15683562 0.016546985 0.6226798 -0.49917573
0.5925144 -0.24930726 -0.079777725 -0.22705048 0.15532093 0.0976445 -0.060401216 0.090411514
0.46621373 -0.31561354 -0.22374907 0.29207498 0.28344417 -0.23769164 0.082883954 -0.04057254
0.3008864 -0.282253 0.2963221 -0.3526516 -0.33051798 0.29048836 0.0754202 -0.10858074
0.27231276 -0.34590062 0.04158617 -0.12768419 0.11485099 -0.3274217 0.1656779 0.11659465
0.45077443 -0.29535353 -0.13159826 -0.22561553 0.31940112 -0.3606334 0.19881144 -0.21045701
-0.14657718 0.057939854 -0.15559581 0.072025895 0.3200814 -0.35419667 -0.11601195 0.034930404
-0.19133553 0.042998735 -0.11136664 0.06378237 0.13382098 -0.13435787 0.1477683 -0.24180402
0.17983162 -0.2501884 -0.11909544 0.13141346 0.4131445 -0.4226429 -0.15823625 -0.105660185
-0.117751375 0.32840297 0.45824862 -0.26087663 0.1723091 -0.14629449 -0.015408426 0.020498136
0.30849373 -0.33001322 0.32412812 -0.08651708 0.3759846 -0.21275963 0.34587106 -0.2897005
0.27793592 -0.31630948 0.18191895 0.032327324 -0.2176207 0.12916204 -0.121838085 -0.051651962
0.107919954 0.04129994 0.46709263 -0.22299637 0.4702951 -0.11953128 0.04723367 -0.045368265
0.08694008 -0.13769567 0.38893375 -0.33953297 0.23141022 -0.21183929 0.19703779 -0.3524537
0.05505149 0.4839765 0.30618185 0.015180645 0.0964 -0.11238918 0.34367245 -0.31053013
0.3265661 0.019988585 0.450504 -0.415488 -0.24490552 0.24927016 0.3324956 -0.34227484
-0.2586834 0.12324865 0.35613358 -0.34999588 0.28061065 -0.1571067 -0.24899197 0.1892317
0.333243 -0.25352022 -0.12903543 -0.20527337 0.08987449 0.10297379 -0.13746221 0.37714425
00000000: 5640 483e a243 bbbd 97e8 c53e 60f3 3b3e
00000010: f229 10be e4b4 093e 7dbc 733e 340f 2fbd
00000020: 92b9 093f 03cf 44be fa47 8ebe dbd5 c4bd
00000030: e67f 2c3e 8823 093d 6cc7 a3bd f7a4 933d
00000040: 13f2 f53e 5410 35bf 6be2 edbb f15b 053d
00000050: 9e5b b03c 6846 c2bc 1b8d 1c3e 3352 0f3e
00000060: ec58 8d3c 53b5 8bbd db4c 9e3e f0fd 0dbc
00000070: da01 133f 8931 21bf 8573 5b3d 7344 03be
00000080: a62a bdbd 7db9 303d cace 113f 903a 40be
00000090: 1796 273f deb9 8cbe 72c4 c2bd 5c49 273d
000000a0: 3110 8d3e 12dc 3f3e b2e9 8fbd e65f ee3d
000000b0: a0e9 163f 7cda 01bf 981b f93d 20e6 1e3e
000000c0: 66ef 783d de0e 023e 8b64 4fbd cb5c bd3d
000000d0: dc84 053c f11c 353e 5aa7 0e3f 6394 b9be
000000e0: 8d37 243d de0d 9e3e 42c9 283f 7d3d a4be
000000f0: 643e 173f d5ea f2be 0d83 123f 8002 abbe
00000100: b677 fdbd 7642 ac3d 0b1d 103e 50c6 b63d
00000110: 3f28 a33e 2737 ba3c 0435 b8bd b2e1 01be
00000120: c194 193e c9ff 0cbe ad74 6f3d 0e41 4f3d
00000130: acfe c5bb 1cc2 f3be 6df3 4e3e 0622 e9be
00000140: 1b94 04bc 33fb 973d 0189 a63e 206b 1ebd
00000150: 2a37 b63e 15d3 00bf e711 113e 08de 9bbd
00000160: 5fc3 6bbc a59b cebb c908 efbd a32d a73d
00000170: b212 a23c aef2 9cbd cca8 5a3c 6ada 90bd
00000180: 3440 2b3e d1cb 853e 6a55 8c3a 58b3 f63d
00000190: b3c5 513d 06a4 4c3b eaae 1d3f 6a21 e5be
000001a0: 8981 4b3e cdf2 523e 1393 3ebe d6cd 843d
000001b0: 56b3 d63e e163 57bd cd0e 023f 4514 dabe
000001c0: d925 2f3e 611c e1bd 50f7 06be b474 263e
000001d0: 8499 20be 8b8d 873c f267 1f3f f693 ffbe
000001e0: 06af 173f 674a 7fbe 8162 a3bd ec7f 68be
000001f0: 730c 1f3e d7f9 c73d 4467 77bd ac29 b93d
00000200: 91b3 ee3e 1998 a1be 7a1e 65be da8a 953e
00000210: 981f 913e 7065 73be 10bf a93d 642f 26bd
00000220: c80d 9a3e 7783 90be 88b7 973e c08e b4be
00000230: a739 a9be e4ba 943e e875 9a3d 945f debd
00000240: 946c 8b3e e319 b1be 4356 2a3d a5bf 02be
00000250: ff36 eb3d d1a3 a7be 78a7 293e 2dc9 ee3d
00000260: e8cb e63e 9438 97be b2c1 06be c207 67be
00000270: 8b88 a33e f1a4 b8be 3a95 4b3e 0b82 57be
00000280: 5418 16be 5752 6d3d 8254 1fbe 5082 933d
00000290: b6e1 a33e 4459 b5be ac97 edbd 2f13 0f3d
000002a0: 76ed 43be 711f 303d 3114 e4bd 55a0 823d
000002b0: 5e08 093e 1c95 09be 9350 173e 799b 77be
000002c0: c825 383e b218 80be 4fe8 f3bd 4091 063e
000002d0: ad87 d33e a664 d8be af08 22be 5e64 d8bd
000002e0: a227 f1bd 6f24 a83e 909f ea3e 9f91 85be
000002f0: cc71 303e 39ce 15be 9f73 7cbc b5eb a73c
00000300: e4f2 9d3e 7ef7 a8be 1ff4 a53e de2f b1bd
00000310: 0e81 c03e a9dd 59be 0316 b13e a053 94be
00000320: 9e4d 8e3e 51f3 a1be f648 3a3e a869 043d
00000330: f6d7 5ebe 0e43 043e 3f86 f9bd 0291 53bd
00000340: 2305 dd3d 202a 293d c426 ef3e 2959 64be
00000350: 85ca f03e d1cc f4bd 1878 413d 13d4 39bd
00000360: a40d b23d 1800 0dbe 5322 c73e 44d7 adbe
00000370: cdf6 6c3e 66ec 58be 46c4 493e d074 b4be
00000380: ac7d 613d c5cb f73e dec3 9c3e 3db8 783c
00000390: 5d6d c53d 4c2c e6bd d6f5 af3e cefd 9ebe
000003a0: ac33 a73e 1abf a33c 76a8 e63e d8ba d4be
000003b0: 83c8 7abe ad40 7f3e dd3c aa3e a63e afbe
000003c0: 2772 84be ca69 fc3d 2457 b63e a932 b3be
000003d0: 33ac 8f3e 94e0 20be c0f7 7ebe f4c5 413e
000003e0: d49e aa3e 67cd 81be dd21 04be 2f33 52be
000003f0: 1e10 b83d ece3 d23d e5c2 0cbe 0d19 c13e

lstm.weight_hh_l0 f4 [256, 64]
0.5507552 -0.33454493 0.6100927 0.26844096 -0.45590365 -0.32173884 -0.0784542 0.29165724
-0.63492596 0.45390558 -0.25853425 -0.3747716 0.3773858 0.26221794 -0.38257375 -0.34815133
-0.48308554 0.39143732 -0.5016614 -0.4179655 -0.116915695 -0.47011295 -0.5953918 0.32070667
-0.43678975 -0.66427493 -0.5492974 -0.21624753 -0.27449363 -0.32633993 -0.5291962 -0.6128834
0.24889314 0.32524815 0.18907365 0.31278473 0.3726048 -0.26465255 -0.32273638 -0.21104982
-0.37387848 0.23543839 -0.44570965 -0.48688465 -0.064130485 0.4742711 0.38006285 0.025310481
0.21033922 0.18584475 -0.23325434 -0.47994998 -0.42085323 0.25934136 -0.03564436 -0.23542482
-0.35137802 -0.89081293 0.061447807 -0.23173678 0.58562815 0.38576415 0.32016495 -0.6350358
0.017531127 -0.13834594 -0.09406249 -0.088511676 -0.0954521 -0.10522522 -0.04862821 0.47214597
0.04039271 0.048148647 0.063408315 0.15909678 0.40805048 0.04196129 1.4764965 0.058826495
0.041427393 -0.080968775 0.052610084 0.19891866 -0.021842698 0.0907596 0.11104178 -0.9563535
-0.07689196 -0.0032795833 0.47670203 0.121749796 0.438671 -0.058653403 0.088507764 0.16547862
0.044415664 -0.62147725 0.0627096 0.060856067 0.036034647 -0.031963088 -0.050755046 0.07604944
-0.11688385 0.16276984 -0.14986674 0.12786387 0.0025645073 0.04944157 0.01766281 0.30861378
0.18650953 -0.26249003 0.12849627 -0.05945791 0.69081557 0.14618225 0.16039923 0.34123257
0.03187964 0.08009843 -0.008029072 -0.1862117 0.10320362 0.0784813 0.062558874 0.015525463
-0.060140684 0.14139308 -0.26583117 -0.23977539 -0.07036197 -0.05114855 0.42254734 -0.23137939
-0.18962544 0.009099487 -0.2286906 -0.03768085 0.28894216 -0.13742359 -0.16833873 -0.105240434
-0.22881705 0.12721667 -0.059261214 -0.084322706 -0.000806605 -0.05340106 -0.10813664 -0.06710032
-0.09540437 -0.2637087 0.016955577 -0.2240581 -0.033922873 0.0034138658 -0.031038329 -0.25693506
0.10742608 0.16263592 0.13622749 -0.01633215 0.061926417 -0.3115777 -0.08005406 -0.1400285
0.011571286 0.080593534 -0.14705405 -0.21224922 -0.13471343 0.06904237 0.17740144 -0.16049469
0.25657246 0.38409007 -0.3007448 -0.15163863 -0.06922222 0.21075559 -0.024946649 -0.39097843
0.08003414 -0.08965319 -0.12346155 0.068080746 0.16582198 0.033415485 -0.047846157 -0.2516702
0.11947805 0.058595546 0.6930614 0.105167605 0.004172386 0.13917409 0.2743305 -0.14186473
-0.047607765 -0.09036851 0.31582877 0.20713636 0.06459047 0.004188982 0.44080606 -0.055125732
0.04691568 0.014883824 0.09811677 0.0321074 0.18033272 0.12473113 0.13642259 -0.68528014
0.24319364 0.45791832 0.22094056 0.4412387 0.28350845 0.083129436 0.15049444 0.0632118
0.32257357 -0.74530846 -0.16967875 -0.0007734644 -0.17401798 0.19283414 0.14118427 0.20848042
-0.15345088 0.056781318 0.22944973 0.08087663 0.1913804 -0.20500997 -0.19049981 -0.11168949
-0.48990193 -0.4200404 0.93112046 -0.030960945 0.45580858 -0.7593293 -0.08177289 0.36201182
-0.010606753 -0.3966028 -0.08743911 0.16679746 -0.09937966 -0.056315187 -0.21323712 0.25482544
00000000: 4bfe 0c3f 7949 abbe 092f 1c3f 1871 893e
00000010: 346c e9be f4ba a4be 98ac a0bd 1954 953e
00000020: 828a 22bf 5066 e83e 9a5e 84be 10e2 bfbe
00000030: b638 c13e 6e41 863e b5e0 c3be e440 b2be
00000040: fd56 f7be 796a c83e e26c 00bf 93ff d5be
00000050: 7f71 efbd a5b2 f0be 996b 18bf aa33 a43e
00000060: e8a2 dfbe ec0d 2abf c19e 0cbf fe6f 5dbe
00000070: 6e8a 8cbe 0716 a7be 6779 07bf ede5 1cbf
00000080: d8dd 7e3e ed86 a63e 869c 413e 5225 a03e
00000090: 0ec6 be3e 8a80 87be b43d a5be 721d 58be
000000a0: 006d bfbe c316 713e 0e34 e4be f248 f9be
000000b0: d856 83bd a9d3 f23e 9997 c23e ed57 cf3c
000000c0: 2a63 573e 164e 3e3e 3ada 6ebe 01bc f5be
000000d0: 137a d7be 64c8 843e d2ff 11bd 3413 71be
000000e0: d2e7 b3be 510c 64bf b2b0 7b3d 684c 6dbe
000000f0: baeb 153f e182 c53e a9ec a33e b591 22bf
00000100: 709d 8f3c 8faa 0dbe d6a3 c0bd 9c45 b5bd
00000110: 647c c3bd 5280 d7bd 602e 47bd 1ebd f13e
00000120: d472 253d 8437 453d 38dc 813d 44ea 223e
00000130: feeb d03e 9adf 2b3d d6fd bc3f 0df4 703d
00000140: c5af 293d f5d2 a5bd ac7d 573d 55b1 4b3e
00000150: 75ef b2bc 2be0 b93d df69 e33d 95d3 74bf
00000160: 8879 9dbd 47ee 56bb 4a12 f43e f557 f93d
00000170: 7c99 e03e 8d3e 70bd 8f43 b53d 3a73 293e
00000180: 33ed 353d 2219 1fbf e46d 803d 3644 793d
00000190: 1199 133d baeb 02bd 86e4 4fbd cfbf 9b3d
000001a0: cd60 efbd 23ad 263e ab76 19be bfee 023e
000001b0: 4b11 283b 3e83 4a3d 99b1 903c a002 9e3e
000001c0: 5bfc 3e3e 1865 86be 8794 033e 238a 73bd
000001d0: 4ad9 303f cdb0 153e b23f 243e 09b6 ae3e
000001e0: 3a94 023d a50a a43d 5e8c 03bc 48ae 3ebe
000001f0: 6b5c d33d ceba a03d de1e 803d 835e 7e3c
00000200: 1456 76bd 59c9 103e 061b 88be ae87 75be
00000210: f019 90bd 2481 51bd 2058 d83e b8ee 6cbe
00000220: 2c2d 42be 0416 153c de2d 6abe 3c57 1abd
00000230: 3af0 933e c5b8 0cbe fd60 2cbe 4c88 d7bd
00000240: 044f 6abe 1645 023e e3bb 72bd 62b1 acbd
00000250: 5872 53ba 12bb 5abd be76 ddbd e46b 89bd
00000260: 5e63 c3bd d404 87be 6ce6 8a3c 7d6f 65be
00000270: b6f2 0abd 2abb 5f3b 1844 febc fe8c 83be
00000280: 3402 dc3d 088a 263e 387f 0b3e 00cb 85bc
00000290: 8ea6 7d3d 1d87 9fbe 62f3 a3bd a263 0fbe
000002a0: 7e95 3d3c 390e a53d 5695 16be dc57 59be
000002b0: 51f2 09be 1666 8d3d b9a8 353e b858 24be
000002c0: 775d 833e 74a7 c43e 39fb 99be 2847 1bbe
000002d0: 61c4 8dbd 50d0 573e ea5c ccbc 532e c8be
000002e0: f0e8 a33d 179c b7bd 69d9 fcbd eb6d 8b3d
000002f0: 3dcd 293e adde 083d 55fa 43bd ebda 80be
00000300: e8b0 f43d e201 703d 796c 313f 1d62 d73d
00000310: 83b8 883b a783 0e3e 0c75 8c3e fd44 11be
00000320: 5c00 43bd 2013 b9bd 4fb4 a13e 8e1b 543e
00000330: 0248 843d ba43 893b 55b1 e13e 85cb 61bd
00000340: a82a 403d 48db 733c 72f1 c83d 0d83 033d
00000350: 24a9 383e 0973 ff3d 5db2 0b3e 856e 2fbf
00000360: c107 793e 4574 ea3e 3e3e 623e 0aea e13e
00000370: 0528 913e c43f aa3d 371b 1a3e 3075 813d
00000380: 5d28 a53e 89cc 3ebf 44c0 2dbe 51c2 4aba
00000390: c531 32be 5076 453e 9c92 103e e47b 553e
000003a0: 3a22 1dbe 8793 683d dff4 6a3e a6a2 a53d
000003b0: 39f9 433e 22ee 51be 6212 43be 76bd e4bd
000003c0: 6dd4 fabe 890f d7be e95d 6e3f cfa1 fdbc
000003d0: be5f e93e 6863 42bf 8c78 a7bd 9d59 b93e
000003e0: f2c7 2dbc 860f cbbe 4713 b3bd f4cc 2a3e
000003f0: 9087 cbbd c1aa 66bd d55a 5abe 7b78 823e

lstm.bias_ih_l0 f4 [256]
0.34247753 0.15026467 0.19328324 -0.11819542 0.13908897 0.12447108 0.065270804 -0.38941434
0.59555846 -0.3147114 -0.11648547 -0.14590836 -0.079463065 -0.070830666 0.016483957 -0.16528566
0.29783267 0.34316143 0.34282345 0.11171377 -0.067606434 0.13038163 0.1657714 -0.33723256
0.07967013 0.31403705 -0.22894607 0.5190391 0.03970045 0.116871506 0.17251575 0.45874354
0.13831088 -0.27058262 -0.027457027 0.20999046 -0.36007524 -0.46812615 0.73473203 0.061406605
-0.15490805 0.27809742 0.6420537 0.021766497 -0.30886856 0.2726741 -0.4649619 -0.2682683
-0.109172925 -0.18986538 -0.3086845 0.18891759 0.29958427 0.10296902 0.10545149 0.3315995
-0.47489595 0.15762243 0.18217471 0.13959488 0.49537933 0.19433716 -0.29964262 0.24595521
0.10927268 -0.2246148 0.20682214 -0.0378011 0.2220247 0.27151212 -0.37468445 0.043058034
0.07144914 -0.00048611104 -0.0400304 -0.043028712 0.34310773 -0.11379939 0.22397998 0.16962735
0.26493838 0.11969143 0.29466173 0.22005618 0.13647887 0.17704311 0.4640344 0.259347
0.034581687 0.21321581 0.14063048 0.1035441 0.093158185 0.07684673 0.18906873 0.09732178
0.081413336 0.12533794 0.1847151 0.16845474 0.15454772 -0.04439828 0.023119861 0.17233232
-0.11193843 0.06113016 0.12041328 -0.10142441 -0.17690359 0.12709485 0.09340397 0.09524716
0.10614057 0.11145702 0.18219759 0.16730633 0.072820775 -0.039391745 -0.23561978 0.14227821
0.07406056 0.31795153 0.1923902 0.0723991 0.2853303 0.21942967 -0.27330333 0.004782856
0.044686984 0.49241072 0.10626327 -0.16400777 -0.1455773 -0.12563156 -0.12394955 0.110989235
-0.36555228 0.2231847 0.23597832 0.5871151 -0.48390102 0.18136942 -0.07923029 -0.021844454
-0.037292168 0.22401644 -0.07643683 -0.25429136 -0.5738083 -0.024828807 -0.04926879 -0.22525217
-0.02690792 0.015194049 -0.27600002 -0.15656157 -0.102311656 -0.019833306 -0.11579777 -0.13855165
0.22008578 -0.029279431 0.13999352 0.14713661 -0.3635001 0.36224696 0.0022761705 -0.107216895
0.043219782 0.18027101 -0.20177923 -0.046985794 -0.08880967 -0.021933442 -0.154798 -0.021149129
-0.1611397 0.12063274 0.69021446 -0.019151693 -0.09624566 0.21005006 0.14403856 -0.07076778
0.30057448 0.0049987515 0.1370246 0.10252348 0.17326467 0.107264176 -0.078433916 -0.39044726
0.42798677 0.036807902 0.21732484 -0.3651646 0.07516001 0.15901132 -0.20490202 -0.24218272
0.32586223 0.50786483 0.08676983 -0.24830437 0.12968577 -0.1313516 0.016879937 -0.29442433
0.073471785 0.22125192 0.3376118 0.41369918 -0.56108177 0.56449354 0.17033759 -0.107863665
-0.010565924 0.1944485 0.017883588 0.18555363 0.369092 0.30294156 0.2207223 0.08943826
0.0359578 -0.23577015 0.13490713 0.2769597 -0.39663488 0.13993984 -0.4158324 -0.0042229574
0.1205785 0.03709478 0.18170299 0.011973583 -0.27390176 0.114683636 -0.14825921 -0.29173592
-0.00043593365 -0.36277783 -0.07542126 0.12176526 0.36112532 0.07459666 0.34390128 0.11275446
-0.29064295 0.22212413 -0.108332045 0.041451972 0.34090444 -0.12774561 -0.19240628 0.39094213
00000000: 3759 af3e fbde 193e 0bec 453e 7110 f2bd
00000010: 576d 0e3e b2ea fe3d b3ac 853d 5161 c7be
00000020: 8576 183f da21 a1be ef8f eebd 0069 15be
00000030: 88bd a2bd ab0f 91bd 5d09 873c a540 29be
00000040: 867d 983e dbb2 af3e 8e86 af3e 30ca e43d
00000050: 3e75 8abd c382 053e fabf 293e bfa9 acbe
00000060: 182a a33d 77c9 a03e d770 6abe bfdf 043f
00000070: f09c 223d 545a ef3d f8a7 303e 6fe0 ea3e
00000080: 5ea1 0d3e ce89 8abe 8fed e0bc bd07 573e
00000090: c85b b8be 3bae efbe 6617 3c3f 7e85 7b3d
000000a0: 37a0 1ebe c962 8e3e a25d 243f a74f b23c
000000b0: 0524 9ebe f19b 8b3e 7c0f eebe 765a 89be
000000c0: 0e96 dfbd 126c 42be e50b 9ebe 9d73 413e
000000d0: 1c63 993e 6ce1 d23d f3f6 d73d 69c7 a93e
000000e0: 9025 f3be c667 213e 028c 3a3e f6f1 0e3e
000000f0: 5ca2 fd3e 5200 473e c26a 99be afdb 7b3e
00000100: 5bca df3d 6c01 66be 2fc9 533e 54d5 1abd
00000110: 715a 633e a303 8b3e a4d6 bfbe 9f5d 303d
00000120: ed53 923d b8dc feb9 ebf6 23bd e03e 30bd
00000130: d1ab af3e a80f e9bd 025b 653e cbb2 2d3e
00000140: 01a6 873e c820 f53d e7dd 963e 6856 613e
00000150: 1ec1 0b3e ca4a 353e eb95 ed3e 21c9 843e
00000160: 87a5 0d3d 3f55 5a3e 7001 103e ee0e d43d
00000170: b8c9 be3d d261 9d3d 3c9b 413e a450 c73d
00000180: 09bc a63d 9758 003e f525 3d3e 667f 2c3e
00000190: c241 1e3e f9da 35bd dd65 bd3c e277 303e
000001a0: fa3f e5bd 9e63 7a3d 3d9b f63d 9ab7 cfbd
000001b0: 3726 35be 2725 023e 954a bf3d f110 c33d
000001c0: 3a60 d93d 9443 e43d 0192 3a3e 5a52 2b3e
000001d0: 0f23 953d 3d59 21bd 5046 71be 61b1 113e
000001e0: 10ad 973d 8bca a23e f001 453e fb45 943d
000001f0: d016 923e 2cb2 603e 6aee 8bbe 81b9 9c3b
00000200: b309 373d 421d fc3e 8fa0 d93d a7f1 27be
00000210: 3712 15be 8fa5 00be 43d9 fdbd 534e e33d
00000220: ab29 bbbe 888a 643e 4da4 713e 2d4d 163f
00000230: e0c1 f7be e8b8 393e 7e43 a2bd 24f3 b2bc
00000240: acbf 18bd 9164 653e ea8a 9cbd 7a32 82be
00000250: 1ae5 12bf c865 cbbc 12ce 49bd 81a8 66be
00000260: 006e dcbc 76f0 783c e04f 8dbe ad51 20be
00000270: c688 d1bd 7579 a2bc 6227 edbd 7ce0 0dbe
00000280: 2b5e 613e 6bdb efbc 765a 0f3e fbaa 163e
00000290: af1c babe 6f78 b93e ce2b 153b 8894 dbbd
000002a0: 3a07 313d f798 383e 379f 4ebe 2d74 40bd
000002b0: d8e1 b5bd c3ad b3bc 5e83 1ebe f040 adbc
000002c0: ce01 25be 4c0e f73d e5b1 303f 03e4 9cbc
000002d0: 721c c5bd 5d17 573e d87e 133e b3ee 90bd
000002e0: e6e4 993e 91cc a33b 2d50 0c3e d5f7 d13d
000002f0: 4b6c 313e 52ad db3d f6a1 a0bd b4e8 c7be
00000300: 1521 db3e e2c3 163d 678a 5e3e dbf6 babe
00000310: 7eed 993d ddd3 223e d6d1 51be bffe 77be
00000320: 6ad7 a63e 6e03 023f 61b4 b13d 8043 7ebe
00000330: 59cc 043e 0981 06be cb47 8a3c c9be 96be
00000340: 6078 963d dd8f 623e 74db ac3e 61d0 d33e
00000350: 0ea3 0fbf a682 103f fa6c 2e3e a0e7 dcbd
00000360: b31c 2dbc 821d 473e 9a80 923c c501 3e3e
00000370: a0f9 bc3e 281b 9b3e 0705 623e 682b b73d
00000380: 7c48 133d bb6d 71be 1825 0a3e a9cd 8d3e
00000390: ba13 cbbe 644c 0f3e fce7 d4be bc60 8abb
000003a0: dcf1 f63d b2f0 173d 5910 3a3e d92c 443c
000003b0: da3c 8cbe 41df ea3d 43d1 17be 695e 95be
000003c0: 068e e4b9 04be b9be 7676 9abd 1160 f93d
000003d0: 6be5 b83e 22c6 983d d413 b03e cfeb e63d
000003e0: 27cf 94be 8274 633e 31dd ddbd 8bc9 293d
000003f0: 078b ae3e bfcf 02be 2706 45be 9129 c83e

lstm.bias_hh_l0 f4 [256]
0.32743797 -0.018125463 0.089617155 0.015842527 0.0034886636 0.012363769 -0.13161035 -0.33491817
0.4310837 -0.20153904 -0.16397387 -0.062875584 0.033751998 -0.054032393 0.19702132 -0.21104936
0.19807297 0.33065656 0.4758419 0.11191586 -0.1913293 0.19437042 0.20192048 -0.23397805
-0.11352261 0.45405442 -0.3233341 0.4532251 0.052827124 0.06887336 0.19437025 0.4238824
0.12130088 -0.25564355 -0.13581787 0.011951107 -0.18530713 -0.47593242 0.7877501 0.03712048
-0.16924708 0.15820256 0.6264843 0.09969742 -0.20922199 0.26708627 -0.5996926 -0.29907027
-0.11835181 -0.20029104 -0.27196693 0.1400598 0.16502748 0.058237433 0.26986828 0.5372435
-0.38306683 0.1267716 0.1684011 0.15901041 0.31442976 0.21983497 -0.22757798 0.13263762
0.17755319 -0.14122263 0.37767646 0.042067837 0.21147299 0.29667994 -0.20266867 0.2248512
0.20841223 -0.05901495 -0.09271393 -0.20726122 0.28561422 -0.14188835 0.21981429 0.1397748
0.055539027 0.06070271 0.33181125 0.18019524 -0.05198648 0.12657855 0.44163308 0.04723951
0.12717804 0.11086671 0.26939687 0.16533504 -0.057812814 0.09792666 0.29009098 0.1558603
0.06392722 0.2598304 0.14154765 0.3094037 0.024854466 -0.055763174 0.049748674 0.10689335
-0.12706348 0.05960616 0.05907604 -0.19046268 -0.009481189 0.2322383 -0.0124490075 0.21080987
-0.07779008 0.046984803 -0.03622553 0.2632614 -0.10569382 -0.02440938 -0.15166181 0.14716694
-0.15047137 0.1724176 0.11353199 0.1560488 0.15924253 0.12108968 -0.19261388 0.12853645
0.09782243 0.40839374 0.08881963 -0.19555052 -0.12256799 -0.13462673 -0.030065332 0.27310404
-0.1980248 0.10618353 0.14789852 0.5038825 -0.6545365 0.1268319 -0.047340106 0.094622746
0.026665114 0.14481409 -0.05383504 -0.3447017 -0.63962626 -0.0537934 0.0049350034 -0.20686062
0.030690873 -0.16234337 -0.18427569 -0.05451141 -0.11709559 0.077620395 -0.08475753 -0.012202211
0.13473555 0.033368815 0.05849662 -0.024756674 -0.265248 0.47806552 0.019192722 0.02306563
0.09734007 0.004414319 -0.252778 0.037906196 0.0712327 -0.02576628 -0.10507114 -0.0077225077
-0.15098108 -0.037966873 0.8794913 -0.08799941 0.051517613 0.3648448 0.13411362 -0.16840379
0.44761428 -0.10291136 0.17105706 -0.05407267 0.14337757 0.21900208 -0.13593082 -0.26779872
0.38779342 0.078196995 0.08396675 -0.27886167 0.11584754 0.096331924 -0.10906828 -0.1498413
0.2844233 0.4512663 0.07324696 -0.45315367 0.104879126 -0.14258365 0.0781162 -0.40152094
0.24007031 0.19022162 0.29875124 0.1971191 -0.3704555 0.5591075 0.23768808 -0.06365523
0.08269819 0.40242353 0.12758812 0.07635843 0.24313228 0.06434478 0.10058177 0.123366535
0.22970358 -0.45279256 0.32741934 0.1458166 -0.20160154 -0.037021324 -0.42884615 0.13552408
0.10532363 -0.017788636 0.25770468 0.06202376 -0.23794091 0.14366958 -0.26624578 -0.15709722
-0.20268005 -0.32101768 -0.14507565 0.32285425 0.5594292 0.24172099 0.4443568 -0.008386842
-0.37452 0.16995619 -0.13199426 0.16279507 0.27969548 -0.029503595 -0.32195756 0.30836716
00000000: f3a5 a73e da7b 94bc 3389 b73d 30c8 813c
00000010: 10a2 643b 6891 4a3c ddc4 06be 657a abbe
00000020: 01b7 dc3e 4060 4ebe c4e8 27be eac4 80bd
00000030: 893f 0a3d 1251 5dbd f5bf 493e 531d 58be
00000040: a4d3 4a3e d14b a93e 8da1 f33e 2434 e53d
00000050: d4eb 43be 0a09 473e 3ec4 4e3e f197 6fbe
00000060: 8b7e e8bd d279 e83e 0c8c a5be 1f0d e83e
00000070: 4161 583d 7a0d 8d3d ff08 473e 1d07 d93e
00000080: 996c f83d b6e3 82be d713 0bbe 93ce 433c
00000090: 27c1 3dbe 6aad f3be fea9 493f a50b 183d
000000a0: 1b4f 2dbe daff 213e 4661 203f 292e cc3d
000000b0: 4a3e 56be 88bf 883e 7485 19bf bd1f 99be
000000c0: 6f62 f2bd 1819 4dbe 403f 8bbe d66b 0f3e
000000d0: f7fc 283e 608a 6e3d 2d2c 8a3e ca88 093f
000000e0: 5621 c4be 6ad0 013e 5771 2c3e a0d3 223e
000000f0: f0fc a03e 6b1c 613e 340a 69be 28d2 073e
00000100: 81d0 353e aa9c 10be cf5e c13e 534f 2c3d
00000110: 608c 583e 6fe6 973e 6088 4fbe 653f 663e
00000120: 046a 553e a9b9 71bd cde0 bdbd 493c 54be
00000130: 073c 923e 2e4b 11be ff16 613e 2021 0f3e
00000140: e47c 633d 68a3 783d 2ae3 a93e 1a85 383e
00000150: c6ef 54bd cf9d 013e bb1d e23e 377e 413d
00000160: f63a 023e 160e e33d 63ee 893e 974d 293e
00000170: 21cd 6cbd c68d c83d ce86 943e d899 1f3e
00000180: 46ec 823d 7d08 853e def1 103e 296a 9e3e
00000190: 989b cb3c ed67 64bd 44c5 4b3d e7ea da3d
000001a0: ee1c 02be 9725 743d b8f9 713d a608 43be
000001b0: fd56 1bbc e0cf 6d3e ecf6 4bbc 8bde 573e
000001c0: 6850 9fbd 2373 403d 3961 14bd 33ca 863e
000001d0: 0076 d8bd 2ef6 c7bc 3c4d 1bbe eeb2 163e
000001e0: 2b15 1abe 3d8e 303e 7683 e83d 42cb 1f3e
000001f0: 7910 233e defd f73d 933c 45be 0f9f 033e
00000200: 2057 c83d fc18 d13e 11e7 b53d 653e 48be
00000210: ed04 fbbd 97db 09be 924b f6bc 4bd4 8b3e
00000220: 03c7 4abe c076 d93d b672 173e 72fe 003f
00000230: b48f 27bf 39e0 013e b3e7 41bd 92c9 c13d
00000240: cc70 da3c 254a 143e 2282 5cbd be7c b0be
00000250: 8cbe 23bf 7856 5cbd cfb5 a13b 45d3 53be
00000260: 6d6b fb3c 573d 26be c4b2 3cbe 5b47 5fbd
00000270: d0cf efbd 71f7 9e3d 5b95 adbd c8eb 47bc
00000280: 1ef8 093e bdad 083d 279a 6f3d 82ce cabc
00000290: 96ce 87be 01c5 f43e 0e3a 9d3c 22f4 bc3c
000002a0: 3b5a c73d fea5 903b 1e6c 81be 8743 1b3d
000002b0: 73e2 913d ce13 d3bc 8a2f d7bd 170d fdbb
000002c0: c99a 1abe 2783 1bbd 5826 613f 0939 b4bd
000002d0: 2204 533d f0cc ba3e 1555 093e 0b72 2cbe
000002e0: b32d e53e 31c3 d2bd 9529 2f3e 4e7b 5dbd
000002f0: 92d1 123e 1542 603e 7331 0bbe ea1c 89be
00000300: dc8c c63e bf25 a03d c2f6 ab3d f5c6 8ebe
00000310: 7a41 ed3d ac49 c53d 315f dfbd ff6f 19be
00000320: ee9f 913e 600c e73e 8102 963d c203 e8be
00000330: deca d63d 7301 12be 63fb 9f3d 2794 cdbe
00000340: fed4 753e 75c9 423e ecf5 983e 97d9 493e
00000350: 58ac bdbe ab21 0f3f 8164 733e ac5d 82bd
00000360: ab5d a93d 750a ce3e 76a6 023e cf61 9c3d
00000370: abf7 783e 32c7 833d d1fd cd3d 98a7 fc3d
00000380: 6a37 6b3e 6dd4 e7be 82a3 a73e f250 153e
00000390: a270 4ebe aca3 17bd b991 dbbe d3c6 0a3e
000003a0: eab3 d73d 79b9 91bc def1 833e a00c 7e3d
000003b0: c8a6 73be 1e1e 133e 5e51 88be 18de 20be
000003c0: 5c8b 4fbe 6e5c a4be b68e 14be 274d a53e
000003d0: c136 0f3f b585 773e bc82 e33e f768 09bc
000003e0: 16c1 bfbe ff08 2e3e 8129 07be c0b3 263e
000003f0: 3f34 8f3e 86b1 f1bc 9fd7 a4be 4de2 9d3e

lstm.weight_ih_l1 f4 [256, 64]
-0.002848131 0.14991803 -0.025147693 0.09480162 -0.13372003 0.028622147 0.076872334 0.022702627
-0.10635732 -0.09807973 -0.16348843 0.08698825 -0.09384895 0.22632958 -0.25354472 -0.06400175
0.09243628 0.109858245 -0.007058177 0.1381359 0.034211196 0.0021938968 0.2180213 0.00963542
-0.181155 0.09138092 0.0698228 -0.2200058 0.37791434 -0.23637944 -0.09954379 -0.083411634
-0.022328101 0.047302295 -0.11074748 0.0012707864 -0.024175312 0.092713065 0.06487768 -0.13110247
-0.01891283 0.1027783 0.4431154 -0.18747094 -0.09953344 -0.42335638 0.03502321 -0.105509534
0.006410672 0.20617719 0.01737644 0.117326505 -0.06047648 0.14635728 -0.22741596 0.11579248
0.10334224 0.27241084 0.082547896 0.045816477 -0.025201095 -0.07402974 0.14530347 0.1606208
0.14711852 -0.18798192 0.026298244 0.19849871 -0.013650828 0.6201976 0.16755247 0.07240829
0.124177985 -0.037619025 -0.07547334 -0.092624806 -0.16271842 0.088280365 -0.13397217 -0.017510507
-0.07520421 -0.088551916 0.011072751 0.05993842 -0.15862481 0.07997401 -0.030910205 0.13144553
0.018911436 0.0011062454 0.030748151 0.08487195 -0.28696504 0.12425424 -0.037368033 -0.03422113
0.04016369 -0.05189348 0.015137291 -0.07371329 0.106265545 -0.06310453 -0.15244779 -0.060486544
-0.19015482 0.12909655 -0.15816152 -0.13665922 -0.014380092 0.05745052 -0.040858548 -0.0489677
-0.0009697565 -0.028801316 -0.08044117 0.10680285 -0.13712424 -0.33203173 0.059704915 -0.009013637
0.03281251 -0.0282404 0.2535252 0.028940756 -0.08854594 0.009604502 0.007550451 0.17636104
0.09281985 0.02395598 0.9052821 -0.09900216 -0.12182786 -0.023102758 -0.03677425 -0.043296367
-0.030855736 0.05297465 0.014649687 0.002971974 -0.079391874 0.09147725 0.0065909955 0.11646499
-0.23146616 0.1486722 -0.16183743 -0.08891677 -0.14439763 -0.21734199 -0.15473881 0.02773683
-0.19625826 -0.17088407 0.025126172 -0.28915536 -0.27431315 -0.18388405 -0.23198754 -0.19856992
0.21800266 0.12855315 0.08327649 -0.03067922 0.121417806 -0.026501779 -0.028239237 -0.07129631
-0.17238936 0.21891347 -0.38130087 -0.025413008 -0.026207129 0.17471439 0.113741115 0.14136131
-0.09322194 0.03710868 -0.06248262 -0.12551025 -0.08744928 -0.4699266 -0.06587868 -0.54390675
-0.021236451 -0.3070398 -0.051189046 -0.087304905 0.057665218 -0.08520202 -0.055564847 -0.1742496
-0.062028248 -0.16427155 0.11549254 0.09067613 0.024622815 -0.5345342 -0.12838364 0.14696279
0.17367217 0.10037986 0.2531824 0.17673993 0.36924717 -0.10093017 0.3052953 -0.1852248
0.2434437 -0.12448544 0.21781096 0.35596144 -0.10865007 0.118906915 0.25181836 -0.4483546
0.08221255 0.33446035 -0.16987814 0.61550075 0.18859094 0.18109411 0.12022196 0.28188708
-0.087239064 0.06474683 0.10932731 0.110331625 -0.0038786398 0.06555964 0.029277056 0.17050007
0.08667338 0.09950353 0.28501177 0.060639404 0.14505768 -0.13911958 0.02164151 -0.11166908
0.09883862 -0.33208346 0.08071749 0.26781902 0.018367263 -0.113792114 0.35487053 0.78658146
-0.07984392 0.046151645 0.17492479 -0.0725732 -0.37942934 0.102664955 -0.027058946 0.18116167
00000000: b5a7 3abb 1d84 193e 8902 cebc 5a27 c23d
00000010: e7ed 08be fe78 ea3c 3e6f 9d3d dcfa b93c
00000020: ded1 d9bd 07de c8bd 8369 27be e526 b23d
00000030: e133 c0bd f1c2 673e 9dd0 81be 5913 83bd
00000040: 3b4f bd3d 5cfd e03d 4848 e7bb 7f73 0d3e
00000050: 0a21 0c3d 7bc7 0f3b fa40 5f3e e1dd 1d3c
00000060: b280 39be eb25 bb3d 42ff 8e3d 3349 61be
00000070: fd7d c13e 740d 72be 9ddd cbbd b8d3 aabd
00000080: 6ce9 b6bc 0dc0 413d 93cf e2bd 8490 a63a
00000090: 4e0b c6bc 59e0 bd3d 97de 843d ba3f 06be
000000a0: 14ef 9abc 6e7d d23d 06e0 e23e 62f8 3fbe
000000b0: 30d8 cbbd 2bc2 d8be 7f74 0f3d 6215 d8bd
000000c0: 9d10 d23b 1d20 533e 0959 8e3c e148 f03d
000000d0: 2fb6 77bd afde 153e bbdf 68be 9c24 ed3d
000000e0: 19a5 d33d 6f79 8b3e df0e a93d 0faa 3b3d
000000f0: 8772 cebc e89c 97bd 6fca 143e c779 243e
00000100: 3da6 163e 557e 40be 6a6f d73c 3f43 4b3e
00000110: b9a7 5fbc 45c5 1e3f e092 2b3e cc4a 943d
00000120: 0751 fe3d 6816 1abd c491 9abd 13b2 bdbd
00000130: a89f 26be 56cc b43d 0030 09be 3272 8fbc
00000140: aa04 9abd b55a b5bd 7c6a 353c fd81 753d
00000150: 8b6e 22be 6ac9 a33d 6637 fdbc a899 063e
00000160: 28ec 9a3c 70ff 903a 8ce3 fb3c 58d1 ad3d
00000170: 15ed 92be 0279 fe3d 390f 19bd 752b 0cbd
00000180: ae82 243d 428e 54bd 6602 783c fef6 96bd
00000190: c0a1 d93d f33c 81bd 461b 1cbe bdc0 77bd
000001a0: f2b7 42be e331 043e 18f5 21be 65f0 0bbe
000001b0: 7a9a 6bbc 3d51 6b3d 4b5b 27bd 5b92 48bd
000001c0: 4237 7eba bdf0 ebbc 57be a4bd 74bb da3d
000001d0: 4c6a 0cbe 1000 aabe 248d 743d efad 13bc
000001e0: 6966 063d 6958 e7bc 0ece 813e 2a15 ed3c
000001f0: 9357 b5bd 335c 1d3c c669 f73b fd97 343e
00000200: 5518 be3d 553f c43c 91c0 673f a5c1 cabd
00000210: e380 f9bd ff41 bdbc 99a0 16bd 8857 31bd
00000220: 2bc5 fcbc f2fb 583d 3e05 703c 73c5 423b
00000230: 3598 a2bd 6d58 bb3d 47f9 d73b 3285 ee3d
00000240: 7705 6dbe 863d 183e b6b8 25be ff19 b6bd
00000250: f9dc 13be e68e 5ebe da73 1ebe 5938 e33c
00000260: edf7 48be 3cfc 2ebe 67d5 cd3c 2c0c 94be
00000270: c672 8cbe 1a4c 3cbe 248e 6dbe ea55 4bbe
00000280: 173c 5f3e 70a3 033e dd8c aa3d fd52 fbbc
00000290: e6a9 f83d 421a d9bc f955 e7bc cd03 92bd
000002a0: d686 30be da2a 603e de39 c3be f12e d0bc
000002b0: 55b0 d6bc 54e8 323e 1af1 e83d 05c1 103e
000002c0: 25eb bebd 45ff 173d c7ed 7fbd c285 00be
000002d0: 9c18 b3bd 389a f0be 67eb 86bd 793d 0bbf
000002e0: 11f8 adbc 5234 9dbe 9bab 51bd eacc b2bd
000002f0: 5d32 6c3d 667e aebd f797 63bd 7d6e 32be
00000300: 5511 7ebd cd36 28be 5a87 ec3d 68b4 b93d
00000310: c9b5 c93c 3cd7 08bf 0077 03be 6a7d 163e
00000320: 1ed7 313e f593 cd3d 20a1 813e 50fb 343e
00000330: f70d bd3e 7ab4 cebd aa4f 9c3e 92ab 3dbe
00000340: 4e49 793e 39f2 febd d609 5f3e 9440 b63e
00000350: ee83 debd 7885 f33d 56ee 803e bc8e e5be
00000360: 0e5f a83d 633e ab3e 89f4 2dbe 7591 1d3f
00000370: fc1d 413e bc70 393e ee36 f63d 8153 903e
00000380: 65aa b2bd fc99 843d ffe6 df3d 8cf5 e13d
00000390: c730 7ebb 2244 863d 70d6 ef3c 9297 2e3e
000003a0: d081 b13d 82c8 cb3d 10ed 913e 0661 783d
000003b0: 008a 143e 5d75 0ebe 8949 b13c c2b2 e4bd
000003c0: e76b ca3d d806 aabe 364f a53d 931f 893e
000003d0: f176 963c d70b e9bd 97b1 b53e 675d 493f
000003e0: 3685 a3bd 8209 3d3d 7c1f 333e 42a1 94bd
000003f0: 9044 c2be 0142 d23d b9aa ddbc 7282 393e

lstm.weight_hh_l1 f4 [256, 64]
0.07439918 0.15405776 0.5413014 -0.35357153 1.8527535 -0.15207694 0.59082144 -0.47002918
-0.40801832 0.8159497 -0.06963933 -0.06579 -0.050827306 0.25143018 0.02455859 -0.41121244
0.1733821 0.2931576 0.86254954 -0.00825347 -0.10401861 1.4869127 0.011769578 1.0896397
0.09231386 -1.6960629 0.6818542 -0.23799387 0.5913163 -0.114999786 0.7122609 0.30335894
-0.18271768 -0.14258242 -0.44584233 -0.4680727 0.013432077 -0.02226656 -0.62800586 0.9839539
0.39503476 -0.23515722 -0.5270099 0.38743392 -0.057818986 0.16541772 -0.85745054 0.8286791
0.24931076 0.3022666 -0.20362684 0.29435545 -0.5996688 0.14929494 0.23845267 -0.037411727
-0.3285145 -0.50996614 -0.073245496 -0.1142916 -0.43666923 0.6675093 0.096601754 -0.22476195
0.37720123 -0.19200484 0.35949823 -0.031759072 0.3212845 -0.010360253 -0.09611033 0.44339302
-0.0066161896 -0.029548049 0.08034213 0.121942885 -0.16686583 -0.25273374 -0.0995973 -0.04136731
0.10578269 -0.02860614 -0.04519028 0.10090009 0.13658886 -0.10473521 -0.07971968 0.018687155
0.0539893 0.049964864 -0.3388643 -0.12353725 -0.0053400607 0.07006097 0.13658974 0.04521112
-0.06838836 0.11201806 -0.21854833 -0.046655003 0.051775288 -0.069762506 -0.13210426 0.22274755
0.005846422 0.0973029 0.5800223 0.14359707 0.09544644 0.07901661 0.09785117 -0.47643933
-0.12337572 -0.01582373 0.39251935 0.09455669 0.006554987 0.3586262 0.05100344 -0.12370793
0.33064285 0.15948518 -0.2890267 -0.3477935 0.12273851 -0.10398654 0.0036179882 0.08184009
0.3093668 -0.32491702 0.36727017 0.12298209 0.07255034 -0.12380971 -0.32590032 0.08095873
0.08152256 0.051542077 0.1148943 0.12494505 -0.020400252 -0.27757633 0.3519496 0.052915808
-0.13751636 -0.23110752 -0.31643188 0.34769472 0.22739938 0.02090282 -0.22824013 -0.1429813
0.12770118 0.2072486 -0.18445456 0.14374661 -0.026333928 0.35694164 -0.5386052 -0.043134995
-0.16566841 0.068414815 0.4121148 0.3605462 0.024481261 -0.08113186 0.50730157 0.040244326
0.18317306 0.1501093 0.19261661 0.08568962 0.14830592 -0.053952307 0.040418293 -0.42156318
-0.23471813 -0.22445004 0.23434053 0.20021127 0.33921278 -0.031594895 -0.19895078 0.009053903
0.3700193 0.39965796 -0.0052586948 0.16568682 0.34895247 -0.031225966 -0.13317382 0.009289809
-0.13482285 0.08103294 0.10315965 1.128368 -0.048199534 0.15102842 0.020732723 -0.22999184
-0.12274546 0.12949024 -0.34113586 0.09255884 0.11882838 -0.06612469 -0.020824738 -0.12468305
-0.17581055 -0.06447479 -0.16911077 -0.20754446 0.029692335 -0.23941396 0.16680671 -0.29671425
0.25346667 -0.13569406 0.20373318 -0.07363463 0.07902627 0.13712808 -0.42293665 -0.74766946
0.109734096 -0.033669837 0.11078817 -0.09981306 0.07684433 0.7656934 -0.13115372 0.15007904
-0.038423255 -0.09635953 -0.10013934 -0.4461507 0.0045930874 -0.11716643 0.29989555 0.022992983
0.0650017 0.20924498 0.007551891 -0.13184527 0.18445589 -0.2051587 -0.08789417 -0.013820187
0.094367646 0.09858431 0.009865904 -0.6836744 0.10773209 -0.31941563 -0.047297984 -0.13259305
00000000: 995e 983d 51c1 1d3e bb92 0a3f 5407 b5be
00000010: 0727 ed3f 0fba 1bbe 1340 173f aaa7 f0be
00000020: c7e7 d0be 14e2 503f 119f 8ebd e8bc 86bd
00000030: 4b30 50bd 75bb 803e 192f c93c 708a d2be
00000040: 148b 313e c118 963e 0cd0 5c3f 9039 07bc
00000050: b607 d5bd 2853 be3f 30d5 403c 5079 8b3f
00000060: 0d0f bd3d 9718 d9bf ff8d 2e3f aab4 73be
00000070: 8160 173f 0285 ebbd bb56 363f dd51 9b3e
00000080: 581a 3bbe 2001 12be 7245 e4be 3aa7 efbe
00000090: 3712 5c3c 5c68 b6bc fec4 20bf 67e4 7b3f
000000a0: ff41 ca3e 0ecd 70be 1fea 06bf bd5d c63e
000000b0: 9ad3 6cbd 4363 293e e181 5bbf 5024 543f
000000c0: 524b 7f3e b0c2 9a3e 8e83 50be c2b5 963e
000000d0: e583 19bf c6e0 183e f02c 743e 0a3d 19bd
000000e0: 0d33 a8be 248d 02bf bc01 96bd b711 eabd
000000f0: 1c93 dfbe e4e1 2a3f 24d7 c53d ff27 66be
00000100: 8520 c13e eb9c 44be 2710 b83e cd15 02bd
00000110: 677f a43e 0dbe 29bc 7ed5 c4bd 6904 e33e
00000120: 9fcc d8bb c00e f2bc 6a8a a43d 31bd f93d
00000130: e0de 2abe 5166 81be abf9 cbbd c570 29bd
00000140: 98a4 d83d 6c57 eabc 7119 39bd b5a4 ce3d
00000150: f3dd 0b3e 6a7f d6bd 1244 a3bd ce15 993c
00000160: e223 5d3d f5a7 4c3d 9f7f adbe 1901 fdbd
00000170: adfb aebb 207c 8f3d 2ede 0b3e 4c2f 393d
00000180: 320f 8cbd ba69 e53d 22cb 5fbe 5119 3fbd
00000190: 5312 543d a5df 8ebd 5746 07be ef17 643e
000001a0: 5893 bf3b be46 c73d 577c 143f 1c0b 133e
000001b0: 6c79 c33d 76d3 a13d 3266 c83d dbef f3be
000001c0: 69ac fcbd c4a0 81bc 4cf8 c83e f0a6 c13d
000001d0: 37cb d63b da9d b73e fce8 503d 955a fdbd
000001e0: 054a a93e 1550 233e 4ffb 93be fd11 b2be
000001f0: 545e fb3d e5f6 d4bd c51b 6d3b c79b a73d
00000200: 5365 9e3e 865b a6be d60a bc3e 09de fb3d
00000210: 4695 943d f28f fdbd 68dc a6be b1cd a53d
00000220: 4df5 a63d c91d 533d b44d eb3d 31e3 ff3d
00000230: 6e1e a7bc 7c1e 8ebe bd32 b43e 3fbe 583d
00000240: 17d1 0cbe 73a7 6cbe 5c03 a2be 0b05 b23e
00000250: 62db 683e 643c ab3c c8b7 69be b169 12be
00000260: 19c4 023e fa38 543e a8e1 3cbe 5032 133e
00000270: 40ba d7bc 0ec1 b63e 08e2 09bf 52ae 30bd
00000280: fba4 29be 111d 8c3d b600 d33e 8399 b83e
00000290: ed8c c83c 7628 a6bd 84de 013f 3cd7 243d
000002a0: b891 3b3e 41b6 193e 4a3d 453e 0a7e af3d
000002b0: 82dd 173e 18fd 5cbd a78d 253d 21d7 d7be
000002c0: f359 70be 3bd6 65be f7f6 6f3e 2f04 4d3e
000002d0: 4cad ad3e a669 01bd c1b9 4bbe d256 143c
000002e0: 2b73 bd3e f89f cc3e 2151 acbb cea9 293e
000002f0: e6a9 b23e 99cd ffbc b85e 08be 4834 183c
00000300: 000f 0abe 99f4 a53d 5e45 d33d 5d6e 903f
00000310: e06c 45bd 32a7 1a3e acd7 a93c fb82 6bbe
00000320: f961 fbbd 1799 043e 5ca9 aebe 7d8f bd3d
00000330: 4b5c f33d 626c 87bd a498 aabc d459 ffbd
00000340: ae07 34be 5c0b 84bd 602b 2dbe 8986 54be
00000350: 573d f33c ef28 75be 61cf 2a3e eeea 97be
00000360: 62c6 813e 62f3 0abe 6e9f 503e c1cd 96bd
00000370: 86d8 a13d 4e6b 0c3e 278b d8be 4467 3fbf
00000380: 45bc e03d 62e9 09bd e8e4 e23d ca6a ccbd
00000390: 8f60 9d3d 7c04 443f 294d 06be 52ae 193e
000003a0: b461 1dbd 2558 c5bd db15 cdbd dd6d e4be
000003b0: 9c81 963b f4f4 efbd e98b 993e c85b bc3c
000003c0: 9c1f 853d 5144 563e da75 f73b 7202 07be
000003d0: 01e2 3c3e 1f15 52be dc01 b4bd 116e 62bc
000003e0: d343 c13d 92e6 c93d 9aa4 213c 4905 2fbf
000003f0: a4a2 dc3d 728a a3be 88bb 41bd 79c6 07be

lstm.bias_ih_l1 f4 [256]
-0.052801527 0.13292433 0.12639163 0.07850536 -0.08609529 -0.02108925 0.039459534 -0.02854815
0.16873223 0.09273708 -0.056523062 0.11162022 0.11647373 -0.08703204 0.3452129 0.008258972
-0.094396316 0.023573138 -0.0880556 0.055950675 -0.20230947 -0.036565877 -0.11128642 0.04810339
-0.032631315 -0.12313182 -0.21729504 0.029856777 0.055010002 0.14461264 -0.038161166 0.019454526
0.09240411 0.025662346 -0.08834126 0.016212778 -0.11459269 0.039086968 0.049798004 -0.18436585
-0.074186705 -0.01774109 -0.14257047 -0.08220934 0.13466947 0.03312763 0.20249741 -0.025619207
-0.20799851 0.023162996 0.18197459 0.15857665 0.02117647 0.20946734 -0.042520594 -0.106040746
0.06520767 0.04607092 -0.032927785 0.22292286 -0.19474493 -0.1219062 0.07482724 0.025649019
0.017879156 0.023188377 -0.029984575 0.52852166 0.0053579384 0.13882844 -0.008069313 0.04749038
0.05148197 -0.13241401 0.39067632 0.008174177 0.13029514 0.09302425 -0.0854823 0.19014406
-0.039131418 0.014555637 0.21833724 0.19853154 0.05643226 -0.098945096 0.27474362 -0.018431662
0.24882059 0.17764218 0.11003161 0.12329058 0.3799265 0.21822588 0.08190942 0.3280071
0.16154021 0.14603896 0.05641191 0.3267626 0.33591592 0.0742112 0.15781195 0.07852736
-0.13159181 -0.06348806 -0.0756675 0.20775789 0.12440507 0.102325626 0.15132093 -0.09312499
0.19718336 0.6164252 0.104294665 0.14246894 0.07764644 -0.0036660687 0.01200685 0.042956248
0.06385583 0.038119443 -0.15610175 -0.20026673 0.13909063 0.053341076 0.13970174 0.001523947
-0.08914226 0.14997917 -0.06936493 -0.11435435 -0.0458277 -0.053535447 0.13577634 -0.09579497
0.12466489 0.00074654043 0.07755099 -0.044969693 0.08552613 0.09553146 0.016818209 0.09940729
-0.027279157 0.05662046 -0.050905127 -0.12460231 -0.1373439 0.061500024 0.16262256 0.15409766
0.12763059 -0.15005147 0.034785446 -0.19198348 0.20154451 -0.010605684 -0.103092656 0.08488756
0.04011013 0.023107568 0.0011405988 0.10979261 0.029398946 -0.027185854 0.06269779 0.03290924
-0.0814205 0.0011298972 -0.018287485 -0.020063419 -0.20946771 0.07460763 -0.1828173 0.11054255
0.0521967 0.04748433 0.033892266 -0.10161696 0.24366489 0.048085865 0.11516206 -0.023708755
-0.056277674 -0.09778465 0.087844774 -0.15896824 -0.05614672 -0.04408171 0.013452009 -0.05564838
0.2012577 0.023678638 0.004362798 0.18312569 0.19918028 -0.1591111 -0.047832403 0.0012268457
-0.17333786 0.002394596 0.25642717 0.09680218 0.19153537 0.057507694 -0.0019431371 -0.12978855
-0.019502372 0.034205448 0.14578782 0.07321518 -0.21773529 0.17606938 -0.060499087 0.045144264
-0.16719887 0.06560952 0.02172272 0.019139731 -0.15221672 -0.01724469 -0.003478771 0.011534242
0.15788151 -0.00622083 0.109198764 0.110868804 0.0065399674 0.37277558 -0.08338745 0.2262558
-0.041549306 0.15729423 0.1532543 0.2442026 0.0058682226 -0.07357862 0.06431249 0.14275433
0.16061328 0.20666198 0.11507303 -0.07338512 0.15623616 0.0381981 -0.14194879 0.15352559
0.139796 -0.01486638 -0.03597669 0.4252546 -0.13277264 0.30815166 -0.014790809 -0.028186642
00000000: 6a46 58bd 511d 083e cf6c 013e 6bc7 a03d
00000010: ba52 b0bd 5dc3 acbc 52a0 213d cfdd e9bc
00000020: 24c8 2c3e f0ec bd3d ba84 67bd 2499 e43d
00000030: c789 ee3d db3d b2bd bfbf b03e a450 073c
00000040: db52 c1bd 741c c13c 7f56 b4bd 892c 653d
00000050: 372a 4fbe 1ac6 15bd 22ea e3bd 0f08 453d
00000060: 6aa8 05bd 892c fcbd 9782 5ebe 3396 f43c
00000070: 2b52 613d 5615 143e e24e 1cbd 195f 9f3c
00000080: 5e3e bd3d d739 d23c 43ec b4bd a9d0 843c
00000090: 92af eabd a819 203d fef8 4b3d 67ca 3cbe
000000a0: 33ef 97bd c355 91bc fefd 11be 5f5d a8bd
000000b0: cbe6 093e d6b0 073d 7b5b 4f3e 5fdf d1bc
000000c0: 90fd 54be 53c0 bd3c 8c57 3a3e eb61 223e
000000d0: 477a ad3c 9b7e 563e 132a 2ebd e42b d9bd
000000e0: 998b 853d dcb4 3c3d 49df 06bd e445 643e
000000f0: 376b 47be f5a9 f9bd 063f 993d e41d d23c
00000100: 4f77 923c 8df5 bd3c 36a2 f5bc 324d 073f
00000110: a591 af3b 0b29 0e3e 2735 04bc 4685 423d
00000120: c2de 523d 8a97 07be ba06 c83e fcec 053c
00000130: 176c 053e 7f83 be3d 5811 afbd 20b5 423e
00000140: 4448 20bd c47a 6e3c cc93 5f3e da4b 4b3e
00000150: 8325 673d baa3 cabd 32ab 8c3e fffd 96bc
00000160: d3ca 7e3e d5e7 353e 4158 e13d c67f fc3d
00000170: ba85 c23e 9b76 5f3e 20c0 a73d 8cf0 a73e
00000180: cc6a 253e 3d8b 153e 2d10 673d 6d4d a73e
00000190: 2cfd ab3e 0bfc 973d 7599 213e f4d2 a03d
000001a0: 01c0 06be 0706 82bd 90f7 9abd 7cbe 543e
000001b0: 16c8 fe3d 1990 d13d e0f3 1a3e 51b8 bebd
000001c0: 6fea 493e 0bce 1d3f 7198 d53d 61e3 113e
000001d0: 1905 9f3d 6d42 70bb 61b8 443c e4f2 2f3d
000001e0: d8c6 823d 2223 1c3d 23d9 1fbe b912 4dbe
000001f0: c66d 0e3e 2c7c 5a3d f90d 0f3e 2dbf c73a
00000200: 3890 b6bd 2494 193e 330f 8ebd 9d32 eabd
00000210: d4b5 3bbd fc47 5bbd f408 0b3e 2730 c4bd
00000220: 4e50 ff3d 7bb3 433a 0ed3 9e3d 2432 38bd
00000230: 5328 af3d 00a6 c33d 57c6 893c 0d96 cb3d
00000240: 8a78 dfbc dbea 673d e581 50bd 7f2f ffbd
00000250: e1a3 0cbe 73e7 7b3d 8786 263e c7cb 1d3e
00000260: 98b1 023e 18a7 19be 2f7b 0e3d 5197 44be
00000270: af61 4e3e 76c3 2dbc 3e22 d3bd 87d9 ad3d
00000280: 854a 243d 154c bd3c 2580 953a f3da e03d
00000290: 0fd6 f03c deb4 debc b367 803d d7cb 063d
000002a0: cbbf a6bd 0f19 943a a3cf 95bc 0a5c a4bc
000002b0: b47e 56be e3cb 983d 7534 3bbe 2264 e23d
000002c0: 35cc 553d ee7e 423d 9ed2 0a3d 8d1c d0bd
000002d0: 4a83 793e aff5 443d 16da eb3d dd38 c2bc
000002e0: 6b83 66bd 5243 c8bd f6e7 b33d 92c8 22be
000002f0: 1afa 65bd 068f 34bd d165 5c3c 8eef 63bd
00000300: 8016 4e3e b4f9 c13c cdf5 8e3b 4d85 3b3e
00000310: eaf5 4b3e 05ee 22be e9eb 43bd 1cce a03a
00000320: 7b7f 31be a8ee 1c3b 6c4a 833e 3940 c63d
00000330: d921 443e 308d 6b3d ddb0 feba 4ae7 04be
00000340: 70c3 9fbc 031b 0c3d 6749 153e d7f1 953d
00000350: 00f6 5ebe 884b 343e e4cd 77bd 31e9 383d
00000360: 2e36 2bbe 495e 863d d8f3 b13c edca 9c3c
00000370: b3de 1bbe bc44 8dbc 18fc 63bb 1efa 3c3c
00000380: b1ab 213e 1bd8 cbbb 9aa3 df3d 2f0f e33d
00000390: 394d d63b 71dc be3e 0ac7 aabd 9aaf 673e
000003a0: 9b2f 2abd bd11 213e b2ee 1c3e 3f10 7a3e
000003b0: 384a c03b 63b0 96bd 44b6 833d 312e 123e
000003c0: cf77 243e 339f 533e 69ab eb3d f04a 96bd
000003d0: 5ffc 1f3e 9c75 1c3d 065b 11be d035 1d3e
000003e0: af26 0f3e 1e92 73bc 4b5c 13bd f9ba d93e
000003f0: 8df5 07be 0ec6 9d3e 2655 72bc ace7 e6bc

lstm.bias_hh_l1 f4 [256]
-0.063596636 0.063309774 0.085939735 0.028565016 -0.22982918 -0.010662777 0.046572436 -0.051641103
0.16313827 0.033839025 0.10492932 0.11047999 0.14762168 0.04162696 0.29845557 -0.019797547
0.090402596 -0.077551745 -0.04004565 -0.14420928 -0.15636176 0.17300984 0.020324847 -0.07801137
-0.06413462 -0.118221566 -0.04053537 -0.03619569 0.06840453 0.059072014 -0.06459312 -0.09819973
0.17392714 -0.13677813 -0.12254808 -0.18123539 -0.19581726 0.072131686 -0.00020920092 -0.008227227
-0.08546245 0.0066425316 -0.082859874 -0.007660704 0.20454507 -0.024935612 0.17890678 0.03233389
-0.064009376 -0.053733326 -0.021479722 0.17811139 0.06603068 0.11964851 0.011955389 -0.07061963
0.13931826 0.15271121 0.13181856 0.32793322 0.008094468 -0.124861784 -0.013351431 -0.054182515
-0.13347864 -0.0056025162 0.020738859 0.3616337 0.16842379 0.1713778 -0.008689504 0.0008335852
-0.12437265 0.0011555534 0.5519634 -0.051024087 0.110878624 -0.069467925 -0.039359335 0.18366604
0.08320829 -0.036408197 0.2335818 0.1988498 0.11167417 -0.12909974 0.32644194 0.13191041
0.2848994 0.11831558 -0.0041068997 0.10643114 0.3857078 -0.0027833947 0.050756235 0.29025602
-0.014403919 0.30137387 -0.10508399 0.2755636 0.17543703 0.11344327 0.17362735 0.106706
-0.015907425 -0.048690096 -0.19165896 0.06141982 -0.016308263 0.10281575 0.2929271 -0.074316725
-0.0063990816 0.43958703 -0.058878273 0.13030438 0.06275929 -0.07599771 -0.11642459 -0.06812273
0.09625819 0.0034406253 -0.120661534 -0.0831795 0.12511662 0.26269665 0.09472307 0.012770271
-0.103615195 -0.030005181 -0.08534586 0.0345417 0.09679781 0.13996468 -0.056547735 -0.08729893
0.16312267 -0.14512596 -0.15581894 -0.17544197 0.019936971 0.12002225 -0.042219736 -0.097394444
-0.05393025 0.1380072 0.037807096 -0.14429432 -0.023385383 0.009442577 -0.0032968135 0.06207002
0.11159045 -0.057796106 -0.10213047 -0.08213913 0.11806774 -0.0067012412 -0.046070304 0.118640654
-0.089008026 0.034523275 -0.11082084 0.050425768 0.10001757 0.052291315 0.03718306 -0.008032856
-0.11460923 -0.03757531 0.063747115 0.05799391 -0.063565396 0.09516741 -0.2690696 -0.054410435
-0.045842215 0.025109272 -0.00096160115 -0.12023729 0.19898048 -0.005009871 0.15673478 0.038728442
-0.086208 0.01609459 0.0849514 0.03062886 -0.014008547 0.15106244 0.13083898 0.012852766
0.27724078 0.078327 0.22858989 0.25593564 0.21278737 -0.06956264 0.13828869 -0.08160727
-0.0073003187 0.20755838 0.08905302 -0.029455172 0.23696895 0.06375005 0.12766114 -0.15017937
-0.2172165 0.07766041 0.13778153 0.18741445 -0.15297794 0.096301764 -0.19449957 0.016313603
-0.15953426 0.09704099 0.113206156 0.04589343 0.07079362 0.01394041 0.040914677 -0.012946302
0.19192901 -0.1087713 0.13263652 0.05879573 -0.025547385 0.18990132 0.0020364034 0.047828007
-0.13807617 0.22821417 0.26906678 0.19928007 -0.09464202 -0.09760396 0.014243331 0.13179524
0.077313796 0.13945058 -0.002034126 -0.15012977 0.063525006 0.21234132 -0.15582849 0.09526157
0.16375087 0.005851586 0.13545924 0.41197804 0.06455122 0.22151211 -0.05061233 0.06153759
00000000: f43e 82bd 8ea8 813d 2c01 b03d 2e01 ea3c
00000010: 5758 6bbe eeb2 2ebc bdc2 3e3d 9f85 53bd
00000020: b80d 273e ca9a 0a3d 2fe5 d63d 5543 e23d
00000030: 232a 173e 0881 2a3d 2bcf 983e 772e a2bc
00000040: ff24 b93d 73d3 9ebd e806 24bd 99ab 13be
00000050: 4c1d 20be 7e29 313e 4b80 a63c 6dc4 9fbd
00000060: 0359 83bd 261e f2bd 6b08 26bd ef41 14bd
00000070: ad17 8c3d 7ff5 713d 6649 84bd f11c c9bd
00000080: f519 323e 910f 0cbe 7dfa fabd c595 39be
00000090: 5284 48be c7b9 933d f25c 5bb9 7ecb 06bc
000000a0: f006 afbd 98a9 d93b 70b2 a9bd a506 fbbb
000000b0: 4374 513e c545 ccbc 5733 373e 8b70 043d
000000c0: 5917 83bd 7a17 5cbd 3ef6 afbc d562 363e
000000d0: 183b 873d 470a f53d 89e0 433c 06a1 90bd
000000e0: 72a9 0e3e 5460 1c3e 72fb 063e dde6 a73e
000000f0: a99e 043c 89b7 ffbd f6bf 5abc 7cee 5dbd
00000100: a0ae 08be 5095 b7bb 8ae4 a93c 0d28 b93e
00000110: 4977 2c3e a97d 2f3e 6c5e 0ebc f584 5a3a
00000120: 17b7 febd f075 973a 794d 0d3f a2fe 50bd
00000130: 5514 e33d 3345 8ebd 4137 21bd f312 3c3e
00000140: 1c69 aa3d c320 15bd 1130 6f3e 489f 4b3e
00000150: 6db5 e43d b932 04be 6623 a73e 8613 073e
00000160: 56de 913e 704f f23d 2c93 86bb 92f8 d93d
00000170: 7e7b c53e 9d69 36bb c5e5 4f3d 709c 943e
00000180: 6afe 6bbc ad4d 9a3e 4636 d7bd ac16 8d3e
00000190: c4a5 333e f254 e83d 5ecb 313e ad88 da3d
000001a0: 4a50 82bc 446f 47bd 3f42 44be 5993 7b3d
000001b0: e898 85bc 1091 d23d 8afa 953e 5e33 98bd
000001c0: 63af d1bb 8d11 e13e 582a 71bd 836e 053e
000001d0: f187 803d b0a4 9bbd 0470 eebd ee83 8bbd
000001e0: 0423 c53d 1d7c 613b 651d f7bd 045a aabd
000001f0: 921e 003e 2d80 863e 2bfe c13d 663a 513c
00000200: 3434 d4bd 6dcd f5bc cfc9 aebd 997b 0d3d
00000210: ee3d c63d e752 0f3e 999e 67bd c8c9 b2bd
00000220: a109 273e e69b 14be 008f 1fbe 0fa7 33be
00000230: dc52 a33c 3ace f53d 9aee 2cbd bd76 c7bd
00000240: f7e5 5cbd c251 0d3e 9ddb 1a3d e4c1 13be
00000250: b492 bfbc 0ab5 1a3c 5a0f 58bb 223d 7e3d
00000260: 8989 e43d 9cbb 6cbd c829 d1bd 8f38 a8bd
00000270: 80cd f13d 1696 dbbb 37b4 3cbd dff9 f23d
00000280: d749 b6bd 4768 0d3d 09f6 e2bd 408b 4e3d
00000290: 03d6 cc3d 6b2f 563d 444d 183d 3d9c 03bc
000002a0: 3eb8 eabd 91e8 19bd d98d 823d 068b 6d3d
000002b0: 932e 82bd 22e7 c23d 7ec3 89be 7add 5ebd
000002c0: 0cc5 3bbd f6b1 cd3c f613 7cba f83e f6bd
000002d0: 8ac1 4b3e d829 a4bb 157f 203e b7a1 1e3d
000002e0: d28d b0bd cdd8 833c 00fb ad3d 60e9 fa3c
000002f0: 1b84 65bc 1db0 1a3e a7fa 053e 6894 523c
00000300: 81f2 8d3e e869 a03d 7813 6a3e ff09 833e
00000310: efe4 593e db76 8ebd 8d9b 0d3e b621 a7bd
00000320: 8337 efbb 2f8a 543e 6e61 b63d f94b f1bc
00000330: fda7 723e 638f 823d 9ab9 023e 9fc8 19be
00000340: 016e 5ebe 6c0c 9f3d 9a16 0d3e 93e9 3f3e
00000350: 40a6 1cbe dc39 c53d e52a 47be 1ba4 853c
00000360: f35c 23be 6dbd c63d a1d8 e73d c0fa 3b3d
00000370: 3ffc 903d 5166 643c 2696 273d ba1c 54bc
00000380: 0a89 443e 7dc3 debd ded1 073e cbd3 703d
00000390: c048 d1bc 7e75 423e 2e75 053b 4de7 433d
000003a0: d763 0dbe fab0 693e 1fc3 893e 1310 4c3e
000003b0: add3 c1bd 96e4 c7bd dc5c 693c 55f5 063e
000003c0: b256 9e3d 22cc 0e3e f94e 05bb 9ebb 19be
000003d0: 6619 823d 0170 593e 8191 1fbe 7f18 c33d
000003e0: 4fae 273e a9be bf3b d4b5 0a3e c9ee d23e
000003f0: 6e33 843d 12d4 623e e04e 4fbd d70e 7c3d
