models/v2/LSTM_xy_epoch_40_h-h_8-12_pt1_pf1.2.pth (torch, 340198 bytes, 14 tensors)

lstm.weight_ih_l0 f4 [256, 2]
0.55101377 -0.30957788 0.39139804 0.250134 -0.09196831 0.12459029 0.11676689 -0.15673183
0.61122847 -0.3028015 -0.40737328 -0.12509893 0.20356613 0.032440927 -0.2504016 0.1718433
0.49557483 -0.7115914 0.0060830377 0.012022863 0.1077328 -0.088815674 0.17024997 0.13118756
0.057463195 -0.052230585 0.6991487 -0.21288429 0.58880687 -0.63374084 0.090819456 -0.16319883
-0.12513289 0.077567615 0.6056195 -0.21878487 0.6602582 -0.27851272 -0.13298413 0.08124547
0.3855127 0.15785721 -0.09491198 0.17455405 0.59537196 -0.5088749 0.1604914 0.20909564
0.15463603 0.08391758 -0.07544088 0.13915236 0.0631278 0.2670985 0.56749296 -0.3654605
0.045049842 0.35783756 0.6628167 -0.32246852 0.59885347 -0.47672513 0.58900374 -0.33848998
-0.12859386 0.11554705 0.105347775 0.0131844245 0.58550924 -0.30084932 -0.22140698 -0.3164707
0.20115542 -0.29791358 0.08955146 -0.03000537 0.37335715 -0.54336727 0.30865496 -0.64628553
-0.1485911 0.110725395 0.60143936 -0.28152832 0.5171723 -0.56914175 0.30020404 -0.5168915
0.30516374 -0.49830407 -0.129974 0.11719469 0.027472457 -0.08994929 0.044900987 0.03418196
0.25240698 0.4239751 -0.08319176 0.09229142 0.08358169 -0.052317537 0.6230333 -0.44955415
0.24696271 0.26373 -0.19977494 0.088949226 0.4365867 -0.16521236 0.5243769 -0.43064284
0.51079535 -0.55571145 -0.11092913 0.1719724 -0.173813 -0.019430613 0.63208055 -0.5018883
0.6223731 -0.2561392 -0.11044626 -0.59655005 0.23836349 0.12108933 -0.08549763 0.1475344
0.4825212 -0.3181233 -0.36580798 0.3671984 0.36564797 -0.2717637 0.09737702 -0.06619163
0.28216273 -0.2568496 0.3016058 -0.354001 -0.31751922 0.2924243 0.19975352 -0.20098111
0.4127974 -0.4089439 0.08820122 -0.14524065 0.09629035 -0.4974002 0.19156896 0.11219573
0.4999519 -0.309454 -0.20428692 -0.42888683 0.35927004 -0.37262017 0.24952039 -0.13905013
-0.14644468 0.08848284 -0.06822787 0.038283274 0.35102373 -0.36399147 -0.1618166 0.103021786
-0.34836477 -0.07497069 -0.12459118 0.146639 0.1721693 -0.2288158 0.17104836 -0.29820704
0.070972346 -0.13042158 -0.12731479 0.16472164 0.46131846 -0.43696404 -0.24626057 -0.14633738
-0.09431861 0.54990137 0.47379053 -0.26438126 0.28278783 -0.24800263 0.11160669 -0.14673968
0.34671944 -0.38210934 0.23820384 0.2642505 0.38082176 -0.21760373 0.38778934 -0.30156276
0.41539943 -0.36689696 0.48752514 -0.2656932 -0.45722046 0.09469379 -0.17448707 -0.09155483
0.21686791 -0.083054684 0.5010527 -0.21883291 0.5186177 -0.18196785 0.07871368 -0.12973785
0.38768855 -0.49072513 0.47062337 -0.36436015 0.22194892 -0.28099066 0.33449084 -0.39613068
0.08808299 0.623039 0.42879835 -0.100328766 0.41771722 -0.3584723 0.34438232 -0.3098712
0.39724094 0.08602192 0.48510236 -0.42612305 -0.20666713 0.25798997 0.36392775 -0.3506767
-0.45073882 0.056901995 0.40540493 -0.36635578 0.4109942 -0.24318273 -0.39355782 0.16219074
0.38184434 -0.27408013 -0.14901794 -0.24693984 0.17503886 0.050022498 -0.0698253 0.7697487
00000000: 3d0f 0d3f fe80 9ebe 5365 c83e 9011 803e
00000010: e259 bcbd 3229 ff3d 7b23 ef3d 4f7e 20be
00000020: 7879 1c3f cc08 9bbe 3b93 d0be ef19 00be
00000030: a473 503e c7e0 043d a334 80be b1f7 2f3e
00000040: fcbb fd3e db2a 36bf 3854 c73b 8bfb 443c
00000050: 04a3 dc3d fee4 b5bd 0256 2e3e 0856 063e
00000060: 875e 6b3d bdef 55bd 69fb 323f 57fe 59be
00000070: 0cbc 163f d73c 22bf 8dff b93d 981d 27be
00000080: d622 00be c5db 9e3d e109 1b3f 2409 60be
00000090: ae06 293f 3899 8ebe fe2c 08be 0664 a63d
000000a0: ec61 c53e 52a5 213e 3661 c2bd 4cbe 323e
000000b0: 4c6a 183f a045 02bf dc57 243e 2b1d 563e
000000c0: e858 1e3e fbdc ab3d c080 9abd f57d 0e3e
000000d0: 2649 813d 22c1 883e 3847 113f a31d bbbe
000000e0: 2f86 383d 7c36 b73e 5bae 293f 981a a5be
000000f0: 764e 193f 5115 f4be f3c8 163f 8f4e adbe
00000100: 1cae 03be efa3 ec3d 93c0 d73d 7c03 583c
00000110: efe3 153f ec08 9abe 83b8 62be 7308 a2be
00000120: b0fb 4d3e 2188 98be c266 b73d d2cd f5bc
00000130: ab28 bf3e 1e1a 0bbf 0608 9e3e f872 25bf
00000140: 4428 18be ffc3 e23d eef7 193f 7b24 90be
00000150: 6765 043f 46b3 11bf 58b4 993e 0053 04bf
00000160: 6c3e 9c3e b621 ffbe e717 05be c503 f03d
00000170: eb0d e13c 5537 b8bd 19ea 373d 6202 0c3d
00000180: 7d3b 813e 4413 d93e 7160 aabd 4903 bd3d
00000190: e12c ab3d ea4a 56bd 1c7f 1f3f f62b e6be
000001a0: cbe3 7c3e 9e07 873e cd91 4cbe 032b b63d
000001b0: 4b88 df3e 6e2d 29be 913d 063f 387d dcbe
000001c0: 7cc3 023f 1b43 0ebf d02e e3bd 8819 303e
000001d0: 09fc 31be f32c 9fbc 08d0 213f c07b 00bf
000001e0: d853 1f3f ad24 83be a631 e2bd 81b7 18bf
000001f0: 8f15 743e affd f73d 6219 afbd 4213 173e
00000200: 050d f73e 0fe1 a2be 2f4b bbbe 6e01 bc3e
00000210: 3636 bb3e 9d24 8bbe 9a6d c73d 7a8f 87bd
00000220: a277 903e ca81 83be 136c 9a3e 9e3f b5be
00000230: e191 a2be a3b8 953e 308c 4c3e fecd 4dbe
00000240: 2e5a d33e 1861 d1be d7a2 b43d f7b9 14be
00000250: e033 c53d 3dab febe a72a 443e e0c6 e53d
00000260: b2f9 ff3e c170 9ebe 9730 51be 0e97 dbbe
00000270: 3ef2 b73e 12c8 bebe 4682 7f3e 2863 0ebe
00000280: 98f5 15be 7e36 b53d 0ebb 8bbd ecce 1c3d
00000290: 62b9 b33e 175d babe 40b3 25be 16fd d23d
000002a0: de5c b2be 3c8a 99bd a929 ffbd 8928 163e
000002b0: 264d 303e b04e 6abe 4d27 2f3e 98ae 98be
000002c0: f359 913d 3c8d 05be cf5e 02be caac 283e
000002d0: ef31 ec3e c0b9 dfbe bb2b 7cbe 77d9 15be
000002e0: 1e2a c1bd 56c6 0c3f ac94 f23e fb5c 87be
000002f0: 91c9 903e 67f4 7dbe 0c92 e43d ed42 16be
00000300: 3685 b13e d6a3 c3be b5eb 733e d74b 873e
00000310: 12fb c23e 83d3 5ebe 538c c63e 6f66 9abe
00000320: 3caf d43e ebd9 bbbe e59c f93e f008 88be
00000330: cd18 eabe d1ee c13d bdac 32be 1981 bbbd
00000340: 9f12 5e3e 9318 aabd fd44 003f bc15 60be
00000350: 21c4 043f c855 3abe a334 a13d 00da 04be
00000360: 1d7f c63e 5340 fbbe 8cf5 f03e 6a8d babe
00000370: 9446 633e 02de 8fbe 6242 ab3e a4d1 cabe
00000380: db64 b43d 7c7f 1f3f 758b db3e 2b79 cdbd
00000390: 08df d53e ae89 b7be e152 b03e 70a7 9ebe
000003a0: 2a63 cb3e 432c b03d 565f f83e cd2c dabe
000003b0: 8ca0 53be 4317 843e bd54 ba3e e58b b3be
000003c0: 3dc7 e6be 1112 693d 3c91 cf3e fc92 bbbe
000003d0: d56d d23e e504 79be 6980 c9be 5415 263e
000003e0: 1a81 c33e 3b54 8cbe 2998 18be ccdd 7cbe
000003f0: 633d 333e 64e4 4c3d 9100 8fbd 400e 453f

lstm.weight_hh_l0 f4 [256, 64]
0.553741 -0.33636692 0.610142 0.27077958 -0.45766997 -0.32273844 -0.080859624 0.29174843
-0.6352702 0.45474786 -0.25701624 -0.37585717 0.37678674 0.26423964 -0.3830925 -0.35016873
-0.48357943 0.39169535 -0.5020249 -0.4183512 -0.11848954 -0.4704158 -0.59576446 0.32208395
-0.43696615 -0.6649699 -0.54969966 -0.21772495 -0.27511284 -0.3271477 -0.5294965 -0.61308247
0.2490385 0.3264365 0.19134247 0.31312218 0.3754286 -0.26441994 -0.32533112 -0.21241532
-0.3744622 0.23827538 -0.4465266 -0.48863766 -0.06369936 0.4744843 0.3832612 0.025647229
0.21186134 0.1862108 -0.23172972 -0.4803124 -0.4224822 0.25936544 -0.03551355 -0.23676288
-0.3543005 -0.8908669 0.06114564 -0.23432857 0.58604455 0.3881244 0.3211895 -0.6354769
0.063324355 0.14563385 -0.68911916 -0.052402172 -0.17708981 0.018520948 -0.1821418 0.11142283
0.03377208 0.13023001 -0.04177659 -0.1514813 0.47299385 0.023373969 2.255144 0.2231215
0.08158255 -0.10162259 0.05508468 0.12687965 -0.20942096 0.14663072 0.1037488 -1.6545621
-0.14213322 -0.09467182 1.2173896 0.05266059 0.7684294 -0.1181981 0.060711995 0.20662236
0.31670892 -1.5724288 0.12024915 -0.055197343 0.0816227 -0.050798632 -0.09182659 -0.05085776
0.31772402 0.208165 0.07412533 0.050025206 0.012907313 -0.0058616395 0.073087454 0.43612558
-0.13419947 -0.44540614 0.15691656 -0.1188339 1.1030586 0.42594177 -0.016820237 0.392874
-0.017661251 0.62546015 -0.096136 -0.24373084 0.13203532 0.14146191 0.4878899 0.04470077
-0.13539757 0.24988998 -0.43046397 -0.11037107 0.02255312 0.19036664 0.6187328 -0.8442221
-0.23019442 0.24172689 -0.09510579 -0.11817011 0.57442003 -0.3882045 -0.16828288 0.0056132167
-0.17526695 0.058067285 -0.2487314 -0.16113454 0.12854458 0.004864275 -0.38421217 -0.036741115
0.07228838 -0.42164698 0.38730013 -0.3349201 -0.14968923 -0.25367934 -0.20011659 -0.22400473
0.17562473 0.20986906 0.106029525 -0.06516558 -0.016657079 -1.4446455 -0.028849788 -0.30268675
0.21288665 0.005261618 -0.4571048 -0.56683207 0.085600436 0.10306517 0.44459236 0.13667138
0.48715442 0.049756706 -1.2114838 -0.32239264 -0.06449957 0.5048169 -0.2720215 -0.7606491
0.13121758 -0.053757627 -0.03332598 0.11927706 0.26852277 -0.1679675 0.24543561 -0.35428143
0.24650784 0.023453506 0.7441829 -0.13298976 0.10480363 0.14506952 0.45490688 -0.067206934
-0.34878606 -0.10235739 0.77530223 0.35807577 -0.2932776 -0.4235013 0.102005884 0.22254544
-0.26647717 0.22412229 -0.1523617 -0.2795683 0.26957077 -0.18804568 -0.22114053 -0.5920417
0.18921942 0.007340745 -0.203931 0.45685238 -0.11702158 -0.17864941 -0.17977919 -0.2351656
0.6817076 -0.57230073 -0.34346542 0.3231461 -0.071390435 0.882405 0.09049722 0.0017741615
-0.73837155 0.18090144 -0.11213113 0.30475873 -0.23599957 -0.012125175 -0.26987338 -0.1629726
-0.43193987 -0.33847302 1.4044031 -0.3994102 0.39760596 -0.8601903 -0.08943319 0.3008006
-0.08379583 -0.41748807 -0.0912718 0.10916767 0.11251522 -0.09198124 -0.4291458 -0.027664272
00000000: f8c1 0d3f 4938 acbe 4432 1c3f 9fa3 8a3e
00000010: b853 eabe f93d a5be bb99 a5bd 0d60 953e
00000020: 11a1 22bf b6d4 e83e a297 83be 5a70 c0be
00000030: 31ea c03e 6b4a 873e b324 c4be 5149 b3be
00000040: b997 f7be 4b8c c83e b484 00bf 2132 d6be
00000050: a5aa f2bd 57da f0be 0584 18bf 30e8 a43e
00000060: 07ba dfbe 783b 2abf 1eb9 0cbf 4af3 5ebe
00000070: 97db 8cbe e77f a7be 158d 07bf f9f2 1cbf
00000080: f303 7f3e af22 a73e 48ef 433e 8d51 a03e
00000090: 2d38 c03e 0d62 87be cd91 a6be 6783 59be
000000a0: 82b9 bfbe 76fe 733e 229f e4be b72e fabe
000000b0: cf74 82bd 9bef f23e d03a c43e 231a d23c
000000c0: 2ef2 583e 0bae 3e3e 8e4a 6dbe 82eb f5be
000000d0: 964f d8be 8ccb 843e a876 11bd f871 72be
000000e0: e066 b5be da0f 64bf da73 7a3d d4f3 6fbe
000000f0: 0407 163f 3eb8 c63e f372 a43e 9dae 22bf
00000100: 33b0 813d 0a21 153e 1d6a 30bf a9a3 56bd
00000110: 0857 35be 3eb9 973c 6183 3abe a731 e43d
00000120: 9854 0a3d 045b 053e ee1d 2bbd ea1d 1bbe
00000130: 402c f23e c47a bf3c 4754 1040 f679 643e
00000140: c114 a73d 811f d0bd 79a0 613d bdec 013e
00000150: 7372 56be 5d26 163e 407a d43d b1c8 d3bf
00000160: 5f8b 11be 4de3 c1bd 6cd3 9b3f a1b2 573d
00000170: cab7 443f d811 f2bd 24ad 783d d094 533e
00000180: ac27 a23e 5945 c9bf 3045 f63d 9c16 62bd
00000190: cd29 a73d 3a12 50bd 940f bcbd 3a50 50bd
000001a0: b9ac a23e 3529 553e 05cf 973d 3be7 4c3d
000001b0: 3279 533c ff12 c0bb e0ae 953d da4b df3e
000001c0: 966b 09be 460c e4be bcae 203e 305f f3bd
000001d0: 0631 8d3f 0a15 da3e 98ca 89bc c826 c93e
000001e0: 54ae 90bc 281e 203f f3e2 c4bd 9494 79be
000001f0: 4434 073e 64db 103e b4cc f93e 2818 373d
00000200: a9a5 0abe 29e3 7f3e c665 dcbe 3a0a e2bd
00000210: 52c1 b83c 79ef 423e 4665 1e3f f11e 58bf
00000220: 16b8 6bbe 4187 773e d3c6 c2bd 2c03 f2bd
00000230: 310d 133f bdc2 c6be 5952 2cbe 13ef b73b
00000240: 2e79 33be f6d7 6d3d 72b3 7ebe 7400 25be
00000250: 31a1 033e 7f64 9f3b 75b7 c4be da7d 16bd
00000260: ee0b 943d 1de2 d7be 344c c63e a67a abbe
00000270: 2248 19be 42e2 81be 5deb 4cbe 7f61 65be
00000280: f8d6 333e eae7 563e 0226 d93d 8875 85bd
00000290: 6d74 88bc 25ea b8bf 6456 ecbc c2f9 9abe
000002a0: f5fe 593e a769 ac3b a409 eabe e81b 11bf
000002b0: 484f af3d d513 d33d 9ca1 e33e 95f3 0b3e
000002c0: 4e6c f93e b0cd 4b3d e711 9bbf a610 a5be
000002d0: 5a18 84bd ae3b 013f 6746 8bbe e6b9 42bf
000002e0: e75d 063e f530 5cbd d380 08bd 8847 f43d
000002f0: d17b 893e acff 2bbe 7953 7b3e 6064 b5be
00000300: 8d6c 7c3e 9121 c03c c582 3e3f 782e 08be
00000310: 49a3 d63d 1b8d 143e 8ee9 e83e caa3 89bd
00000320: 1694 b2be c0a0 d1bd 357a 463f b555 b73e
00000330: 7b28 96be 2ad5 d8be 76e8 d03d f4e2 633e
00000340: b26f 88be 5080 653e b504 1cbe 9423 8fbe
00000350: 2e05 8a3e 0c8f 40be aa72 62be 0b90 17bf
00000360: bcc2 413e a28a f03b 4ad3 50be 8ee8 e93e
00000370: 03a9 efbd dfef 36be 0918 38be 40cf 70be
00000380: 6484 2e3f 4d82 12bf b3da afbe 6873 a53e
00000390: 2635 92bd 4be5 613f 9b56 b93d fb8a e83a
000003a0: eb05 3dbf 3a3e 393e 02a5 e5bd 5609 9c3e
000003b0: dfa9 71be aca8 46bc d82c 8abe 4ae2 26be
000003c0: 3927 ddbe 564c adbe 7bc3 b33f 7e7f ccbe
000003d0: 0293 cb3e 6e35 5cbf c028 b7bd 8902 9a3e
000003e0: 269d abbd ffc0 d5be b6ec babd 4d93 df3d
000003f0: 616e e63d a960 bcbd 00b9 dbbe 2fa0 e2bc

lstm.bias_ih_l0 f4 [256]
0.55642796 0.28447497 0.38719308 -0.2704118 0.14630044 0.036494233 -0.07117696 -1.4408816
0.59624416 -0.6013004 -0.32932097 -0.23920141 -0.106569886 0.08773005 0.017208155 -0.4676971
0.45658973 0.34523118 0.34313145 0.33133602 0.2293792 0.30696943 0.16604075 -0.19495685
0.010184932 0.85507923 -0.365584 0.51950806 0.2916024 0.117056094 0.1728974 0.45952082
0.20349719 -0.58705384 0.15190807 0.021303475 -0.63050073 -0.43012157 0.86163336 0.19993833
-0.82197356 0.40266752 0.65552187 -0.004196459 0.34878558 0.33351675 -0.8158625 -0.6054002
-0.3481392 -0.46059045 -0.25377575 0.18924746 0.7483584 0.15959299 0.18092337 0.33236083
-0.41077486 0.23547013 0.31564078 0.1400568 0.4967573 0.48818687 -0.34618 0.4493042
0.110102005 -0.22259964 0.21288888 -0.2882512 0.22091286 0.27174193 -0.37389097 0.10867678
0.08581189 -0.33955002 -0.30065322 -0.2482626 0.34568998 -0.1602305 0.22593367 0.23476192
0.48276484 0.24803375 0.29619387 0.462272 0.28875306 0.36210817 0.4792404 0.33917978
-0.2266242 0.5468043 0.1430939 0.30607143 0.21117255 0.07762753 0.20690243 0.22018598
0.08930135 -0.28846493 0.18510427 0.17063126 0.16460367 0.22673339 0.065218076 0.24501209
-0.09424992 0.062571846 0.12386546 -0.37208754 -0.0063015884 0.13169256 -0.0435027 0.123376824
-0.027923882 0.14441833 0.4037474 0.16793376 0.04367032 -0.037473395 -0.13572027 0.14390483
0.18888648 0.32042477 0.20870735 0.17677937 0.28781638 0.34935817 -0.5721145 0.13979472
0.044927437 0.5178936 0.1065328 -0.17618197 -0.14554983 -0.082820766 -0.032919317 0.11111025
-0.36569434 0.2233204 0.14523827 0.68642735 -0.86627406 0.30349338 -0.079567626 0.07731069
-0.037393976 0.22435914 -0.07657427 -0.25438958 -0.75887483 -0.025121523 -0.04938309 -0.15935592
0.0483647 0.015049528 -0.27729365 -0.15661296 -0.10247755 -0.0199224 -0.11590381 -0.13876751
0.22246274 -0.029406816 0.1715766 0.14738795 -0.47171485 1.2694206 -0.1809029 -0.12974398
0.007676096 0.1857196 -0.20282324 -0.024634562 0.25524065 -0.02318871 0.027534736 -0.030373385
-0.13325454 0.1207896 1.5070646 -0.019279758 -0.096330196 0.45772865 0.20638871 -0.07096203
0.32352203 0.0049207825 0.05506914 0.10218289 0.17326003 0.10706464 -0.104891375 -0.39056388
0.42850682 0.14423716 0.21807551 -0.62027293 0.04966792 0.15917557 -0.49065024 -0.48459545
0.49149582 0.5083084 0.13294737 -0.4360529 0.5328275 -0.46333638 0.10045856 -0.583852
0.073872864 0.37513575 0.56114405 0.41415274 -0.9399878 0.56511027 0.6483825 0.020429868
0.0029804818 0.1947102 0.23267463 0.37295848 0.3693802 0.67202574 0.53449726 0.24706563
0.04237297 -0.2697571 0.1573767 0.34067506 -0.8572027 -0.075438835 -0.21671808 0.17834882
-0.12739226 0.21859418 0.6065931 -0.11501728 0.033939812 0.11442199 0.015359752 -0.35581827
-0.32709098 -0.8744326 0.06076148 0.5275625 0.36098725 0.07515295 0.34865403 0.2157832
-0.19659357 0.22252715 -0.0037310312 0.4522021 0.583587 -0.1761469 -0.6105061 0.39128825
00000000: 1072 0e3f b4a6 913e 2c3e c63e 6a73 8abe
00000010: c8cf 153e fa7a 153d 3ac5 91bd cf6e b8bf
00000020: 75a3 183f d3ee 19bf c29c a8be 37f1 74be
00000030: 5041 dabd d0ab b33d 1ef8 8c3c ff75 efbe
00000040: 21c6 e93e 24c2 b03e edae af3e e0a4 a93e
00000050: 62e2 6a3e 192b 9d3e 9606 2a3e c5a2 47be
00000060: b3de 263c 79e6 5a3f d32d bbbe 7bfe 043f
00000070: e94c 953e 1bbb ef3d 040c 313e 5046 eb3e
00000080: 9161 503e 2949 16bf ca8d 1b3e a084 ae3c
00000090: 7f68 21bf e538 dcbe 0194 5c3f a2bc 4c3e
000000a0: dc6c 52bf 702a ce3e 48d0 273f 7382 89bb
000000b0: 0694 b23e b5c2 aa3e 5ddc 50bf 82fb 1abf
000000c0: 4d3f b2be 83d2 ebbe e5ee 81be 16ca 413e
000000d0: 6b94 3f3f 586c 233e fa43 393e 332b aa3e
000000e0: 1551 d2be 151f 713e ab9b a13e 0d6b 0f3e
000000f0: f956 fe3e a1f3 f93e 813e b1be 330b e63e
00000100: 297d e13d 29f1 63be 8bff 593e a995 93be
00000110: fb36 623e c221 8b3e a36e bfbe ee91 de3d
00000120: 25be af3d 80d9 adbe 38ef 99be 8d38 7ebe
00000130: 47fe b03e 7713 24be 285b 673e 6e65 703e
00000140: f42c f73e 8ffc 7d3e b9a6 973e eaae ec3e
00000150: 71d7 933e 3e66 b93e ff5e f53e f9a8 ad3e
00000160: 2d10 68be 5efb 0b3f 3587 123e 65b5 9c3e
00000170: 9e3d 583e 2ffb 9e3d 3bde 533e 6f78 613e
00000180: a0e3 b63d adb1 93be f98b 3d3e f6b9 2e3e
00000190: dd8d 283e cc2c 683e 0e91 853d 73e4 7a3e
000001a0: 1a06 c1bd ab25 803d 2dad fd3d 4282 bebe
000001b0: 8e7d cebb 6ada 063e e32f 32bd fdac fc3d
000001c0: a0c0 e4bc 66e2 133e fbb7 ce3e d4f6 2b3e
000001d0: a6df 323d b47d 19bd 41fa 0abe ca5b 133e
000001e0: 756b 413e b70e a43e 61b7 553e a705 353e
000001f0: ab5c 933e 13df b23e 1976 12bf 5926 0f3e
00000200: d505 383d ad94 043f de2d da3d 0c69 34be
00000210: 040b 15be ef9d a9bd 68d6 06bd c58d e33d
00000220: 4a3c bbbe 1aae 643e 57b9 143e b4b9 2f3f
00000230: 23c4 5dbf 7c63 9b3e 5af4 a2bd 1155 9e3d
00000240: 6d2a 19bd 67be 653e f9d2 9cbd 5a3f 82be
00000250: 9f45 42bf a7cb cdbc ec45 4abd 332e 23be
00000260: 101a 463d 4c92 763c 6ff9 8dbe 265f 20be
00000270: c0df d1bd 4d34 a3bc fa5e edbd 1219 0ebe
00000280: 46cd 633e 90e6 f0bc c7b1 2f3e deec 163e
00000290: 9c84 f1be 607c a23f 9c3e 39be 9bdb 04be
000002a0: c387 fb3b 472d 3e3e e5b0 4fbe 6cce c9bc
000002b0: e7ae 823e 40f6 bdbc 8790 e13c 9bd1 f8bc
000002c0: e173 08be 8a60 f73d 7ee7 c03f 95f0 9dbc
000002d0: c448 c5bd 695b ea3e 9057 533e 8a54 91bd
000002e0: aea4 a53e 843e a13b 2e90 613d 4345 d13d
000002f0: 146b 313e b544 db3d 4ad1 d6bd fdf7 c7be
00000300: 3f65 db3e e8b2 133e 304f 5f3e 35ca 1ebf
00000310: 9770 4b3d ecfe 223e 8236 fbbe e51c f8be
00000320: 57a5 fb3e 8020 023f 5b23 083e 5342 dfbe
00000330: 6267 083f 6d3a edbe 38bd cd3d 5377 15bf
00000340: a84a 973d cb11 c03e 23a7 0f3f d40b d43e
00000350: 0aa3 70bf 11ab 103f 65fc 253f 8a5c a73c
00000360: 3054 433b 1c62 473e 4242 6e3e 6af4 be3e
00000370: 671f bd3e e109 2c3f d0d4 083f c6fe 7c3e
00000380: 488f 2d3d 9a1d 8abe 5c27 213e f66c ae3e
00000390: a371 5bbf ad7f 9abd 58eb 5dbe 13a1 363e
000003a0: 1e73 02be 27d7 5f3e af49 1b3f 2e8e ebbd
000003b0: 7904 0b3d 1456 ea3d 78a7 7b3c d02d b6be
000003c0: 7878 a7be d1da 5fbf 08e1 783d 560e 073f
000003d0: 52d3 b83e cae9 993d c882 b23e 45f6 5c3e
000003e0: d34f 49be 28de 633e 5184 74bb 0987 e73e
000003f0: f565 153f da5f 34be 214a 1cbf ef56 c83e

lstm.bias_hh_l0 f4 [256]
0.5413884 0.116083704 0.28352293 -0.13637602 0.010699332 -0.07561359 -0.26805684 -1.3863882
0.43179652 -0.4881271 -0.37681004 -0.15617153 0.006645362 0.10452805 0.19773933 -0.5134609
0.35683075 0.3327263 0.47614992 0.33153844 0.105655335 0.370959 0.20218983 -0.0917008
-0.18300603 0.9950937 -0.45996907 0.45368972 0.3047294 0.06905795 0.1947519 0.42465967
0.18648665 -0.57211584 0.04354758 -0.17673436 -0.4557316 -0.43792856 0.91465145 0.1756526
-0.8363134 0.28277376 0.6399524 0.07373415 0.4484305 0.3279289 -0.95059335 -0.63620377
-0.35731903 -0.47101656 -0.21705896 0.14038967 0.6138014 0.114862636 0.34534237 0.538009
-0.31894004 0.20461935 0.30186856 0.15947233 0.31580773 0.51368666 -0.27411494 0.33598685
0.17838089 -0.13920747 0.38374746 -0.20838231 0.21036115 0.29690975 -0.20187756 0.29047143
0.22277382 -0.398079 -0.35333574 -0.412492 0.28819647 -0.1883192 0.22176798 0.20490924
0.2733679 0.18904446 0.3333434 0.42241135 0.10028768 0.31164408 0.45683905 0.12707455
-0.13402766 0.4444558 0.2718558 0.36786148 0.06020052 0.09870746 0.30792975 0.2787241
0.07181523 -0.15397356 0.14193681 0.31158027 0.034907687 0.21536888 0.09184703 0.17957439
-0.10937622 0.0610475 0.062527426 -0.4611299 0.16111976 0.236836 -0.14935611 0.23894106
-0.21185479 0.07994763 0.18532312 0.26388842 -0.13484368 -0.022491379 -0.051762242 0.14879356
-0.035642266 0.17489088 0.12984912 0.26042923 0.16172962 0.25101757 -0.4914258 0.2635483
0.098061256 0.43386707 0.089089155 -0.20772596 -0.122541174 -0.091815636 0.06096433 0.27323052
-0.19817854 0.106320255 0.05715629 0.6031948 -1.0369098 0.24895701 -0.047679447 0.1937769
0.026562689 0.14515679 -0.05397372 -0.34479994 -0.8246928 -0.05408529 0.0048191086 -0.14096327
0.105963975 -0.1624868 -0.18557654 -0.054565195 -0.117261484 0.07753398 -0.084863566 -0.012426386
0.13711251 0.03324231 0.09007887 -0.024500402 -0.3734612 1.3852392 -0.16398674 0.0005404453
0.061796695 0.009860879 -0.2538222 0.060257293 0.4152839 -0.027021548 0.07726049 -0.016946983
-0.12309626 -0.037807457 1.6963428 -0.088126026 0.05143309 0.6125185 0.19646378 -0.16859609
0.47056538 -0.10298938 0.08910178 -0.05441435 0.14337294 0.21880469 -0.16238926 -0.26791534
0.38831347 0.18562725 0.08471667 -0.533968 0.09035434 0.09650133 -0.39481494 -0.39225292
0.45005688 0.45172432 0.119424835 -0.64089006 0.5080211 -0.47456756 0.16169313 -0.6909518
0.24046747 0.34410432 0.5222847 0.19758111 -0.749362 0.5597242 0.7157334 0.06463767
0.096244715 0.40268326 0.34237885 0.2637636 0.24342403 0.43342948 0.4143635 0.2809937
0.23611699 -0.4867798 0.3498868 0.20953153 -0.6621654 -0.2523985 -0.2297307 0.3180964
-0.14264709 0.16371155 0.682594 -0.06496731 0.069901094 0.14340857 -0.10262855 -0.22118413
-0.52933604 -0.8326698 -0.008892769 0.72864926 0.5592897 0.24227373 0.44910955 0.09464103
-0.2804679 0.17035921 -0.027393604 0.5735454 0.52237135 -0.07790533 -0.7400555 0.3087133
00000000: 6e98 0a3f 4bbd ed3d eb29 913e 28a6 0bbe
00000010: 404c 2f3c 4cdb 9abd bf3e 89be 2b75 b1bf
00000020: 6f14 dd3e cceb f9be 3fed c0be 6eeb 1fbe
00000030: 56c1 d93b cd12 d63d 2e7c 4a3e 2c72 03bf
00000040: 85b2 b63e 1a5b aa3e ecc9 f33e 68bf a93e
00000050: d361 d83d 57ee bd3e da0a 4f3e a1cd bbbd
00000060: ef65 3bbe 76be 7e3f 1181 ebbe 054a e83e
00000070: 7e05 9c3e 416e 8d3d 0b6d 473e fe6c d93e
00000080: 5bf6 3e3e 2f76 12bf f25e 323d daf9 34be
00000090: a755 e9be 2c38 e0be 9926 6a3f 46de 333e
000000a0: a318 56bf b9c7 903e ecd3 233f ee01 973d
000000b0: af98 e53e 4ce6 a73e 165a 73bf 40de 22bf
000000c0: 85f2 b6be 1529 f1be b444 5ebe 4fc2 0f3e
000000d0: 1722 1d3f 1a3d eb3d b7d0 b03e f5ba 093f
000000e0: 1c4c a3be bc87 513e 848e 9a3e b74c 233e
000000f0: 8db1 a13e f880 033f cb58 8cbe 7806 ac3e
00000100: 7ba9 363e 678c 0ebe 8c7a c43e 2c62 55be
00000110: ea68 573e 8e04 983e feb8 4ebe acb8 943e
00000120: d21e 643e 03d1 cbbe 6ce8 b4be 2732 d3be
00000130: 7d8e 933e c0d6 40be 2517 633e bad3 513e
00000140: e1f6 8b3e df94 413e fcab aa3e 4d46 d83e
00000150: a163 cd3d d08f 9f3e cfe6 e93e d51f 023e
00000160: 8c3e 09be b68f e33e af30 8b3e 5758 bc3e
00000170: d294 763d 2327 ca3d f8a8 9d3e edb4 8e3e
00000180: dd13 933d 3fab 1dbe e257 113e 7387 9f3e
00000190: 5dfb 0e3d a989 5c3e 4c1a bc3d 59e2 373e
000001a0: a400 e0bd f20c 7a3d 610e 803d 3819 ecbe
000001b0: 94fc 243e 2385 723e cff0 18be f7ac 743e
000001c0: 76f0 58be 95bb a33d 58c5 3d3e 621c 873e
000001d0: 7614 0abe d73f b8bc a504 54bd 575d 183e
000001e0: a0fd 11bd 9816 333e 2bf7 043e fb56 853e
000001f0: 739c 253e 6085 803e 2a9c fbbe ceef 863e
00000200: 57d4 c83d d323 de3e 6074 b63d 1db6 54be
00000210: def6 fabd d609 bcbd bcb5 793d dfe4 8b3e
00000220: 51ef 4abe 6fbe d93d b71c 6a3d f96a 1a3f
00000230: 76b9 84bf 96ee 7e3e 864b 43bd 746d 463e
00000240: ff99 d93c fba3 143e 8c13 5dbd 9e89 b0be
00000250: 111f 53bf 8988 5dbd 9de9 9d3b ad58 10be
00000260: a403 d93d f162 26be c707 3ebe c17f 5fbd
00000270: ca26 f0bd 23ca 9e3d f3cc adbd 0a98 4bbc
00000280: 3967 0c3e 1729 083d 457b b83d 11b5 c8bc
00000290: 4e36 bfbe 854f b13f 24ec 27be acac 0d3a
000002a0: 881e 7d3d 868f 213c fcf4 81be 5ad0 763d
000002b0: 17a0 d43e 4b5c ddbc bf3a 9e3d 66d4 8abc
000002c0: e419 fcbd fedb 1abd c321 d93f 6b7b b4bd
000002d0: 81ab 523d 03ce 1c3f cd2d 493e 74a4 2cbe
000002e0: f2ed f03e 19ec d2bd fe7a b63d 95e1 5ebd
000002f0: 5bd0 123e 560e 603e 5f49 26be 332c 89be
00000300: 06d1 c63e 1215 3e3e ef7f ad3d 20b2 08bf
00000310: b20b b93d 7da2 c53d 2f25 cabe 60d5 c8be
00000320: db6d e63e 6948 e73e 0295 f43d 5f11 24bf
00000330: ac0d 023f 85fa f2be e292 253e 38e2 30bf
00000340: 1b3d 763e 712e b03e 73b4 053f b452 4a3e
00000350: 30d6 3fbf 164a 0f3f 4e3a 373f c160 843d
00000360: f31b c53d 802c ce3e 484c af3e 060c 873e
00000370: 2644 793e 78ea dd3e 7427 d43e 68de 8f3e
00000380: a7c8 713e 343b f9be 5d24 b33e 6f8f 563e
00000390: ac83 29bf 603a 81be 863e 6bbe 88dd a23e
000003a0: 1412 12be 00a4 273e 7bbe 2e3f 950d 85bd
000003b0: 4e28 8f3d b2d9 123e eb2e d2bd 187e 62be
000003c0: 9182 07bf d929 55bf fab2 11bc c288 3a3f
000003d0: 9c2d 0f3f 9b16 783e b0f1 e53e 28d3 c13d
000003e0: 7d99 8fbe a572 2e3e 8d68 e0bc dfd3 123f
000003f0: 21ba 053f d48c 9fbd 4774 3dbf ab0f 9e3e

lstm.weight_ih_l1 f4 [256, 64]
-0.1038545 0.23455691 -0.1961887 -0.13010104 0.037681416 0.011312572 0.21866989 0.00049649714
-0.24784738 -0.22120103 -0.14112099 0.11935564 -0.30670488 0.0463515 -0.31528082 0.189787
-0.1582785 0.36484116 -0.11919705 -0.048703056 0.15046659 -0.24349877 0.14438242 -0.016901389
-0.052060544 0.008899655 0.08574861 -0.103462115 0.26960486 -0.17173614 -0.13598734 -0.32890254
-0.30774504 -0.22165413 -0.2793309 -0.01934599 -0.12576132 0.32379857 0.17261882 -0.03915339
0.06979903 0.0018926609 0.33296326 0.05536431 -0.022370892 -0.59262246 -0.13977936 -0.15623832
-0.19225958 0.12530322 0.4580772 0.035027895 -0.120658636 0.2599379 -0.06548411 0.22641598
0.21745795 0.47562587 0.15136991 0.15499064 0.07015745 -0.23304132 -0.11362581 -0.04419529
0.34937465 -0.4605004 0.37844574 0.45958075 -0.17403167 0.88201004 -0.14596362 0.28411257
0.047630962 0.18499729 -0.29354522 -0.22109528 -0.10774686 0.26037568 -0.15961654 -0.24114576
-0.14149827 0.1431693 -0.043346435 -0.03542842 -0.30479234 -0.114176154 -0.047970355 0.17327398
-0.0325944 -0.18237947 0.16908284 -0.023864096 -0.40002033 0.19276588 -0.1091009 -0.15771978
0.14514093 0.029165749 0.18588716 0.20116536 0.3073346 0.019702071 -0.37203157 -0.14542903
-0.36809385 0.33145574 -0.378156 -0.37824333 0.027557984 0.26064932 0.13301197 -0.25847867
0.09480763 -0.12977883 0.0096235275 0.14616442 -0.23533686 -0.25166318 0.062276974 -0.08482412
-0.17214717 -0.2833694 0.3409484 -0.24751098 -0.062490374 0.2173347 0.032156907 0.10754582
-0.03341945 0.1823999 0.41871372 -0.22470698 -0.018750852 -0.1532082 0.07445546 0.0007712768
0.07092619 0.13224553 0.06481876 0.079513 0.040967736 0.06988081 0.09294224 0.13215472
-0.15154597 0.03983441 -0.06678849 -0.054664634 0.051249374 -0.10302094 -0.08720918 -0.13302658
-0.16558985 -0.06717076 0.09052427 -0.22364847 -0.13470322 -0.1757034 -0.15409973 -0.107713714
0.03388425 0.11294327 -0.04531899 -0.099825226 -0.0038632213 -0.09267523 0.119510174 -0.0780579
-0.15555386 0.09272642 -0.2713515 0.10633762 0.03117514 0.11837383 0.026226612 0.03252329
-0.04337381 0.16797902 -0.30051383 -0.061203625 -0.023475625 0.15465221 -0.31048197 -0.54568297
0.12632264 -0.13753203 0.10649263 0.06408517 0.00048778413 -0.20874865 -0.21479206 -0.057839572
-0.15140082 -0.15906957 0.14711057 0.19174236 0.05490317 -0.12230948 -0.032144673 0.630443
0.15876465 0.195686 0.30703795 0.23641282 0.34568802 -0.074757226 0.4664338 -0.17696011
0.024522202 0.13055474 0.22004245 0.13847841 0.025470994 -0.08401061 0.5443085 -0.44029656
0.061364878 0.5379289 0.26655063 0.71082366 0.30341673 0.5219063 0.26655716 -0.0031744072
0.027429625 0.06886542 0.09668075 0.1297106 -0.095177226 0.101810895 0.16231295 0.25791997
-0.06467068 0.009917883 0.34673497 -0.049671732 0.079263695 -0.04217671 -0.11862622 -0.14871012
0.37786534 0.52819604 0.06522775 0.51275 -0.0193358 -0.10147642 0.22639708 0.8947537
0.05270691 0.018965928 0.21275693 0.06394706 -0.30932605 0.016673984 -0.030086415 0.06821437
00000000: abb1 d4bd b02f 703e b1e5 48be 3539 05be
00000010: d457 1a3d 5e58 393c 00eb 5f3e 5c27 023a
00000020: b4cb 7dbe 8682 62be 0582 10be bb70 f43d
00000030: 6c08 9dbe 12db 3d3d 7d6c a1be 8657 423e
00000040: c213 22be 76cc ba3e 951d f4bd db7c 47bd
00000050: ea13 1a3e be57 79be fcd8 133e c874 8abc
00000060: 703d 55bd dccf 113c f89c af3d f2e3 d3bd
00000070: a609 8a3e 99db 2fbe 4440 0bbe ea65 a8be
00000080: c290 9dbe 4df9 62be 7604 8fbe 7b7b 9ebc
00000090: 93c7 00be edc8 a53e fdc2 303e 4e5f 20bd
000000a0: cbf2 8e3d 2913 f83a 297a aa3e b0c5 623d
000000b0: 2943 b7bc 1bb6 17bf 5222 0fbe f0fc 1fbe
000000c0: b2df 44be 7d4f 003e 1889 ea3e 6979 0f3d
000000d0: e01b f7bd 9516 853e 881c 86bd 97d9 673e
000000e0: 4cad 5e3e 3c85 f33e b700 1b3e deb5 1e3e
000000f0: b6ae 8f3d 62a2 6ebe a6b4 e8bd 1f06 35bd
00000100: 3ce1 b23e b5c6 ebbe a4c3 c13e 2b4e eb3e
00000110: 5c35 32be 69cb 613f 7d77 15be 3477 913e
00000120: af18 433d ee6f 3d3e 8f4b 96be cd66 62be
00000130: 63aa dcbd f64f 853e 8572 23be eaee 76be
00000140: ece4 10be f99a 123e 088c 31bd 641d 11bd
00000150: be0d 9cbe 30d5 e9bd 907c 44bd bc6e 313e
00000160: b581 05bd afc1 3abe 0d24 2d3e a37e c3bc
00000170: 77cf ccbe 6b64 453e 4b70 dfbd 4b81 21be
00000180: d39f 143e 02ed ee3c 3459 3e3e 4bfe 4d3e
00000190: f65a 9d3e 3d66 a13c ec7a bebe 59eb 14be
000001a0: cc76 bcbe 91b4 a93e aa9d c1be 1ca9 c1be
000001b0: 48c1 e13c d473 853e 4a34 083e 5157 84be
000001c0: 812a c23d bee4 04be 00ac 1d3c 20ac 153e
000001d0: 25fc 70be ffd9 80be 2416 7f3d 45b8 adbd
000001e0: 5947 30be cb15 91be ca90 ae3e 8573 7dbe
000001f0: e8f5 7fbd fd8c 5e3e f6b6 033d fc40 dc3d
00000200: d5e2 08bd 0ac7 3a3e a561 d63e 9619 66be
00000210: 639b 99bc 9ce2 1cbe 1b7c 983d 832f 4a3a
00000220: c041 913d 5f6b 073e b3bf 843d b6d7 a23d
00000230: c9cd 273d ac1d 8f3d 8058 be3d 9153 073e
00000240: de2e 1bbe 6829 233d 67c8 88bd 06e8 5fbd
00000250: ddea 513d a5fc d2bd ba9a b2bd 1f38 08be
00000260: 6390 29be d390 89bd ca64 b93d 1b04 65be
00000270: a4ef 09be 98eb 33be 52cc 1dbe 0299 dcbd
00000280: 36ca 0a3d cd4e e73d 68a0 39bd 2b71 ccbd
00000290: 192e 7dbb 83cc bdbd c0c1 f43d d2dc 9fbd
000002a0: 8349 1fbe 59e7 bd3d 95ee 8abe 8ac7 d93d
000002b0: 0263 ff3c fb6d f23d 31d9 d63c 2437 053d
000002c0: bca8 31bd b102 2c3e f3dc 99be a7b0 7abd
000002d0: f44f c0bc 265d 1e3e 7ef7 9ebe e1b1 0bbf
000002e0: b95a 013e 32d5 0cbe cf18 da3d 163f 833d
000002f0: 47bd ff39 35c2 55be 73f2 5bbe 30e9 6cbd
00000300: d108 1bbe 22e3 22be 27a4 163e 1c58 443e
00000310: 25e2 603d 657d fabd 22aa 03bd b664 213f
00000320: 3393 223e e961 483e 1434 9d3e 3416 723e
00000330: 05fe b03e 511a 99bd 69d0 ee3e 0835 35be
00000340: c9e2 c83c 24b0 053e cf52 613e 49cd 0d3e
00000350: 8ca8 d03c c10d acbd cd57 0b3f 8d6e e1be
00000360: bd59 7b3d b5b5 093f 5379 883e 8af8 353f
00000370: 7059 9b3e a79b 053f 2e7a 883e b709 50bb
00000380: 18b4 e03c 5009 8d3d 8f00 c63d dbd2 043e
00000390: 47ec c2bd 3b82 d03d 5e35 263e 160e 843e
000003a0: 1072 84bd 9e7e 223c 3f87 b13e 9674 4bbd
000003b0: 0155 a23d 7cc1 2cbd 4ef2 f2bd 7747 18be
000003c0: 9177 c13e db37 073f 2096 853d 9643 033f
000003d0: 1d66 9ebc dfd2 cfbd a3d4 673e 940e 653f
000003e0: 33e3 573d 6f5e 9b3c f4dc 593e adf6 823d
000003f0: fc5f 9ebe e197 883c c977 f6bc fab3 8b3d

lstm.weight_hh_l1 f4 [256, 64]
-0.17019844 0.3838595 0.6415878 -0.33575526 1.9329302 0.067615405 0.740192 -0.4083929
-0.39861208 1.2027519 -0.111376256 -0.09228488 0.06820463 0.42270336 -0.24325317 -0.27851656
0.13910323 0.56075716 0.9986161 -0.16252868 -0.56225437 3.4411309 0.26659602 1.3135267
0.25387534 -2.539513 1.0340594 -0.21082713 0.4933461 -0.34613916 1.6700299 0.34894335
-0.06003064 0.060367852 -0.3900957 -0.79310006 0.028556371 -0.46044195 -0.65685076 0.97088814
0.088123284 -0.4753106 -1.0283138 0.24943572 -0.39026222 0.13472317 -0.9973936 0.9622429
0.5455172 0.24951786 -0.52523 0.06325387 -2.2209153 0.17447582 0.28997773 -0.12931608
-0.2734943 -1.5747821 0.068814784 -0.3116976 -0.5170694 0.7553189 0.51491535 -0.3462484
0.7070381 -0.45140994 0.63943774 -0.18185917 0.66159457 -0.077273466 -0.122474 0.24383025
-0.018833052 -0.27330148 0.14685857 -0.11828293 -0.14355464 -0.10470119 -0.38623193 -0.227883
0.0025179193 0.08585173 0.12709664 0.25046423 0.18547808 0.02863861 -0.44189548 0.3253537
0.2728917 0.014238822 -0.45048386 -0.40065104 0.26900512 -0.05779949 -0.46053782 0.12436018
-0.13338244 0.1301664 -0.40072146 -0.14653972 0.14049844 0.38696817 -0.5096967 0.31755355
-0.44129768 0.37864506 0.32694706 -0.071672164 -0.24193075 0.25203615 -0.06283938 -0.5190521
-0.42678067 -0.07189426 0.2789748 -0.32519057 -0.10264619 0.082557335 -0.3784089 -0.15248774
0.43568859 0.087878175 -0.15041332 -0.72910255 0.030114638 -0.121643834 -0.9351728 -0.35691866
0.05292009 -0.67296255 0.19382799 -0.0026934468 0.1322315 -0.045474075 -0.4117157 -0.5742436
-0.36366254 0.31567833 -0.19820517 0.22359158 0.07138238 -0.63075477 0.83819556 0.14533661
-0.6675274 -0.29717565 -0.42260846 0.106841646 0.30928016 0.119066186 -0.23866633 -0.081004985
0.08377984 0.3249037 0.05050461 0.047160726 -0.03593498 0.8910143 -1.5976216 -0.025171096
-0.0547938 -0.113412485 0.058617942 0.16073984 0.38583595 0.22921962 0.6762782 0.18365276
0.11249647 0.07985387 -0.25545382 -0.012137326 0.7176483 0.14259644 -0.017640991 0.009086603
0.0001322356 0.09852752 0.81966096 0.1510498 -0.05762968 -0.17875212 0.034555044 -0.023328528
0.29830146 0.74449617 0.5058076 -0.14406914 -0.25119278 0.20720291 -0.5008408 -0.03874641
-0.377354 0.06351015 0.38702205 1.2834456 0.15848547 0.25966284 0.06850631 -0.19346668
0.24080469 0.14325653 -0.46730328 0.06093371 0.07111096 -0.075718634 -0.019304538 0.08140892
-0.38843507 -0.034861833 0.010372212 -0.22900186 -0.15225333 -0.28122863 0.23000772 -0.19564502
0.5888112 -0.11137292 -0.095154084 -0.026259648 0.13105701 0.085950375 -0.6307577 -0.73020375
0.2229466 -0.068423755 -0.16791256 -0.13547696 0.28681025 1.0614644 -0.10796878 0.5106947
0.058278292 -0.12721309 -0.06364307 -0.5619592 0.022478592 0.0062103835 0.30448198 0.17369372
0.16624959 0.1694565 0.032712594 -0.06121625 0.4708544 -0.26076236 0.0010177261 -0.27629718
-0.034145232 0.173885 0.032781664 -0.6816872 0.079483196 -0.3716487 0.07524897 -0.050468747
00000000: 8048 2ebe 3b89 c43e 193f 243f 1de8 abbe
00000010: 426a f73f f279 8a3d 397d 3d3f e018 d1be
00000020: e216 ccbe c6f3 993f 3c19 e4bd dbff bcbd
00000030: deae 8b3d 936c d83e 5c17 79be b999 8ebe
00000040: 1471 0e3e c88d 0f3f 4ea5 7f3f eb6d 26be
00000050: e7ef 0fbf 7d3b 5c40 467f 883e a521 a83f
00000060: f3fb 813e 6287 22c0 0f5c 843f 11e3 57be
00000070: dc97 fc3e 2739 b1be 8ac3 d53f b4a8 b23e
00000080: b0e2 75bd 4844 773d a0ba c7be 9b08 4bbf
00000090: 0def e93c 0cbf ebbe 5f27 28bf 208c 783f
000000a0: fb79 b43d e95b f3be c99f 83bf 146c 7f3e
000000b0: 73d0 c7be dff4 093e 3055 7fbf 8d55 763f
000000c0: 04a7 0b3f 9c81 7f3e 7975 06bf 3f8b 813d
000000d0: 7a23 0ec0 caa9 323e f677 943e 6f6b 04be
000000e0: 7207 8cbe 7692 c9bf c4ee 8c3d d496 9fbe
000000f0: a95e 04bf 945c 413f 7ed1 033f 7847 b1be
00000100: 7300 353f 341f e7be 31b2 233f 4a39 3abe
00000110: 435e 293f 8d41 9ebd a6d3 fabd a3ae 793e
00000120: c647 9abc 2cee 8bbe 1862 163e 523e f2bd
00000130: fdff 12be 946d d6bd 31c0 c5be 295a 69be
00000140: ad03 253b 08d3 af3d 9f25 023e d93c 803e
00000150: f7ed 3d3e 859b ea3c 2040 e2be c394 a63e
00000160: 76b8 8b3e f349 693c d2a5 e6be 2222 cdbe
00000170: 0abb 893e 28bf 6cbd 9dcb ebbe 8db0 fe3d
00000180: 6895 08be 574a 053e 5d2b cdbe 820e 16be
00000190: d3de 0f3e b120 c63e 7c7b 02bf 6196 a23e
000001a0: c5f1 e1be c4dd c13e 9b65 a73e dbc8 92bd
000001b0: b2bc 77be e20a 813e efb1 80bd 99e0 04bf
000001c0: ff82 dabe 4c3d 93bd c9d5 8e3e 617f a6be
000001d0: 2a38 d2bd d213 a93d d0be c1be bf25 1cbe
000001e0: 9312 df3e 79f9 b33d f305 1abe 77a6 3abf
000001f0: f9b2 f63c 6720 f9bd 7c67 6fbf 0bbe b6be
00000200: bcc2 583d 4647 2cbf d87a 463e 8a84 30bb
00000210: b267 073e 0643 3abd 66cc d2be a101 13bf
00000220: fa31 babe 97a0 a13e 4cf6 4abe 31f5 643e
00000230: ed30 923d 2579 21bf fc93 563f 1fd3 143e
00000240: 13e3 2abf 6827 98be 2360 d8be cbcf da3d
00000250: f859 9e3e f9d8 f33d f264 74be f1e5 a5bd
00000260: c494 ab3d c759 a63e ecdd 4e3d 9b2b 413d
00000270: 8f30 13bd 8319 643f dd7e ccbf 9d33 cebc
00000280: 776f 60bd ce44 e8bd 5e19 703d fc98 243e
00000290: 4a8c c53e 8cb8 6a3e 9120 2d3f 780f 3c3e
000002a0: 8d64 e63d 6d8a a33d d8ca 82be a3db 46bc
000002b0: cdb7 373f cd04 123e d783 90bc fadf 143c
000002c0: b9a8 0a39 ccc8 c93d 4dd5 513f ccac 1a3e
000002d0: 190d 6cbd cc0a 37be 9789 0d3d 781b bfbc
000002e0: f8ba 983e 4d97 3e3f 9b7c 013f dc86 13be
000002f0: 579c 80be 002d 543e 1a37 00bf 8eb4 1ebd
00000300: 8b34 c1be 9c11 823d c127 c63e f247 a43f
00000310: 044a 223e 87f2 843e 094d 8c3d 211c 46be
00000320: 8195 763e d7b1 123e 6042 efbe a095 793d
00000330: 9fa2 913d 5f12 9bbd 8d24 9ebc b8b9 a63d
00000340: f6e0 c6be 48cb 0ebd 36f0 293c 777f 6abe
00000350: 4ce8 1bbe 33fd 8fbe 2587 6b3e 2b57 48be
00000360: 55bc 163f 7c17 e4bd 25e0 c2bd 791e d7bc
00000370: cf33 063e c006 b03d 5679 21bf a2ee 3abf
00000380: 1d4c 643e c121 8cbd 45f1 2bbe 79ba 0abe
00000390: cbd8 923e 11de 873f bc1e ddbd e3bc 023f
000003a0: 38b5 6e3d 2644 02be 4c57 82bd 8fdc 0fbf
000003b0: 0625 b83c 7980 cb3b 10e5 9b3e c4dc 313e
000003c0: 553d 2a3e 0186 2d3e a4fd 053d e4bd 7abd
000003d0: d413 f13e a582 85be 3965 853a d376 8dbe
000003e0: dfdb 0bbd e90e 323e 1146 063d 0d83 2ebf
000003f0: 16c8 a23d bd48 bebe 221c 9a3d 51b8 4ebd

lstm.bias_ih_l1 f4 [256]
-0.16802101 0.34667692 -0.021694062 -0.051708397 -0.13884822 -0.039750513 -0.180729 -0.021450106
0.24934642 -0.029144574 -0.03764797 0.14363882 0.069254436 -0.15504308 0.5916436 -0.08733035
-0.21005204 0.3022426 -0.19591524 0.029465064 -0.13336343 -0.13161972 0.12153364 0.06000064
-0.034438636 -0.13900597 -0.28149572 0.041311692 0.08369746 0.1716993 -0.07780995 -0.038834818
0.19741058 -0.054388694 -0.19160692 -0.105882496 -0.1818071 0.03921937 -0.070556276 -0.18448995
-0.0062878868 0.025676053 -0.09779386 -0.11775615 0.18577701 0.043335833 0.21733283 -0.1326888
-0.2849513 -0.013410761 0.15457161 0.48066998 0.061057694 0.17973343 -0.05971301 -0.09045385
0.00067375443 0.074781716 0.009040407 0.06696826 -0.251415 -0.24101706 -0.03357524 -0.07113885
-0.014565055 0.06195478 -0.10271982 0.47230276 0.024142373 0.106883734 -0.03474965 0.037973393
0.057728395 -0.19730583 0.5436698 0.059634093 0.21890622 0.042200573 -0.060980592 0.1311511
-0.089393996 -0.09149559 0.021541122 0.18374269 0.08518945 -0.1140042 0.5746285 0.04911226
0.2651524 0.20126884 0.03718483 0.16018452 0.45694837 0.24064939 0.085293256 0.4727716
0.1928277 0.2181529 0.060613744 0.13615857 0.44346765 0.044226184 0.13604106 0.11034718
-0.17538318 -0.012370442 -0.032389794 0.3018111 0.060576666 0.088864096 0.29735845 -0.14862137
0.23516497 0.7565486 0.08281851 0.39310905 0.14064474 -0.06553868 0.002128347 0.0110649755
0.09540494 0.075732306 -0.25487068 -0.20157084 0.06652028 0.07876702 0.12868609 -0.0025981076
-0.08014314 0.20639636 -0.044918668 -0.08460363 -0.058366973 -0.049994692 0.09624633 -0.013318913
0.15751201 0.00111212 0.051197786 -0.036997467 0.049399488 0.14851454 -0.007975792 0.0975996
-0.010095628 0.12375783 -0.10276758 -0.12518549 -0.082599185 0.08285936 0.27368963 0.14287831
0.119083256 -0.12943015 0.06239591 -0.2077996 0.35453078 -0.060746696 -0.10319369 0.16793814
-0.044186175 0.019145751 -0.011338964 0.15317382 -0.13123941 -0.0048238323 0.08219934 0.0652301
-0.09343592 0.06145334 0.1732549 -0.09218377 -0.28030154 0.10513034 -0.15837061 0.16092727
0.090596 0.015845692 0.09103877 -0.16071495 0.30334833 0.1285811 0.05990674 -0.104008354
0.017186716 -0.15687533 0.051740278 -0.24723294 -0.060945876 -0.041132133 -0.010888254 -0.1434415
0.37300977 0.051764186 -0.026070258 0.17672099 0.24708138 -0.1087081 0.071198344 0.014930278
-0.14898248 -0.020047698 0.7857695 0.059166502 0.31034684 -0.0069382265 -0.0029997588 -0.22838336
-0.13199109 -0.034492213 0.15712975 0.24317732 -0.12672725 0.09300874 0.001318257 0.011504648
-0.23356454 0.08744107 -0.04831349 0.045809258 -0.25049117 -0.11657775 0.04250215 0.13509631
0.12332478 -0.12585628 0.25312814 0.015434139 -0.047760345 0.22417285 -0.058636628 0.42557743
0.14394954 0.5313761 0.12888253 0.47634122 -0.011820125 -0.08964117 0.01273806 -0.06416117
0.26298577 0.2912048 0.15168758 -0.11956007 0.17500257 -0.04040609 -0.24466059 0.16173051
0.11832188 -0.07157652 -0.17500971 0.32215026 -0.16735703 0.7672117 -0.02805521 -0.08104017
00000000: b30d 2cbe a37f b13e bfb7 b1bc 2fcc 53bd
00000010: 3a2e 0ebe 6fd1 22bd 0611 39be 22b8 afbc
00000020: ab54 7f3e 9ac0 eebc c234 1abd 0e16 133e
00000030: 45d5 8d3d 9dc3 1ebe f475 173f 41da b2bd
00000040: e217 57be 8bbf 9a3e 019e 48be b860 f13c
00000050: 6c90 08be 52c7 06be a1e6 f83d 3bc3 753d
00000060: 870f 0dbd 9557 0ebe 3520 90be 7336 293d
00000070: 9369 ab3d f1d1 2f3e d35a 9fbd 4211 1fbd
00000080: 0026 4a3e aec6 5ebd 9b34 44be ecd8 d8bd
00000090: a42b 3abe 7da4 203d cf7f 90bd efea 3cbe
000000a0: 9e0a cebb 9656 d23c 2648 c8bd 232a f1bd
000000b0: 543c 3e3e ea80 313d 7f8c 5e3e 93df 07be
000000c0: 23e5 91be cfb8 5bbc 0548 1e3e 601a f63e
000000d0: a217 7a3d 0a0c 383e a195 74bd de3f b9bd
000000e0: e59e 303a 2827 993d 371e 143c a826 893d
000000f0: 78b9 80be 2dcd 76be 3186 09bd 3fb1 91bd
00000100: 45a2 6ebc 4cc4 7d3d c55e d2bd abd1 f13e
00000110: 3ac6 c53c dce5 da3d a655 0ebd fd89 1b3d
00000120: 9c74 6c3d 8a0a 4abe f22d 0b3f e142 743d
00000130: f428 603e 82da 2c3d c9c6 79bd 794c 063e
00000140: 3314 b7bd 0a62 bbbd 0277 b03c 0b27 3c3e
00000150: ce77 ae3d 097b e9bd da1a 133f f029 493d
00000160: 0ec2 873e 6b19 4e3e 1f4f 183d 6907 243e
00000170: 23f5 e93e cb6c 763e 3bae ae3d 1f0f f23e
00000180: a074 453e 7963 5f3e 1e46 783d 276d 0b3e
00000190: 310e e33e 8426 353d 594e 0b3e b4fd e13d
000001a0: a697 33be 65ad 4abc 29ab 04bd fc86 9a3e
000001b0: 3d1f 783d 61fe b53d 5e3f 983e 3330 18be
000001c0: 16cf 703e 2bad 413f c09c a93d 9745 c93e
000001d0: 2d05 103e 2539 86bd bd7b 0b3b df49 353c
000001e0: aa63 c33d 8a19 9b3d 697e 82be 9668 4ebe
000001f0: c93b 883d 9a50 a13d 49c6 033e 0345 2abb
00000200: 1622 a4bd 9159 533e a3fc 37bd ab44 adbd
00000210: 3512 6fbd 3cc7 4cbd cc1c c53d 9237 5abc
00000220: d44a 213e 8ec4 913a c5b4 513d a88a 17bd
00000230: 1e57 4a3d 3214 183e e5ac 02bc 4de2 c73d
00000240: 2268 25bc bf74 fd3d cf77 d2bd a030 00be
00000250: c329 a9bd 2bb2 a93d 0c21 8c3e b14e 123e
00000260: ece1 f33d 5689 04be db92 7f3d 6bc9 54be
00000270: 0f85 b53e 87d1 78bd 3757 d3bd faf7 2b3e
00000280: 90fc 34bd 8dd7 9c3c 10c7 39bc 99d9 1c3e
00000290: a063 06be 3d11 9ebb 2158 a83d 5c97 853d
000002a0: 555b bfbd 7fb6 7b3d bc69 313e d8ca bcbd
000002b0: af83 8fbe 934e d73d e82b 22be 1eca 243e
000002c0: 658a b93d d3ce 813c 8972 ba3d 7692 24be
000002d0: 7950 9b3e c4aa 033e c560 753d 5502 d5bd
000002e0: 28cb 8c3c eda3 20be 9ded 533d a22a 7dbe
000002f0: 62a2 79bd 2b7a 28bd a664 32bc 54e2 12be
00000300: 23fb be3e af06 543d 4b91 d5bc 59f6 343e
00000310: e702 7d3e 5aa2 debd 70d0 913d 209e 743c
00000320: dd8e 18be 123b a4bc 3128 493f 9358 723d
00000330: c8e5 9e3e 105a e3bb 9a97 44bb 54dd 69be
00000340: ac28 07be b547 0dbd 9fe6 203e 7a03 793e
00000350: cac4 01be 5e7b be3d 5dc9 ac3a fe7d 3c3c
00000360: 8b2b 6fbe 4e14 b33d 5ee4 45bd 7da2 3b3d
00000370: 6140 80be 51c0 eebd bc16 2e3d b056 0a3e
00000380: b491 fc3d 78e0 00be 039a 813e 79df 7c3c
00000390: 5aa0 43bd 918d 653e f62c 70bd 49e5 d93e
000003a0: 8267 133e 4408 083f c8f9 033e ffe2 f33e
000003b0: 33a9 41bc ca95 b7bd 4cb3 503c ee66 83bd
000003c0: 12a6 863e cc18 953e fd53 1b3e e9db f4bd
000003d0: e033 333e db80 25bd 4e88 7abe af9c 253e
000003e0: be52 f23d b696 92bd bf35 33be e1f0 a43e
000003f0: a45f 2bbe fc67 443f 0ad4 e5bc 63f8 a5bd

lstm.bias_hh_l1 f4 [256]
-0.17881577 0.27706057 -0.062146038 -0.101648055 -0.28258163 -0.029323908 -0.17361592 -0.044543244
0.243752 -0.08804262 0.123804286 0.14249848 0.10040139 -0.02638323 0.54488444 -0.11538705
-0.02525416 0.20111562 -0.14790379 -0.17069395 -0.08741716 0.0779552 0.25314322 -0.0661137
-0.06594182 -0.13409643 -0.104735576 -0.02474081 0.09709195 0.086158514 -0.1042419 -0.15649028
0.27893314 -0.21682937 -0.22581421 -0.3033292 -0.2630294 0.0722654 -0.120563634 -0.008350084
-0.017563881 0.050059445 -0.038084082 -0.0432076 0.2556522 -0.0147276865 0.1937422 -0.07473408
-0.14095962 -0.090306945 -0.04888308 0.5002045 0.105911516 0.08991356 -0.005236917 -0.0550323
0.07478384 0.18142308 0.17378709 0.17197652 -0.04857543 -0.24397293 -0.12175334 -0.15097082
-0.16592364 0.033164117 -0.0519967 0.30540362 0.18720824 0.13943374 -0.035369877 -0.008683492
-0.11812486 -0.063736744 0.7049539 0.00043558993 0.19948936 -0.120292366 -0.014858028 0.12467315
0.03294631 -0.14245972 0.036786474 0.18406095 0.14043216 -0.14415914 0.6263242 0.1994554
0.30123344 0.14194192 -0.076953605 0.1433241 0.46272966 0.019639745 0.054139424 0.43502054
0.01688554 0.37348613 -0.10088295 0.08495833 0.2829878 0.083457835 0.15185645 0.13852601
-0.059698813 0.0024276134 -0.1483813 0.15547042 -0.080136985 0.08935422 0.43896616 -0.12981349
0.03158271 0.5797094 -0.08035445 0.3809444 0.12575738 -0.13787033 -0.1263029 -0.10001363
0.12780719 0.041054092 -0.21942963 -0.084485434 0.052545592 0.28812143 0.0837045 0.008648233
-0.09461607 0.026412912 -0.060899366 0.06429302 0.084259145 0.14350423 -0.09607653 -0.0048230626
0.19596983 -0.14476073 -0.18217157 -0.16746892 -0.016190218 0.17300552 -0.06701363 -0.09920213
-0.036746528 0.20514482 -0.01405382 -0.14487705 0.031359106 0.03080116 0.10776821 0.050850682
0.103044055 -0.037174765 -0.0745198 -0.097956695 0.2710562 -0.056842517 -0.046173032 0.20169133
-0.17330346 0.03056138 -0.12330115 0.09380713 -0.06062017 0.07465336 0.056684017 0.024287917
-0.12662517 0.02274797 0.2552897 -0.014126499 -0.13440132 0.12568995 -0.24462228 -0.0040247883
-0.0074431077 -0.006528951 0.05618525 -0.17933488 0.25866127 0.07548504 0.10147988 -0.041571245
-0.012743059 -0.042996995 0.04884681 -0.057638593 -0.01880669 0.15401134 0.10649826 -0.0749396
0.44899273 0.106412694 0.1981558 0.24953206 0.2606874 -0.019159561 0.25731972 -0.06790301
0.017057061 0.18511589 0.6183963 -0.06709013 0.35578072 -0.0006962054 0.12660545 -0.24877423
-0.32970524 0.008963353 0.14912346 0.35737756 -0.06196995 0.013240995 -0.13268347 -0.017326357
-0.22589993 0.11887274 0.043169953 0.07256359 -0.027481552 -0.08539326 0.086896844 0.110616274
0.15737225 -0.228407 0.27656654 -0.036638413 -0.0798475 0.04129851 0.026787931 0.24714832
0.04742266 0.6022884 0.24469438 0.43141845 -0.11232977 -0.11366651 -0.037331026 -0.07511945
0.17968652 0.22399688 0.034579724 -0.19630487 0.08229205 0.13373691 -0.25853968 0.103465036
0.14227702 -0.050857734 -0.0035722996 0.30887368 0.02996701 0.6805719 -0.06387708 0.0086836405
00000000: 7b1b 37be e2da 8d3e d88c 7ebd db2c d0bd
00000010: 8aae 90be b138 f0bc 5fc8 31be fa72 36bd
00000020: 209a 793e b04f b4bd 1a8d fd3d 1feb 113e
00000030: 3e9f cd3d a521 d8bc 8c7d 0b3f 0c50 ecbd
00000040: d0e1 cebc 41f1 4d3e 1774 17be 65ca 2ebe
00000050: c507 b3bd faa6 9f3d fd9b 813e 9f66 87bd
00000060: 810c 87bd 9350 09be 9b7f d6bd 3dad cabc
00000070: 25d8 c63d e073 b03d c77c d5bd fd3e 20be
00000080: 53d0 8e3e 8508 5ebe d73b 67be f74d 9bbe
00000090: caab 86be e2ff 933d 11ea f6bd cace 08bc
000000a0: 21e2 8fbc 220b 4d3d 0efe 1bbd 74fa 30bd
000000b0: d8e4 823e 654c 71bc 5b64 463e 2e0e 99bd
000000c0: b857 10be d9f2 b8bd a039 48bd 670d 003f
000000d0: 23e8 d83d 9a24 b83d 729a abbb 8d69 61bd
000000e0: 4528 993d f9c6 393e 3ef5 313e 9d1a 303e
000000f0: 08f7 46bd 0ad4 79be d159 f9bd 1898 1abe
00000100: e3e7 29be 19d7 073d 7efa 54bd dd5d 9c3e
00000110: 84b3 3f3e b8c7 0e3e 01e0 10bd 3545 0ebc
00000120: 72eb f1bd 6988 82bd dc77 343f e45f e439
00000130: f046 4c3e d85b f6bd 166f 73bc a354 ff3d
00000140: b6f2 063d f6e0 11be 6aad 163d 797a 3c3e
00000150: 73cd 0f3e 749e 13be c856 203f 093e 4c3e
00000160: 453b 9a3e 3959 113e da99 9dbd 8ec3 123e
00000170: e7ea ec3e 88e3 a03c 4dc1 5d3d 03bb de3e
00000180: 8b53 8a3c 9339 bf3e b89b cebd a2fe ad3d
00000190: c7e3 903e f1eb aa3d 4280 1b3e c3d9 0d3e
000001a0: be86 74bd 9818 1f3b 44f1 17be a333 1f3e
000001b0: dc1e a4bd 58ff b63d 2cc0 e03e d4ed 04be
000001c0: df5c 013d d667 143f e090 a4bd 250b c33e
000001d0: 8bc6 003e e12d 0dbe 8c55 01be f2d3 ccbd
000001e0: e3df 023e 5628 283d 29b2 60be b306 adbd
000001f0: 0c3a 573d a784 933e 446d ab3d 51b1 0d3c
00000200: 12c6 c1bd e45f d83c 9d71 79bd 0fac 833d
00000210: 0f90 ac3d c6f2 123e c6c3 c4bd c80a 9ebb
00000220: 51ac 483e 283c 14be 2f8b 3abe f97c 2bbe
00000230: 59a1 84bc 5c28 313e 713e 89bd 7d2a cbbd
00000240: 8783 16bd 7c11 523e fe41 66bc a65a 14be
00000250: 6872 003d b752 fc3c 94b5 dc3d ce48 503d
00000260: c308 d33d 9144 18bd d69d 98bd 859d c8bd
00000270: e1c7 8a3e b3d3 68bd ef1f 3dbd 2c88 4e3e
00000280: 7676 31be dc5b fa3c 5085 fcbd f41d c03d
00000290: db4c 78bd dce3 983d 802d 683d 74f7 c63c
000002a0: 07aa 01be f359 ba3c 55b5 823e d572 67bc
000002b0: 80a0 09be deb4 003e 437e 7abe 5fe2 83bb
000002c0: 50e5 f3bb d0f0 d5bb 8122 663d 90a3 37be
000002d0: 406f 843e e797 9a3d afd4 cf3d 9c46 2abd
000002e0: 43c8 50bc 9e1d 30bd 9813 483d 7216 6cbd
000002f0: 7d10 9abc 26b5 1d3e c21b da3d ef79 99bd
00000300: 60e2 e53e e6ee d93d 5be9 4a3e 5585 7f3e
00000310: d278 853e 83f4 9cbc 69bf 833e bc10 8bbd
00000320: 40bb 8b3c 058f 3d3e 384f 1e3f 8d66 89bd
00000330: e428 b63e 8e81 36ba dca4 013e acbe 7ebe
00000340: 20cf a8be 07db 123c d2b3 183e 31fa b63e
00000350: 34d4 7dbd c2f0 583c 2dde 07be 01f0 8dbc
00000360: 5052 67be 8d73 f33d fad2 303d 389c 943d
00000370: fe20 e1bc a9e2 aebd f9f6 b13d c98a e23d
00000380: 3126 213e 86e3 69be 219a 8d3e 2912 16bd
00000390: 1687 a3bd a028 293d 5d72 db3c 7314 7d3e
000003a0: 433e 423d 932f 1a3f 2a91 7a3e e1e2 dc3e
000003b0: 270d e6bd fdc9 e8bd 6be8 18bd 3ad8 99bd
000003c0: beff 373e 705f 653e 78a3 0d3d 2504 49be
000003d0: bc88 a83d 54f2 083e 505f 84be 7ae5 d33d
000003e0: 11b1 113e 3350 50bd 3e1d 6abb b124 9e3e
000003f0: 607d f53c f639 2e3f fdd1 82bd d445 0e3c
