models/v2/LSTM_xy_epoch_80_h-h_8-12_pt1_pf1.2.pth (torch, 340568 bytes, 14 tensors)

lstm.weight_ih_l0 f4 [256, 2]
0	0x3f109a55	0.5648549
1	0xbea22a17	-0.31672737
2	0x3eb65323	0.35610303
3	0x3e74c438	0.23902977
4	0xbd523303	-0.05131818
5	0x3dd9482c	0.10609469
6	0x3ee29fc9	0.4426253
7	0xbef33ed1	-0.47508863
8	0x3f1e988e	0.6195153
9	0xbea5c984	-0.32380307
10	0xbee2e5cf	-0.44315955
11	0xbe26ca75	-0.16288169
12	0x3e55bd4b	0.20872991
13	0x3c9338eb	0.017971477
14	0xbe982d23	-0.29721937
15	0x3e3e2e4f	0.18572353
16	0x3efea40a	0.49734527
17	0xbf3655fd	-0.7122496
18	0x3d54945b	0.051899295
19	0x3d26c3b8	0.040713996
20	0x3e0c80d9	0.13721026
21	0xbdcc1b99	-0.09966201
22	0x3e9f417d	0.3110465
23	0x3e305d64	0.17223126
24	0x3d660445	0.056156415
25	0xbd7e52d3	-0.062090706
26	0x3f32dc78	0.6986766
27	0xbe567b9c	-0.2094559
28	0x3f192381	0.598198
29	0xbf22d4c7	-0.6360592
30	0x3eb26a79	0.34846857
31	0xbf00fd83	-0.5038683
32	0xbe1d0a80	-0.15336037
33	0x3dc35a3f	0.095386975
34	0x3f1b69f1	0.6070853
35	0xbe6c7c2a	-0.2309424
36	0x3f29c355	0.6631368
37	0xbe8efe14	-0.2792822
38	0xbe30aac2	-0.17252639
39	0x3db8cf4d	0.090239145
40	0x3f441c3f	0.766056
41	0xbe59e8cc	-0.21280211
42	0xbdf4989e	-0.11943172
43	0x3e66983a	0.22519007
44	0x3f18bcf9	0.5966335
45	0xbf02680e	-0.50940025
46	0x3e5a17ec	0.21298188
47	0x3ea1a73e	0.31572908
48	0x3ecc2940	0.3987522
49	0x3e781db1	0.24230076
50	0xbde0cc11	-0.109764226
51	0x3e406441	0.18788244
52	0x3e0a7398	0.13520658
53	0x3ef10ae8	0.47078633
54	0x3f119373	0.56865615
55	0xbebb6549	-0.36600712
56	0x3d9bb691	0.07603181
57	0x3f016b6b	0.5055453
58	0x3f2a3aa5	0.66495734
59	0xbea27599	-0.31730345
60	0x3f19e807	0.6011967
61	0xbef47f67	-0.4775345
62	0x3f16081b	0.5860612
63	0xbeac934f	-0.33706138
64	0xbe1c4032	-0.15258864
65	0x3e070ebc	0.13189214
66	0x3d86b753	0.06577935
67	0xbe43b324	-0.19111305
68	0x3f11aabb	0.5690114
69	0xbe9f321e	-0.31092924
70	0xbeccabc2	-0.3997479
71	0xbdd807d3	-0.10548367
72	0x3ef55eee	0.47923988
73	0xbf25b0df	-0.6472301
74	0x3e233737	0.15939032
75	0xbe0b0a0c	-0.13578051
76	0x3ee398cb	0.4445251
77	0xbf11a1da	-0.5688759
78	0x3ec18a00	0.37800598
79	0xbf2e40a0	-0.6806736
80	0xbe6a244a	-0.22865406
81	0x3e3d4417	0.18483005
82	0x3f1fbaf9	0.6239467
83	0xbe97ee62	-0.2967406
84	0x3f089375	0.5335
85	0xbf12da06	-0.5736393
86	0x3f000cc3	0.5001947
87	0xbf194258	-0.5986686
88	0x3ee16e9a	0.44029695
89	0xbf337e32	-0.70114434
90	0xbe0a978e	-0.13534376
91	0x3e0ed827	0.13949643
92	0x3d07cbe4	0.03315343
93	0xbe3cb411	-0.18428065
94	0x3e0a472f	0.13503717
95	0x3e789e6f	0.24279188
96	0x3eac2c4f	0.33627555
97	0x3f0af24c	0.54275966
98	0xbe88981f	-0.2667856
99	0x3e1cea55	0.15323766
100	0x3e1c41e3	0.15259509
101	0xbdf5df5a	-0.120054916
102	0x3f202901	0.62562567
103	0xbee69d0a	-0.45041686
104	0x3eb171cf	0.34657142
105	0x3ec13ba7	0.37740824
106	0xbea5fb61	-0.3241835
107	0x3ddcc323	0.10779407
108	0x3ed259c6	0.41084117
109	0xbdf1d02d	-0.118072845
110	0x3f06fb1c	0.5272691
111	0xbedce4e7	-0.4314339
112	0x3f164647	0.58700985
113	0xbf14b3e0	-0.5808697
114	0xbdfddd4c	-0.12395725
115	0x3e2e60bf	0.17029093
116	0xbe5e5638	-0.21712577
117	0xbda5bbf6	-0.08092491
118	0x3f236db2	0.63839257
119	0xbf010475	-0.50397426
120	0x3f1f91ac	0.6233165
121	0xbe7a67dc	-0.24453682
122	0xbe401868	-0.1875931
123	0xbf86309b	-1.0483583
124	0x3eff8cba	0.49912053
125	0xbd8b9055	-0.068146385
126	0xbde066b1	-0.10957087
127	0x3e5cf11b	0.2157635
128	0x3ef60904	0.48053753
129	0xbea157fb	-0.31512436
130	0xbeca4996	-0.39509267
131	0x3ebda417	0.37039253
132	0x3ed716e7	0.4200966
133	0xbe966256	-0.293719
134	0x3dfa2345	0.122137584
135	0xbdb3c47c	-0.08777711
136	0x3e93962b	0.28825507
137	0xbe035f5b	-0.12829344
138	0x3e88811f	0.26661012
139	0xbeb31bc1	-0.34982112
140	0xbeb7ceee	-0.35900062
141	0x3e9aeefb	0.30260453
142	0x3e459321	0.19294406
143	0xbe5f03fd	-0.21778865
144	0x3ec7b480	0.39004898
145	0xbece6bd6	-0.40316647
146	0x3ddb7340	0.107153416
147	0xbe095269	-0.13410343
148	0x3d5ce592	0.053929873
149	0xbf268bb5	-0.65056926
150	0x3e33cbd2	0.1755822
151	0x3e66e673	0.22548847
152	0x3f049cae	0.51801574
153	0xbea12578	-0.314739
154	0xbe9695ab	-0.29411063
155	0xbf05e07a	-0.5229565
156	0x3ebdd21e	0.3707437
157	0xbec0a757	-0.3762767
158	0x3e8fc3e1	0.2807913
159	0xbe0195cf	-0.12654804
160	0xbe4c2af3	-0.19938259
161	0x3e09d7da	0.13461247
162	0x3e011778	0.12606609
163	0xbe32a556	-0.17445883
164	0x3eb3858b	0.35062823
165	0xbeba4cc1	-0.36386684
166	0xbe46068f	-0.1933844
167	0x3e044a89	0.12919058
168	0xbec270ef	-0.37976786
169	0xbd7089a6	-0.05872502
170	0xbe2caacd	-0.1686203
171	0x3e68be25	0.22728784
172	0x3e2199de	0.15781352
173	0xbe9d3a8f	-0.3070874
174	0x3e9f367c	0.31096256
175	0xbecd8b3c	-0.4014529
176	0xbe3c8749	-0.18410982
177	0xbda8de1d	-0.0824549
178	0xbe4d0e2d	-0.20024939
179	0x3e4582fc	0.19288248
180	0x3eee1127	0.4649746
181	0xbedfafe5	-0.43688884
182	0xbeb2a1ab	-0.34888968
183	0xbe5c65f9	-0.21523274
184	0x3d03c4bf	0.032170054
185	0x3f81c8c2	1.0139391
186	0x3ef33c2f	0.47506854
187	0xbe82ee3e	-0.2557239
188	0x3e87b788	0.2650721
189	0xbe802303	-0.25026712
190	0x3e11dfcc	0.14245528
191	0xbeabe8fa	-0.33576185
192	0x3eeb09bf	0.45905873
193	0xbed7566a	-0.42058116
194	0x3ed72cfb	0.42026505
195	0x3eb02d04	0.34409344
196	0x3eaed5b4	0.34147418
197	0xbe0b10c6	-0.13580617
198	0x3ec53676	0.38518113
199	0xbe99d877	-0.30047962
200	0x3ed5b0f9	0.41736582
201	0xbebc88d5	-0.36823145
202	0x3f0a131c	0.5393541
203	0xbe8f7a98	-0.2802322
204	0xbf15283a	-0.58264506
205	0x3e0248fe	0.12723157
206	0xbe7cbc4f	-0.24681209
207	0xbdbf3591	-0.09336389
208	0x3e9f3de0	0.31101894
209	0xbe2e5521	-0.17024662
210	0x3f033f15	0.5126813
211	0xbe56421e	-0.20923659
212	0x3f05cb5e	0.5226344
213	0xbe43453b	-0.19069378
214	0xbdb6fe52	-0.089352265
215	0xbe4dfbc1	-0.20115568
216	0x3ec544b0	0.38528967
217	0xbf16c22f	-0.5889005
218	0x3f014052	0.5048877
219	0xbebff396	-0.3749053
220	0x3e9d9a44	0.30781758
221	0xbf02c0c7	-0.51075405
222	0x3eae42f4	0.34035456
223	0xbecb9219	-0.397599
224	0xbe05793f	-0.13034533
225	0x3f68915a	0.9084679
226	0x3ee27f39	0.44237688
227	0xbdba1e82	-0.0908785
228	0x3ef153b4	0.47134173
229	0xbebf5c8a	-0.3737529
230	0x3e691693	0.22762518
231	0xbeb4be2f	-0.3530135
232	0x3f21f7ae	0.63268554
233	0x3d7ce9e2	0.061746486
234	0x3f029702	0.5101167
235	0xbede9f72	-0.43481022
236	0xbe198267	-0.14991151
237	0x3e90980a	0.28240997
238	0x3eb9e348	0.36306214
239	0xbeb38edf	-0.3506994
240	0xbf0a32c4	-0.5398371
241	0x3e79b2b5	0.24384578
242	0x3ee97c5d	0.45602694
243	0xbec36496	-0.38162678
244	0x3ef15a8f	0.47139403
245	0xbe8d628a	-0.27614242
246	0xbecbfcc9	-0.39841297
247	0x3e266c92	0.16252354
248	0x3ebeccf1	0.37265733
249	0xbe8978a3	-0.2684985
250	0xbe376b2f	-0.17911981
251	0xbeb12367	-0.34597322
252	0x3e28a72e	0.16470024
253	0x3e394bcb	0.18095319
254	0xbd9f609e	-0.077821
255	0x3f7b46f9	0.9815517

lstm.weight_hh_l0 f4 [256, 64]
0	0x3f0dc1f8	0.553741
1	0xbeac3849	-0.33636692
2	0x3f1c3244	0.610142
3	0x3e8aa39f	0.27077958
4	0xbeea53b8	-0.45766997
5	0xbea53df9	-0.32273844
6	0xbda599bb	-0.080859624
7	0x3e95600d	0.29174843
8	0xbf22a111	-0.6352702
9	0x3ee8d4b6	0.45474786
10	0xbe8397a2	-0.25701624
11	0xbec0705a	-0.37585717
12	0x3ec0ea31	0.37678674
13	0x3e874a6b	0.26423964
14	0xbec424b3	-0.3830925
15	0xbeb34951	-0.35016873
16	0xbef797b9	-0.48357943
17	0x3ec88c4b	0.39169535
18	0xbf0084b4	-0.5020249
19	0xbed63221	-0.4183512
20	0xbdf2aaa5	-0.11848954
21	0xbef0da57	-0.4704158
22	0xbf188405	-0.59576446
23	0x3ea4e830	0.32208395
24	0xbedfba07	-0.43696615
25	0xbf2a3b78	-0.6649699
26	0xbf0cb91e	-0.54969966
27	0xbe5ef34a	-0.21772495
28	0xbe8cdb97	-0.27511284
29	0xbea77fe7	-0.3271477
30	0xbf078d15	-0.5294965
31	0xbf1cf2f9	-0.61308247
32	0x3e7f03f3	0.2490385
33	0x3ea722af	0.3264365
34	0x3e43ef48	0.19134247
35	0x3ea0518d	0.31312218
36	0x3ec0382d	0.3754286
37	0xbe87620d	-0.26441994
38	0xbea691cd	-0.32533112
39	0xbe598367	-0.21241532
40	0xbebfb982	-0.3744622
41	0x3e73fe76	0.23827538
42	0xbee49f22	-0.4465266
43	0xbefa2eb7	-0.48863766
44	0xbd8274cf	-0.06369936
45	0x3ef2ef9b	0.4744843
46	0x3ec43ad0	0.3832612
47	0x3cd21a23	0.025647229
48	0x3e58f22e	0.21186134
49	0x3e3eae0b	0.1862108
50	0xbe6d4a8e	-0.23172972
51	0xbef5eb82	-0.4803124
52	0xbed84f96	-0.4224822
53	0x3e84cb8c	0.25936544
54	0xbd1176a8	-0.03551355
55	0xbe7271f8	-0.23676288
56	0xbeb566e0	-0.3543005
57	0xbf640fda	-0.8908669
58	0x3d7a73da	0.06114564
59	0xbe6ff3d4	-0.23432857
60	0x3f160704	0.58604455
61	0x3ec6b83e	0.3881244
62	0x3ea472f3	0.3211895
63	0xbf22ae9d	-0.6354769
64	0x3e18d14c	0.1492359
65	0x3edef58c	0.43546712
66	0xbf9fe4c6	-1.2491691
67	0x3d9227b1	0.07136477
68	0x3d7cdc1f	0.06173336
69	0x3f39b555	0.72542316
70	0xbc8aa79a	-0.016925622
71	0xbe49705f	-0.19671772
72	0xbbce02e2	-0.0062869648
73	0x3f62e5c1	0.88631827
74	0xbddf3633	-0.108990096
75	0xbe2466ad	-0.16054793
76	0x3f0b048c	0.54303813
77	0x3e6adaea	0.22935072
78	0x401fc292	2.4962506
79	0x3e225b76	0.15855202
80	0x3dd22ea8	0.10262805
81	0xbca65589	-0.020304458
82	0xbe2717cc	-0.16317672
83	0xbe46c5a8	-0.19411337
84	0x3e225661	0.15853263
85	0x3e241b04	0.1602593
86	0xbd809c35	-0.06279794
87	0xbfb43ecd	-1.4081665
88	0xbd14f252	-0.036363907
89	0xbe9f214b	-0.31080088
90	0x3f945469	1.158826
91	0xbdc2abd3	-0.09505429
92	0x3f029454	0.5100758
93	0xbeed6e26	-0.463731
94	0x3d41f00c	0.047348067
95	0xbe2912a7	-0.16511022
96	0x3ef5aaaa	0.4798177
97	0xbfdfcec3	-1.7484974
98	0x3e55cc1e	0.20878646
99	0x3eead20a	0.45863372
100	0x3e2b820e	0.1674883
101	0xbcc80e30	-0.024420828
102	0xbe74c6f2	-0.23904017
103	0xbe4ea655	-0.20180638
104	0x3dcec856	0.10096805
105	0x3e96917f	0.2940788
106	0xbf03943d	-0.5139807
107	0xbda5a65e	-0.08088373
108	0x3e4f34b1	0.20234944
109	0xbebfeeb5	-0.37486807
110	0x3e2b2b18	0.16715658
111	0x3ed8511c	0.42249382
112	0xbddfed7d	-0.10933969
113	0xbf6efd4c	-0.9335525
114	0xbe8ba890	-0.2727704
115	0xbeb5a7b3	-0.35479507
116	0x3e5651e9	0.20929684
117	0x3f927579	1.14421
118	0x3dfc642b	0.12323793
119	0x3e582582	0.21108058
120	0xbe20b7c5	-0.15695103
121	0x3f5c67b7	0.86095756
122	0x3e9df829	0.30853394
123	0xbec33d17	-0.38132545
124	0x3eb17a9a	0.3466385
125	0x3e6b2bb8	0.22965896
126	0x3eb00ddf	0.34385583
127	0x3e17eb6e	0.14835903
128	0xbe8dfe9e	-0.2773332
129	0x3ee212b5	0.44154897
130	0xbf3b608a	-0.7319418
131	0xc00054d7	-2.0051782
132	0xbee97646	-0.45598048
133	0x3f1fa3e6	0.62359464
134	0x3f6ea528	0.9322076
135	0xc01481c8	-2.3204212
136	0xbf20c615	-0.6280225
137	0xbdb48dc4	-0.08816102
138	0x3d91bc98	0.071160495
139	0x3e3dddbf	0.1854162
140	0x3f75e6d8	0.96055365
141	0xbf337d0d	-0.7011269
142	0xbde93841	-0.11387683
143	0x3da50799	0.0805809
144	0x3d14b9b3	0.03630991
145	0xbea993fd	-0.3312072
146	0xbee80dfa	-0.45323163
147	0xbec97650	-0.39348078
148	0x3e94cc92	0.29062325
149	0x3e0b7c00	0.13621521
150	0xbf4a6cc5	-0.7907222
151	0xbd6aa2d4	-0.05728419
152	0xbe14e778	-0.14541423
153	0xbf5db1df	-0.86599535
154	0x3f9317d2	1.1491644
155	0xbe9f22af	-0.3108115
156	0xbf10ccec	-0.56562686
157	0xbf618e8c	-0.88108134
158	0xbf125d29	-0.571734
159	0xbd90209b	-0.07037469
160	0x3e63ed09	0.2225839
161	0x3c9c134c	0.01905217
162	0xbdd62782	-0.10456754
163	0x3e1721ce	0.14758989
164	0xbe22c279	-0.15894498
165	0xbfdcf376	-1.7261798
166	0x3dd95bc3	0.10613205
167	0xbf76d584	-0.9641955
168	0x3f011951	0.50429255
169	0xbe0bf3d1	-0.13667227
170	0xbf5bdca9	-0.85883576
171	0xbf4eae33	-0.80734557
172	0x3e9cc19a	0.30616456
173	0xbd44820e	-0.047975592
174	0x3f081b22	0.531664
175	0x3f34297b	0.70375794
176	0x3ee004f1	0.4375377
177	0xbf9821bb	-1.1885294
178	0xbfc1ce2d	-1.5141045
179	0xbf57e1d8	-0.84328985
180	0x3ccf4e67	0.02530594
181	0x3f7e19d4	0.9925816
182	0xbf1788ce	-0.5919312
183	0xbfc02870	-1.501234
184	0x3e87e755	0.2654368
185	0xbdc314a4	-0.09525421
186	0xbe05e4a9	-0.13075508
187	0x3e81cf5b	0.25353512
188	0x3f0e495e	0.555807
189	0xbf1335eb	-0.5750415
190	0xbe869863	-0.26288137
191	0xbedead9a	-0.43491822
192	0x3e7da2f1	0.24769188
193	0x3c001f09	0.007819899
194	0x3f4ed24b	0.8078963
195	0xbd995ca9	-0.07488377
196	0x3e224cdf	0.15849636
197	0x3e4d1aea	0.20029798
198	0x3ee610e9	0.44934776
199	0xbdf06d1c	-0.11739561
200	0xbe0de95b	-0.1385855
201	0xbd9e7c7b	-0.077385865
202	0x3f569ab3	0.838298
203	0x3eb2b0f4	0.3490063
204	0xbed4d045	-0.41565147
205	0xbed543f2	-0.416534
206	0x3cca0b2f	0.024663536
207	0x3e507610	0.20357537
208	0xbd5b3206	-0.053514503
209	0x3c9a11d8	0.018807337
210	0x3cc158d3	0.023601925
211	0xbdb8a8e4	-0.09016588
212	0x3e70ef02	0.23528674
213	0x3c2a3da7	0.010390676
214	0xbe2eb2b5	-0.17060359
215	0xbf135de9	-0.5756517
216	0x3e363def	0.17797063
217	0x3dbcca2a	0.09218247
218	0xbe87795a	-0.2645977
219	0x3ec7e803	0.39044198
220	0xbe0a4fa4	-0.13506943
221	0xbd81a897	-0.06330984
222	0xbd09fcad	-0.033688236
223	0xbd2970be	-0.041367285
224	0x3f354b62	0.7081815
225	0xbef8c840	-0.4859028
226	0xbeb14fd8	-0.34631228
227	0x3e4ab3b3	0.19795112
228	0xbd905b1e	-0.07048629
229	0x3f7718f0	0.96522427
230	0x3d9fdbd0	0.07805598
231	0xbc96ff4c	-0.018432282
232	0xbf29a402	-0.6626588
233	0x3e3a74cc	0.18208617
234	0xbe43ad57	-0.19109093
235	0x3e82c159	0.25538138
236	0xbe5b80c0	-0.21435833
237	0x3c79dd52	0.015250521
238	0xbe92ea29	-0.28694275
239	0xbe14f89b	-0.1454796
240	0xbeafb93c	-0.3432101
241	0xbe9ad40d	-0.30239907
242	0x3fcd8385	1.6055762
243	0xbe8a1fed	-0.26977482
244	0x3ecb5fe3	0.39721593
245	0xbf7893e5	-0.9710067
246	0xbd83a98c	-0.06428823
247	0x3e396104	0.18103415
248	0xbdc5660e	-0.09638606
249	0xbee24af3	-0.44197807
250	0xbcce3bd1	-0.025175007
251	0x3dc5a72d	0.09651027
252	0xbe051ae1	-0.12998535
253	0xbde65455	-0.11246554
254	0xbec32d25	-0.3812038
255	0x3e246400	0.16053772

lstm.bias_ih_l0 f4 [256]
0	0x3f0ea116	0.5571455
1	0x3f02d6b6	0.5110887
2	0x3f48ed88	0.78487444
3	0xbd80fb49	-0.06297929
4	0x3e168890	0.14700532
5	0x3c9ca5ca	0.019122023
6	0xbebfa666	-0.3743164
7	0xc0031611	-2.0482218
8	0x3f18a61c	0.5962846
9	0xbfa26429	-1.2686816
10	0xbf0040d2	-0.5009891
11	0xbec659f8	-0.38740516
12	0xbda0746a	-0.07834704
13	0x3db18e17	0.086696796
14	0x3c90ec4d	0.017690802
15	0xbe8e756d	-0.27823964
16	0x3f367bb4	0.71282506
17	0x3eb0e58f	0.3455014
18	0x3eafc2ed	0.34328404
19	0x3f1685f2	0.58798134
20	0x3f09555f	0.5364589
21	0x3f1379dd	0.57607824
22	0x3e2a1395	0.16609032
23	0x3dec31ab	0.11532911
24	0xbe4806ff	-0.19533919
25	0x3fa4f372	1.2886794
26	0xbf3e37f9	-0.7430416
27	0x3f05011d	0.51954824
28	0x3ecbf994	0.3983885
29	0x3def9c5d	0.11699746
30	0x3e312754	0.17300159
31	0x3eeb2f7a	0.4593466
32	0x3e83e2d7	0.25759003
33	0xbf724fca	-0.94653
34	0x3e1a8a45	0.15091808
35	0xbf055e6e	-0.52097213
36	0xbed75980	-0.4206047
37	0xbf1bdd17	-0.6088423
38	0x3f5dae6f	0.8659429
39	0x3e8775bb	0.2645701
40	0xc00232c7	-2.0343492
41	0x3eceb1ef	0.40370128
42	0x3f2804be	0.65632236
43	0x3c049a37	0.008093408
44	0x3ec86d9c	0.39146125
45	0x3ed0d138	0.4078462
46	0xbfa654da	-1.2994645
47	0xbf968f55	-1.1762491
48	0xbf22abbe	-0.6354331
49	0xbf9dc67b	-1.2326196
50	0xbee884b7	-0.45413753
51	0x3e41e6d5	0.18935712
52	0x3f7d86d6	0.9903387
53	0x3ee732d5	0.4515597
54	0x3e40d849	0.18832506
55	0x3eaa3d12	0.33249718
56	0xbed040c2	-0.40674406
57	0x3ec6beef	0.38817546
58	0x3ebbf688	0.36711526
59	0x3e0fbe6a	0.14037481
60	0x3efe2c49	0.49643162
61	0x3f296c49	0.66180855
62	0xbdee2ae9	-0.11629278
63	0x3f4ffd93	0.812463
64	0x3de16c82	0.11007024
65	0xbe6414ff	-0.22273634
66	0x3e5ce9a9	0.2157351
67	0xbf324d59	-0.69649273
68	0x3e5f1b1a	0.21787682
69	0x3e938abf	0.28816792
70	0xbec057ed	-0.37567082
71	0x3de2a729	0.110670395
72	0x3dadb741	0.084822185
73	0xbf014756	-0.50499475
74	0xbeba2558	-0.36356616
75	0xbecab268	-0.39589238
76	0x3eb176d4	0.3466097
77	0xbe6350f7	-0.22198854
78	0x3e67eac5	0.22648151
79	0x3e721766	0.23641738
80	0x3f2474b6	0.64240587
81	0x3f0be039	0.5463901
82	0x3e97b0b8	0.29627013
83	0x3f35693d	0.70863706
84	0x3ea0b40f	0.31387374
85	0x3f0b010f	0.5429849
86	0x3ef98454	0.4873377
87	0x3ecf6575	0.40507093
88	0xbf172777	-0.59044594
89	0x3f479e29	0.7797571
90	0x3e12b76a	0.1432778
91	0x3ede809e	0.43457502
92	0x3d5cdbd3	0.05392058
93	0x3d9ee902	0.077592865
94	0x3e53d1fb	0.2068557
95	0x3e2039e3	0.15647082
96	0x3de35feb	0.11102279
97	0xbede2389	-0.43386486
98	0x3e3a27c4	0.18179232
99	0x3e2ea0d7	0.17053543
100	0x3e28c095	0.16479714
101	0x3e6ae318	0.22938192
102	0x3d9bef01	0.07613946
103	0x3ed1c355	0.4096934
104	0xbda96ace	-0.082723245
105	0x3d80f2d5	0.062963165
106	0x3dfe4a4b	0.12416514
107	0xbf483f56	-0.7822164
108	0x3ca7bfe7	0.020477248
109	0x3e08987c	0.13339418
110	0xbdf2a154	-0.11847177
111	0x3dfced2b	0.12349924
112	0xbeba7250	-0.3641534
113	0x3e144fef	0.14483617
114	0x3ed02555	0.40653482
115	0x3e323829	0.17404236
116	0x3d885e3b	0.06658598
117	0xbd14279f	-0.036170598
118	0xbe2962a3	-0.16541533
119	0x3e136a0c	0.14395922
120	0x3d2dd5e5	0.042440314
121	0x3ea55ac0	0.322958
122	0x3e5935b4	0.21211892
123	0x3e8a3ecd	0.27001038
124	0x3e932384	0.28738034
125	0x3f1a3b5e	0.6024684
126	0xbf3e9bf6	-0.7445673
127	0x3e5a77f1	0.21334817
128	0x3d3743b3	0.044742297
129	0x3f02c992	0.5108882
130	0x3dda91ee	0.10672365
131	0xbe27ee75	-0.16399558
132	0xbe15116a	-0.14557424
133	0xbe0e7882	-0.13913158
134	0xbd8b8b79	-0.06813712
135	0x3de384a7	0.11109286
136	0xbebb3cbd	-0.36569777
137	0x3e6489d2	0.223182
138	0xbd74b774	-0.059745267
139	0x3f4fd591	0.8118525
140	0xbfb0ca8a	-1.381181
141	0x3de40d4c	0.11135349
142	0xbda3a3e5	-0.07990245
143	0x3d6814db	0.056660514
144	0xbd19438d	-0.037417937
145	0x3e65bcb5	0.22435267
146	0xbd9cebec	-0.07662186
147	0xbe824111	-0.25440267
148	0xbf3338d1	-0.7000857
149	0xbcce57fd	-0.02518844
150	0xbd4aa08b	-0.049469512
151	0xbd83d827	-0.06437712
152	0xbc1c6b64	-0.009547088
153	0x3c756a2a	0.014978925
154	0xbe8ddbde	-0.27706808
155	0xbe2041a3	-0.15650038
156	0xbdd268de	-0.10273908
157	0xbca3a05c	-0.019973926
158	0xbded84ce	-0.11597596
159	0xbe0dfa25	-0.13864954
160	0x3e635dcb	0.22203748
161	0x3cb008b1	0.02148852
162	0x3e2fc96e	0.17166683
163	0x3e16eb58	0.14738214
164	0xbeef829d	-0.46779338
165	0x40070dca	2.1102166
166	0xbe387fd9	-0.1801752
167	0xbe04d50d	-0.12971897
168	0x3bfadc39	0.007655647
169	0x3e3dc539	0.18532266
170	0xbe4fc6b9	-0.2029065
171	0xbcfc8c57	-0.030828638
172	0x3ea9959b	0.33121952
173	0xbcbb4bb9	-0.022863256
174	0x3ce7088c	0.028202318
175	0xbe9eee07	-0.31040975
176	0xbdf9dd70	-0.12200439
177	0x3df762d4	0.12079397
178	0x40104900	2.2544556
179	0xbc9dc9f4	-0.019261338
180	0xbdc49369	-0.09598429
181	0x3eb23506	0.3480608
182	0x3e291554	0.16512042
183	0xbd9178de	-0.07103132
184	0x3ea4ad99	0.32163695
185	0x3b8f5060	0.004373595
186	0x3d5f2e0e	0.05448728
187	0x3dd065db	0.101756774
188	0x3e31548e	0.17317411
189	0x3dd9eecc	0.1064125
190	0xbdae4e00	-0.08510971
191	0xbec7fc36	-0.3905961
192	0x3edbab89	0.42904308
193	0x3e50f999	0.20407714
194	0x3e5fb12e	0.21844932
195	0xbf9aab7e	-1.2083585
196	0xbe979db3	-0.29612502
197	0x3e23050f	0.15919898
198	0xbf5aec8e	-0.85517204
199	0xbf6134bd	-0.879711
200	0x3f4e33ce	0.805478
201	0x3f022eec	0.5085285
202	0x3e0c08b1	0.1367519
203	0xbf5ceb47	-0.86296505
204	0x3f09eb53	0.538747
205	0xbf7c5b47	-0.9857678
206	0x3e3bcbec	0.18339509
207	0xbf95e982	-1.1711886
208	0x3d9743db	0.07385989
209	0x3f2a1276	0.6643442
210	0x3f739af1	0.95158297
211	0x3ed416cf	0.41423652
212	0xbf80b283	-1.0054477
213	0x3f10a7f9	0.56506306
214	0x3f9693bf	1.1763839
215	0x3d4b4fff	0.049636837
216	0xbe9f43ca	-0.31106406
217	0x3e47af18	0.19500387
218	0x3e70b10f	0.23505042
219	0x3f0aae86	0.5417255
220	0x3ebd3433	0.36953887
221	0x3f810f2e	1.0082757
222	0x3f7b9027	0.98266834
223	0x3ef6f820	0.4823618
224	0x3d2bf41d	0.04198085
225	0xbecce49a	-0.4001816
226	0xbc819db7	-0.015822275
227	0x3edca4ee	0.4309458
228	0xbf1a1260	-0.6018429
229	0xbda6984e	-0.081345186
230	0xbe5bd085	-0.21466263
231	0x3ed7586d	0.4205965
232	0xbf08be6a	-0.5341555
233	0x3e5ffc11	0.218735
234	0x3f848930	1.0354366
235	0xbf3261b8	-0.69680357
236	0x3f189a57	0.59610504
237	0x3dea25c4	0.114329845
238	0x3ca3012e	0.019898023
239	0xbf328cbd	-0.69746
240	0xbaf3873f	-0.0018579735
241	0xbfa09217	-1.2544583
242	0x3e59a383	0.21253781
243	0x3f760701	0.9610444
244	0x3eb8d47e	0.3609962
245	0x3d99ebe0	0.07515693
246	0x3eb29ef3	0.34886894
247	0x3dbbe0aa	0.09173711
248	0xbe456ef6	-0.1928061
249	0x3e63d69a	0.22249833
250	0xbb0bba5b	-0.0021320793
251	0x3eead18a	0.4586299
252	0x3f6aab9a	0.91668093
253	0xbe0845f1	-0.1330793
254	0xbf92d0f3	-1.1470016
255	0x3ec861ca	0.39137107

lstm.bias_hh_l0 f4 [256]
0	0x3f0ac774	0.5421059
1	0x3eaf7578	0.3426931
2	0x3f2e6339	0.6812015
3	0x3d9184d0	0.0710541
4	0x3c3ae2e5	0.011406635
5	0xbdbe6fc7	-0.092986636
6	0xbf1239f3	-0.57119673
7	0xbfff31a2	-1.9937022
8	0x3edd1e0f	0.43186995
9	0xbf93e822	-1.1555216
10	0xbf0c6897	-0.5484709
11	0xbe9bd6e3	-0.30437383
12	0x3d0ed141	0.03486753
13	0x3dd3f514	0.10349479
14	0x3e4afa0b	0.19821946
15	0xbea5e3bc	-0.3240031
16	0x3f1cf1df	0.61306566
17	0x3eaa7e85	0.33299652
18	0x3ef3ddec	0.4763025
19	0x3f16933a	0.588184
20	0x3ed3520b	0.4127353
21	0x3f23db93	0.6400692
22	0x3e4f17d9	0.20223941
23	0x3e5fd46a	0.21858373
24	0xbec6ed28	-0.3885281
25	0x3fb6df43	1.4286884
26	0xbf5661c7	-0.83742946
27	0x3ee850f9	0.45374277
28	0x3ed2b229	0.4115155
29	0x3d8d4f83	0.06899931
30	0x3e47885b	0.19485609
31	0x3ed95628	0.42448545
32	0x3e765b37	0.24058233
33	0xbf6e7cd0	-0.931592
34	0x3d2e4e13	0.042554926
35	0xbf3810f9	-0.719009
36	0xbe7bb928	-0.2458235
37	0xbf1ddcae	-0.61664855
38	0x3f6b4107	0.918961
39	0x3e760c52	0.24028137
40	0xc0031daa	-2.0486856
41	0x3e914f38	0.28380752
42	0x3f240862	0.6407529
43	0x3db02d68	0.086024106
44	0x3efb7245	0.49110618
45	0x3ecdf4cf	0.40225837
46	0xbfb79346	-1.4341819
47	0xbf9a80c8	-1.2070551
48	0xbf250556	-0.64461267
49	0xbf9f1c1c	-1.2430453
50	0xbed5b83e	-0.41742128
51	0x3e0fdf0e	0.14049932
52	0x3f5b147f	0.8557815
53	0x3ed04be6	0.40682906
54	0x3eb49bf0	0.3527522
55	0x3f09c272	0.53812325
56	0xbea13bc9	-0.31490925
57	0x3eb6f3c3	0.3573285
58	0x3eb4e961	0.35334304
59	0x3e23a014	0.15979034
60	0x3ea186dd	0.31548205
61	0x3f2ff392	0.68731034
62	0xbd352725	-0.044226784
63	0x3f32fb57	0.69914764
64	0x3e36a0b2	0.17834738
65	0xbe0eb03d	-0.13934417
66	0x3ec5f0a1	0.38660148
67	0xbf1ddb14	-0.6166241
68	0x3e544d09	0.20732512
69	0x3ea06d8b	0.31333575
70	0xbe508c7f	-0.20366095
71	0x3e95be29	0.29246643
72	0x3e631b2f	0.22178338
73	0xbf1042cf	-0.5635194
74	0xbed51e8c	-0.41624868
75	0xbf0f645a	-0.560125
76	0x3e94070a	0.2891162
77	0xbe800a2a	-0.25007755
78	0x3e63a6c2	0.22231582
79	0x3e5385b2	0.2065647
80	0x3eddb352	0.43300873
81	0x3ef98cc2	0.48740202
82	0x3eaab5fb	0.33341965
83	0x3f2b34d7	0.668775
84	0x3e006bde	0.12541148
85	0x3efc2bd5	0.4925219
86	0x3eee0c24	0.46493638
87	0x3e459aa3	0.1929727
88	0xbefee694	-0.49785292
89	0x3f2d6a4d	0.6774033
90	0x3e8b481d	0.27203456
91	0x3efe23a4	0.49636567
92	0xbdc6c23b	-0.09705015
93	0x3dca14f6	0.09867279
94	0x3e9da285	0.30788055
95	0x3e5c2bb8	0.21501052
96	0x3dbf9028	0.093536675
97	0xbe994774	-0.29937327
98	0x3e0df3ad	0.13862486
99	0x3e9f7ca0	0.3114977
100	0x3d0fc76a	0.035102285
101	0x3e5f3ff5	0.21801741
102	0x3dd277ec	0.102767795
103	0x3eb041e2	0.34425265
104	0xbdc86558	-0.09784955
105	0x3d7ba7bd	0.061439265
106	0x3d80ab7f	0.0628271
107	0xbf5f0aeb	-0.87126034
108	0x3e4068fe	0.18790051
109	0x3e744335	0.23853762
110	0xbe65b5de	-0.22432658
111	0x3e74cd28	0.23906386
112	0xbf0c4f62	-0.5480863
113	0x3da495a3	0.080363534
114	0x3e40a0b3	0.18811302
115	0x3e8a3c82	0.2699929
116	0xbde53a96	-0.11192815
117	0xbcad9552	-0.021189366
118	0xbda6d2ae	-0.08145653
119	0x3e186b99	0.14884795
120	0xbe3a75cf	-0.18209003
121	0x3e35ad62	0.17741922
122	0x3e08757e	0.1332607
123	0x3eb5137b	0.35366425
124	0x3e2528ad	0.16128798
125	0x3f010e17	0.50412124
126	0xbf29f3dd	-0.6638773
127	0x3eac984b	0.3370994
128	0x3dc872f0	0.097875476
129	0x3eda8e12	0.42686516
130	0x3db6d870	0.08928001
131	0xbe483b86	-0.19553956
132	0xbdfb0713	-0.12257209
133	0xbe17aeb9	-0.14812745
134	0x3cd2ea1c	0.025746398
135	0x3e8be520	0.27323246
136	0xbe4af311	-0.19819285
137	0x3dd97460	0.106179
138	0xbe175ffc	-0.14782709
139	0x3f3a86d6	0.72861993
140	0xbfc6a173	-1.551802
141	0x3d68bf18	0.056822866
142	0xbd44aced	-0.048016477
143	0x3e314715	0.17312272
144	0x3cd964d3	0.026537335
145	0x3e14a249	0.14515032
146	0xbd5d4870	-0.05402416
147	0xbeb08b55	-0.34481302
148	0xbf441243	-0.76590365
149	0xbd5dcd14	-0.054150656
150	0x3b9afc17	0.0047297585
151	0xbd3c593f	-0.04598355
152	0x3d44d31d	0.048052896
153	0xbe267530	-0.16255641
154	0xbe3dcc8a	-0.18535057
155	0xbd5f0ee5	-0.054457564
156	0xbdf0afe8	-0.117523015
157	0x3d9eb138	0.077486455
158	0xbdadf2c7	-0.08493572
159	0xbc49c108	-0.012314089
160	0x3e0bf7be	0.13668725
161	0x3dac505a	0.08413763
162	0x3db8a4f2	0.09015836
163	0xbcc8c832	-0.024509523
164	0xbebd344f	-0.3695397
165	0x400e7728	2.2260227
166	0xbe272d61	-0.16325904
167	0x3a13f1be	0.00056436274
168	0x3d7d0720	0.061774373
169	0x3c1b1a6b	0.009466748
170	0xbe8200ef	-0.25391337
171	0x3d5d7223	0.054063927
172	0x3efb86d2	0.49126297
173	0xbcdab1c4	-0.026696093
174	0x3d9f96e4	0.07792452
175	0xbe980e3c	-0.2969836
176	0xbde50fc2	-0.11184646
177	0xbd1ad7fd	-0.03780364
178	0x401c6672	2.4437528
179	0xbdb470ba	-0.088105634
180	0x3d54159f	0.051778432
181	0x3f00bb67	0.50285953
182	0x3e1eeb91	0.15519549
183	0xbe2cb33d	-0.16865249
184	0x3eeff6dd	0.4686803
185	0xbdd40c06	-0.10353856
186	0x3db54a57	0.0885207
187	0xbd60a192	-0.054841585
188	0x3e12b9d5	0.14328702
189	0x3e5f62ea	0.21815076
190	0xbe1207a8	-0.14260733
191	0xbe89306c	-0.26794755
192	0x3ec71750	0.38884974
193	0x3e7b5bc3	0.24546723
194	0x3dae4271	0.085087664
195	0xbf8f9f3b	-1.1220468
196	0xbe82c8c5	-0.255438
197	0x3dc5af78	0.09652609
198	0xbf4263ae	-0.7593335
199	0xbf4990ad	-0.7873638
200	0x3f4397e5	0.7640365
201	0x3ee766dc	0.45195663
202	0x3dfc6023	0.12323024
203	0xbf88ae1d	-1.0678135
204	0x3f03919d	0.51394063
205	0xbf7f3b54	-0.996999
206	0x3e7a7fcf	0.24462818
207	0xbfa39ed8	-1.278285
208	0x3e763807	0.2404481
209	0x3f22211c	0.6333177
210	0x3f69a841	0.9127236
211	0x3e4a6dc5	0.19768436
212	0xbf509849	-0.8148237
213	0x3f0f46fe	0.559677
214	0x3f9f32fa	1.2437432
215	0x3dc03212	0.0938455
216	0xbe5f07a7	-0.21780263
217	0x3ece50ee	0.4029612
218	0x3eb085b9	0.34477022
219	0x3edd74a2	0.43253046
220	0x3e796f6b	0.24358909
221	0x3f4509a2	0.76967824
222	0x3f5ccee7	0.8625321
223	0x3f042b9a	0.5162903
224	0x3e7161bf	0.23572443
225	0xbf1e00fe	-0.61720264
226	0x3e34ec7e	0.1766834
227	0x3e997f65	0.29980007
228	0xbed04989	-0.40681103
229	0xbe8440aa	-0.25830585
230	0xbe6923b3	-0.22767524
231	0x3f0f72db	0.5603463
232	0xbf0ca622	-0.54941
233	0x3e27c8ea	0.16385236
234	0x3f8e43a6	1.1114395
235	0xbf2591a8	-0.6467538
236	0x3f21cf00	0.6320648
237	0x3e12c080	0.14331245
238	0xbdc8e347	-0.09808975
239	0xbf101581	-0.5628281
240	0xbe510114	-0.20410568
241	0xbf9b39aa	-1.2126973
242	0x3e124fbf	0.14288233
243	0x3f94c0d5	1.1621348
244	0x3f0f2dbf	0.5592918
245	0x3e78167b	0.24227326
246	0x3ee60ddb	0.44932446
247	0xbcf0df51	-0.02940336
248	0xbe8da995	-0.27668443
249	0x3e2e6b17	0.17033039
250	0xbcd34f9f	-0.025794802
251	0x3f147a5b	0.579992
252	0x3f5affc6	0.8554653
253	0xbd0eb1ca	-0.03483752
254	0xbfa3662b	-1.2765554
255	0x3e9e1a86	0.3087961

lstm.weight_ih_l1 f4 [256, 64]
0	0xbdc96ac8	-0.0983482
1	0x3e766143	0.2406054
2	0xbcba7c19	-0.022764252
3	0xbf0592c3	-0.52177066
4	0x3e340f21	0.17583896
5	0x3bf6d7c9	0.007533048
6	0x3debe953	0.115191124
7	0x3d27f579	0.041005585
8	0xbeded004	-0.43518078
9	0xbe208e99	-0.15679397
10	0x3d64637b	0.055758934
11	0x3d7494bc	0.059712157
12	0xbe1c2a4b	-0.15250508
13	0xbec36253	-0.38160953
14	0xbe818b8a	-0.25301772
15	0x3e8ca2df	0.2746801
16	0xbe55a34a	-0.20863071
17	0x3f1d37dd	0.61413366
18	0xbec2adb6	-0.38023156
19	0xbe47176a	-0.19442526
20	0x3e85cba2	0.26131922
21	0xbee188c4	-0.44049656
22	0xbe148384	-0.14503294
23	0x3d346f0f	0.044051226
24	0x3df5df31	0.12005461
25	0xbe35a609	-0.17739119
26	0x3e070497	0.13185345
27	0xbc9a5d1e	-0.01884323
28	0x3e02524f	0.1272671
29	0xbe9b91c4	-0.30384648
30	0xbeb76045	-0.35815635
31	0xbf075f44	-0.5287974
32	0xbf64909f	-0.89283174
33	0xbd82acae	-0.06380592
34	0xbe095f36	-0.13415226
35	0x3ea427fb	0.32061753
36	0xbdf5efd7	-0.120086364
37	0x3d6a7787	0.057242896
38	0x3e4124b4	0.18861657
39	0xbe1682c8	-0.14698327
40	0xbc0da5e0	-0.008645505
41	0x3bf26baf	0.007398091
42	0xbd05eba9	-0.032695446
43	0x3df9c1b9	0.12195153
44	0xbd7b391e	-0.061333768
45	0xbe54d7a9	-0.20785393
46	0xbe220ef1	-0.15826012
47	0xbe6a8f4e	-0.22906229
48	0xbe200fa8	-0.15630972
49	0xbcabc662	-0.02096862
50	0x3f17686e	0.5914372
51	0xbe5d9342	-0.21638206
52	0xba2016df	-0.00061069237
53	0x3e45885f	0.19290303
54	0x3db899ba	0.09013696
55	0xbe0e72c7	-0.13910972
56	0x3e6e0495	0.23243935
57	0x3eecd1e1	0.46253875
58	0x3e14d465	0.14534147
59	0x3e2def4e	0.16985819
60	0x3ea5ddb6	0.32395715
61	0xbe74d946	-0.23911008
62	0xbede8579	-0.43461207
63	0xbeaac720	-0.33355045
64	0x3eb21148	0.3477881
65	0xbeb7eba9	-0.35921982
66	0x3eef5eba	0.46751958
67	0x3e326ba8	0.1742388
68	0xbe7a568f	-0.24447082
69	0x3f577857	0.84168
70	0xbce3b372	-0.027795527
71	0x3e18649e	0.14882132
72	0xbea33ac8	-0.31880784
73	0xbb0a57ea	-0.002110953
74	0xbe532cab	-0.20622508
75	0xbda37992	-0.07982172
76	0xbea3c6ff	-0.3198776
77	0x3c797eab	0.015227954
78	0xbf665232	-0.8996917
79	0xbe0d77e0	-0.1381526
80	0xbe2f6295	-0.1712745
81	0x3e7d0558	0.2470907
82	0xbe900f6c	-0.28136766
83	0xbe52a0b9	-0.20569123
84	0xbeb214c9	-0.34781483
85	0xbe826bfb	-0.25473008
86	0xbed335d1	-0.41251996
87	0x3cc6a2c1	0.024247529
88	0xbeb76f6f	-0.35827205
89	0xbebba3c9	-0.36648396
90	0x3e9ef0bf	0.3104305
91	0xbe14d251	-0.14533354
92	0xbf24e340	-0.64409256
93	0xbde534f0	-0.11191738
94	0xbebbeff3	-0.36706504
95	0xbe9391c0	-0.28822136
96	0x3f48ac3d	0.78387815
97	0x3daedae1	0.085378416
98	0x3e7651b3	0.24054603
99	0x3e59c615	0.21266969
100	0x3e9c8649	0.305712
101	0x3ea67ba6	0.3251621
102	0xbebeb6a2	-0.37248713
103	0xbeceb16a	-0.4036973
104	0xbe632c7a	-0.22184935
105	0x3ea8e49d	0.32986918
106	0xbe392bd0	-0.1808312
107	0xbe4a909f	-0.19781731
108	0x3d881eac	0.06646475
109	0x3f225663	0.63413066
110	0x3d896040	0.06707811
111	0xbe162d3e	-0.14665696
112	0x3e6af53d	0.22945113
113	0xbee68aa1	-0.4502764
114	0x3e8a2ada	0.26985818
115	0xbe2f9a1e	-0.17148635
116	0x3ce5ae3e	0.028037187
117	0xbc95d86d	-0.018291676
118	0x3eaea1fc	0.3410796
119	0xbe012c96	-0.12614664
120	0xbe2fb503	-0.17158894
121	0xbf82b0a2	-1.0210154
122	0x3de69829	0.11259491
123	0xbe7d70e4	-0.24750096
124	0x3e6bfd47	0.23045836
125	0x3e731665	0.23739012
126	0xbe9da70c	-0.3079151
127	0xbdb7eba6	-0.08980493
128	0xbdc35e17	-0.095394306
129	0x3e085122	0.133122
130	0xbe39fb0c	-0.18162173
131	0xbea8124c	-0.3282646
132	0x3d1af4ca	0.037831105
133	0xbc63c019	-0.01390078
134	0x3de54464	0.11194685
135	0xbe9c1d91	-0.30491307
136	0xbdce2b1c	-0.10066816
137	0x3d8a896a	0.06764491
138	0xbca2a4cb	-0.01985397
139	0x3d2ea6c6	0.042639516
140	0xbd0b27aa	-0.033973373
141	0xbc79c78a	-0.015245328
142	0xbc1b9179	-0.009495133
143	0x3e0457ad	0.1292407
144	0xbd80ba27	-0.06285506
145	0x3d4c8b89	0.04993776
146	0xbe1597ae	-0.14608642
147	0xbde59f09	-0.11211974
148	0x3e13681d	0.14395185
149	0xbe05b00d	-0.1305544
150	0xbd6d6645	-0.05795886
151	0xbded0a8e	-0.11574279
152	0x3d8c5311	0.06851781
153	0xbc85039d	-0.016237075
154	0x3de49cec	0.11162743
155	0xbeafebc0	-0.3435955
156	0x3d7b5b47	0.061366346
157	0xbe4c313d	-0.19940658
158	0xbe1b34a0	-0.15156794
159	0xbe18a6d6	-0.14907393
160	0xbc0ac333	-0.008469391
161	0xbc710d12	-0.014712589
162	0xbac08d1e	-0.0014690494
163	0xbe86ba2d	-0.26313916
164	0xbd86cee1	-0.06582428
165	0xbd404488	-0.046940356
166	0x3e3771e0	0.17914534
167	0xbe3564a7	-0.17714177
168	0x3d02dcb8	0.031948775
169	0x3cfbeb7d	0.030751938
170	0xbe0a5fda	-0.13513127
171	0xbc681413	-0.014164942
172	0x3da060ef	0.078309886
173	0xbe30dde0	-0.17272139
174	0xbc5ef329	-0.013607779
175	0xbdc9d2f4	-0.09854689
176	0x3cea135a	0.02857368
177	0xbd0a2fd7	-0.03373703
178	0xbe86abbf	-0.26302907
179	0xbdee33ff	-0.11631011
180	0xbc7729bb	-0.015085633
181	0x3e94eb13	0.29085597
182	0x3e1a0442	0.15040687
183	0xbeb57fb3	-0.3544899
184	0x3e3e60fb	0.18591683
185	0xbeada3b8	-0.3391397
186	0x3e99b4f2	0.30020863
187	0x3dfd038a	0.12354191
188	0x3df9eb42	0.12203075
189	0xbe588dbc	-0.21147817
190	0x3d3de768	0.046363264
191	0xbd9e8f76	-0.07742207
192	0xbe8b710c	-0.27234685
193	0xbd81f7b3	-0.06346073
194	0x3dfd0bff	0.12355804
195	0x3f023e60	0.50876427
196	0xbdd43843	-0.103622936
197	0x3e8c41b2	0.27393872
198	0xbd32164a	-0.043478288
199	0x3f8ac4d5	1.0841318
200	0x3e27aec1	0.16375257
201	0x3e99d62b	0.3004621
202	0x3cf67e85	0.030089626
203	0xbd5a7f77	-0.053344216
204	0x3e92a143	0.28638658
205	0xbbb4d810	-0.0055189207
206	0x3e016ab3	0.12638359
207	0xbeb46192	-0.3523069
208	0xbe3d8d69	-0.18510975
209	0x3e351b10	0.17686105
210	0x3ebefcbe	0.37302202
211	0xbd612c03	-0.054973613
212	0x3e718bb7	0.23588453
213	0xbe24d95e	-0.16098544
214	0x3fbdb225	1.481999
215	0xbf0883ce	-0.5332612
216	0x3dd0599b	0.10173341
217	0x3f65d810	0.8978281
218	0x3ebe87d5	0.37213007
219	0x3f852b3d	1.040382
220	0x3e9770cc	0.29578245
221	0x3fa38e28	1.2777758
222	0x3f36a681	0.71347815
223	0xbe509f34	-0.20373231
224	0x3e2e289e	0.17007682
225	0xbe4a3787	-0.19747745
226	0x3db9f47d	0.090798356
227	0xbd8340fa	-0.06408878
228	0xbe5d770e	-0.21627447
229	0x3e21c605	0.15798195
230	0x3ea00efe	0.31261438
231	0x3e5d41ba	0.21607104
232	0xbe540f99	-0.20709075
233	0xbde361ff	-0.11102676
234	0x3f384b9c	0.7199037
235	0xbeb74fda	-0.3580311
236	0x3d88b5a8	0.06675273
237	0x3bc38907	0.0059672627
238	0xbe91a9f6	-0.28449982
239	0xbe538a75	-0.20658286
240	0x3f566c72	0.83759224
241	0x3f2148b6	0.63001573
242	0x3ea6c5b2	0.32572705
243	0x3f9e8636	1.2384708
244	0x3c12d2de	0.0089614075
245	0xbe92a921	-0.2864466
246	0xbdac63ce	-0.08417474
247	0x3f192d50	0.59834766
248	0x3e4f3906	0.20236596
249	0xbd1bf51e	-0.03807556
250	0x3e0af705	0.13570793
251	0x3e5a63a6	0.21327075
252	0xbe9afa72	-0.302692
253	0xbb611141	-0.003434256
254	0x3dbed9d1	0.09318889
255	0x3da0593b	0.07829519

lstm.weight_hh_l1 f4 [256, 64]
0	0xbe8c0dd6	-0.27354306
1	0x3f12c9db	0.57339257
2	0xbe39d26d	-0.18146677
3	0xbe953d61	-0.2914839
4	0x3fc861ce	1.5654848
5	0x3f681050	0.9064989
6	0x3f74a948	0.955708
7	0xbeab6641	-0.3347645
8	0xbe99342d	-0.2992262
9	0x3f75dca7	0.96039814
10	0x3e307371	0.17231537
11	0xbe455beb	-0.19273345
12	0x3dfb775f	0.122786276
13	0x3f22f07e	0.6364821
14	0xbea413ad	-0.3204626
15	0xbe807603	-0.25090036
16	0x3e97ff8e	0.2968716
17	0x3f17a3a3	0.59234065
18	0x3ede77dd	0.43450823
19	0xbebd3e92	-0.369618
20	0xbe87f1f5	-0.26551786
21	0x408de950	4.4347305
22	0x3f92f15a	1.1479905
23	0x3f959718	1.1686735
24	0x3dfd0364	0.12354162
25	0xc04dc26a	-3.214991
26	0x401b0c2f	2.4226186
27	0x3d6c4a24	0.057687894
28	0x3f37643f	0.7163734
29	0xbf3ab972	-0.7293922
30	0x3ff65145	1.9243551
31	0x3ec980fc	0.3935622
32	0x3d68dc04	0.05685045
33	0x3ece739d	0.4032258
34	0xbebc4ca3	-0.3677722
35	0xbf6e0bcd	-0.92986757
36	0xbdf1cf8f	-0.11807167
37	0xbebc8514	-0.3682028
38	0xbfa33d36	-1.2753055
39	0x3f70b738	0.9402957
40	0xbed9dfc3	-0.4255353
41	0xbf29b224	-0.66287446
42	0xbf88ffc8	-1.0703058
43	0x3e1a7fd1	0.1508782
44	0xbf56d112	-0.83912766
45	0x3e3d6d1c	0.18498653
46	0xbf802ce6	-1.0013702
47	0x3f021958	0.5081992
48	0x3f009b7b	0.50237244
49	0x3e7a4abb	0.2444257
50	0xbecb9ec7	-0.39769575
51	0xbcdca722	-0.026935164
52	0xc0305389	-2.7550986
53	0x3e154e8c	0.14580745
54	0x3cc9d773	0.024638867
55	0xbe102b70	-0.1407907
56	0xbf2904ee	-0.6602315
57	0xc0256a67	-2.5846193
58	0x3d3563d9	0.044284675
59	0xbe7ac966	-0.2449089
60	0xbf3a2bca	-0.72723067
61	0x3f524ac1	0.82145315
62	0x3f530f67	0.8244538
63	0xbf368ea2	-0.7131139
64	0x3f887373	1.0660232
65	0xbf93dbc5	-1.1551443
66	0x3f06fb61	0.52727324
67	0xbe68128d	-0.22663327
68	0x3f51a701	0.8189545
69	0xbf854eef	-1.0414714
70	0x3e85e09c	0.26147926
71	0x3e3465aa	0.17616907
72	0x3eaed2a2	0.34145075
73	0x3e13d2b5	0.14435847
74	0xbba72555	-0.005100886
75	0xbe8cbf32	-0.2748962
76	0xbe922a68	-0.28547978
77	0x3d3a4ad2	0.04548151
78	0xbe8e4a1a	-0.2779091
79	0xbe729cae	-0.23692581
80	0x3d5b4043	0.05352808
81	0x3e3bbc55	0.18333562
82	0x3f1d1818	0.6136489
83	0x3f6b23f1	0.9185172
84	0x3e08468c	0.13308161
85	0x3e59beb2	0.2126415
86	0xbf841f69	-1.0322086
87	0x3ebbeedb	0.3670567
88	0x3e18ed4c	0.14934272
89	0xbd17e7b0	-0.03708619
90	0xbf38b316	-0.72148263
91	0xbef9994d	-0.48749772
92	0x3e1c0351	0.1523564
93	0x3eb770ce	0.3582825
94	0xbfbc1750	-1.4694614
95	0x3e4393f8	0.19099414
96	0xbe496dda	-0.19670811
97	0x3f16e0da	0.58936846
98	0xbf2b91d4	-0.6701939
99	0x3ed1ae03	0.40953073
100	0x3cc6b3b4	0.024255611
101	0x3fb0f49d	1.382465
102	0xbd35c1e6	-0.04437437
103	0x3ee95c3d	0.45578185
104	0xbf03f662	-0.51547825
105	0x3e491808	0.19638073
106	0x3e598a12	0.21244076
107	0xbf0e2787	-0.55529064
108	0xbecf7f4d	-0.4052681
109	0x3f299b4f	0.6625261
110	0x3def77e8	0.11692792
111	0xbf4bc97b	-0.7960431
112	0xbf3ecc6a	-0.7453066
113	0xbe699362	-0.22810128
114	0x3f4711fb	0.7776181
115	0x3e234eef	0.1594808
116	0x3c21a6ed	0.009866458
117	0x3f0d7ad7	0.55265564
118	0xbe913c44	-0.28366292
119	0x3eeffbb1	0.46871713
120	0x3f601b33	0.875415
121	0x3e1a2e31	0.15056683
122	0xbe858d4f	-0.26084372
123	0xbf3752c6	-0.7161068
124	0xbcfeb120	-0.03109032
125	0x3e57987c	0.21054262
126	0xc07342a5	-3.8009427
127	0x3da4ed3d	0.08053062
128	0xbe06d814	-0.13168365
129	0xbf3d0d09	-0.73848015
130	0x3d6b8831	0.05750293
131	0x3dc6291a	0.09675808
132	0x3e6ac8ad	0.22928114
133	0x3d9686e4	0.07349947
134	0x3d811ca1	0.06304289
135	0xbc4d5da9	-0.012534537
136	0xbf3d133c	-0.73857474
137	0xbe4d7292	-0.20063236
138	0xbf07cb4f	-0.530446
139	0xbe04c716	-0.1296657
140	0x3c359259	0.011082255
141	0xbf105d25	-0.5639213
142	0x3fa2aa66	1.2708251
143	0xbd4e0fe7	-0.050308134
144	0xbf68ed9d	-0.9098757
145	0x3f23ee56	0.64035547
146	0xbe3e1f91	-0.18566729
147	0xbe7490bd	-0.23883338
148	0xbdf4d0a0	-0.119538546
149	0x3dfbc8c2	0.12294151
150	0xbe8040a1	-0.25049308
151	0x3e737f3e	0.23779008
152	0xbe8c6847	-0.27423307
153	0x3f4bc555	0.7959798
154	0x3eb8fce9	0.36130455
155	0x3eaf2cc9	0.34213856
156	0x3bfc96d9	0.007708412
157	0x3f631940	0.88710403
158	0xc03c2eeb	-2.9403636
159	0x3db997a9	0.0906213
160	0x3d174cda	0.036938526
161	0x3edaede2	0.42759615
162	0xbe6d3112	-0.2316325
163	0xbf045467	-0.5169129
164	0x3bab65b9	0.005230632
165	0x3fc2ec87	1.5228432
166	0x3f7667e8	0.962523
167	0x3ee28dd7	0.4424884
168	0x3eced2ae	0.4039511
169	0xbe357258	-0.177194
170	0xbdae8587	-0.08521562
171	0x3c6f872e	0.014619632
172	0x3f0e4546	0.5557445
173	0xbe553084	-0.20819288
174	0x3eb4bfb6	0.35302514
175	0xbdd75baa	-0.105155304
176	0x3cc2bc7d	0.023771519
177	0x3df3dbc4	0.11907151
178	0x3fb94861	1.4475213
179	0xbe297510	-0.16548562
180	0xbd879a98	-0.06621283
181	0xbe22de72	-0.15905169
182	0x3f579a71	0.84220034
183	0xbe8d1f3c	-0.27562892
184	0x3db12013	0.08648696
185	0x3ec23b5e	0.3793592
186	0x3e43e23e	0.19129273
187	0x3eadf70c	0.33977544
188	0xbf3a566f	-0.7278814
189	0x3e921355	0.28530374
190	0xbe8a69f3	-0.27033958
191	0xbd7628d2	-0.060097523
192	0x3bf8d5d8	0.0075938515
193	0x3e57fc4b	0.21092336
194	0x3eba511e	0.36390013
195	0x3ffe3246	1.9859092
196	0x3daa3e02	0.08312608
197	0x3e24d56b	0.16097037
198	0x3ea28fd2	0.3175035
199	0xbed86cc7	-0.4227049
200	0x3f452355	0.7700704
201	0x3e5b8853	0.21438722
202	0xbe8322ab	-0.25612387
203	0x3d18c805	0.03730013
204	0x3c8df140	0.017326951
205	0x3cca8975	0.024723748
206	0xbdc384ae	-0.09546791
207	0x3e837217	0.2567298
208	0xbf0063d4	-0.50152326
209	0xbe186f5e	-0.14886233
210	0xbbd70fd5	-0.0065631666
211	0xbee6d718	-0.45085979
212	0x3e9eeb90	0.31039095
213	0xbe19f968	-0.15036547
214	0x3e27b0cc	0.16376036
215	0xbe6368a4	-0.22207886
216	0x3f69d474	0.913398
217	0xbe35070d	-0.17678471
218	0x3d30ba0d	0.04314618
219	0xbdf1a82f	-0.117996566
220	0x3e38df04	0.18053824
221	0x3e3e0dd8	0.18559968
222	0xbf7c978a	-0.9866873
223	0xbf3f361e	-0.7469195
224	0xbe8c04ae	-0.2734732
225	0x3cf1bc0b	0.029508611
226	0xbeba07f2	-0.36334187
227	0xbe5ac2b3	-0.21363334
228	0x3ecfd306	0.40590686
229	0x3f811e81	1.0087434
230	0x3dcb479c	0.09925768
231	0x3f8297ea	1.020261
232	0x3d71925e	0.058977477
233	0xbe490616	-0.19631228
234	0xbdea66ce	-0.1144539
235	0xbea9a981	-0.33137134
236	0xbd59aeab	-0.053145092
237	0xbeedb705	-0.46428695
238	0x3f0eac5e	0.5573176
239	0x3e3f8c84	0.18705946
240	0x3e94fb70	0.29098082
241	0x3da8f009	0.08248908
242	0xbe160cc8	-0.14653313
243	0xbd87cfac	-0.06631407
244	0x3f1c7d15	0.6112836
245	0xbe84e3cc	-0.25955045
246	0x3e6e376e	0.23263332
247	0xbf0fabc5	-0.56121475
248	0xbe10dc21	-0.14146473
249	0x3e1f91f8	0.15583026
250	0x3d981502	0.07425882
251	0xbee04082	-0.43799216
252	0xbddd4fc9	-0.108062334
253	0xbe796c95	-0.24357827
254	0xbdef267f	-0.116772644
255	0xbdff92c3	-0.124791645

lstm.bias_ih_l1 f4 [256]
0	0xbe3b5a33	-0.18296127
1	0x3eb17b3d	0.34664336
2	0xbda5fe22	-0.081051126
3	0xbe4ddaaa	-0.20102945
4	0xbe62c9ea	-0.22147337
5	0xbc33f014	-0.010982532
6	0xbdebb646	-0.11509375
7	0xbcbe5764	-0.02323503
8	0x3eaf334f	0.34218833
9	0xbcc88732	-0.024478529
10	0xbc3923dd	-0.011300054
11	0x3e036363	0.12830882
12	0x3d0d447b	0.034489136
13	0xbe6a5287	-0.22883044
14	0x3f08336b	0.5320346
15	0xbe2c35a0	-0.16817331
16	0xbeabb458	-0.3353603
17	0x3eab9f22	0.33519846
18	0xbea2e6c5	-0.31816688
19	0xbc5023d8	-0.012703858
20	0xbdd3d1ba	-0.103427365
21	0xbe267cdd	-0.16258569
22	0x3e42ee7e	0.1903629
23	0x3d6403e5	0.055667777
24	0xbd3e3005	-0.046432514
25	0xbe91ce7a	-0.28477842
26	0xbea97ba3	-0.3310214
27	0x3da95d3b	0.082697354
28	0x3e315963	0.17319255
29	0x3e9f42ac	0.31105554
30	0xbe13e7c3	-0.14443879
31	0xbdc7974a	-0.09745653
32	0x3e7915f1	0.24324776
33	0xbd4a9336	-0.049456798
34	0xbe7bb0e7	-0.24579202
35	0xbe3835b0	-0.1798923
36	0xbe6c7026	-0.23089656
37	0xbda29029	-0.079376526
38	0xbd155d01	-0.03646565
39	0xbe682768	-0.22671282
40	0xbd699fdd	-0.057037223
41	0xbcad2201	-0.021134378
42	0xbd4a9582	-0.049458988
43	0xbe2370f3	-0.15961055
44	0x3d9ba2a1	0.075993784
45	0x3dcbb1cd	0.09946022
46	0x3e64e3cd	0.22352524
47	0xbe094568	-0.13405383
48	0xbea82079	-0.32837275
49	0xbcf98419	-0.030458497
50	0x3e276171	0.16345765
51	0x3eb75220	0.35804844
52	0x3ea40f4b	0.32042918
53	0x3e62b535	0.22139437
54	0xbdb4735a	-0.08811064
55	0xbe41a158	-0.18909204
56	0xbd2839c7	-0.041070726
57	0x3d22bd47	0.03973129
58	0x3d8fcdd4	0.070216805
59	0xbda0624c	-0.07831249
60	0xbe8558cb	-0.26044306
61	0xbeb945d2	-0.3618608
62	0xbce9e402	-0.028551105
63	0xbe39fefc	-0.18163675
64	0xbd9ef9a2	-0.077624574
65	0x3dbb7d4b	0.09154757
66	0xbe037a6e	-0.12839672
67	0x3ed61d5b	0.4181927
68	0x3be2abc5	0.006917449
69	0x3e410323	0.18848853
70	0xbdd2c0d8	-0.10290688
71	0x3d476bc9	0.048686776
72	0x3de2c1ca	0.110721186
73	0xbe3d61c8	-0.18494332
74	0x3ec3915f	0.38196847
75	0x3d330bb6	0.04371234
76	0x3ec50e09	0.3848727
77	0xbcbe7bc3	-0.023252374
78	0xbdb810b0	-0.08987558
79	0x3dfb84bc	0.122811764
80	0xbe419dad	-0.18907805
81	0xbe959e57	-0.29222366
82	0x3d04627e	0.032320492
83	0x3e447b16	0.19187579
84	0x3d9bf313	0.07614722
85	0xbdfc019c	-0.123049945
86	0x3f20e883	0.62854785
87	0x3d18db89	0.03731874
88	0x3e6a827c	0.22901338
89	0x3e921e4e	0.28538746
90	0xbdc9c14d	-0.09851322
91	0x3e7f6ad8	0.24943101
92	0x3ef5f9d1	0.48042157
93	0x3e338bd2	0.17533806
94	0x3ddbe650	0.10737288
95	0x3f2e7e0f	0.681611
96	0x3e5eec19	0.21769752
97	0x3b5cdc29	0.0033700562
98	0x3d328ffd	0.04359435
99	0x3e30e952	0.17276505
100	0x3e90b123	0.28260145
101	0xbd714882	-0.05890704
102	0x3db5e81a	0.088821605
103	0x3e6bd022	0.23028615
104	0xbe144282	-0.14478496
105	0x3db48152	0.088137284
106	0xbd42f0f8	-0.047593087
107	0x3eb73eaa	0.35789996
108	0xbcd237cb	-0.02566137
109	0x3dcef668	0.10105592
110	0x3e8a100e	0.26965374
111	0xbdd6f7b0	-0.104964614
112	0x3ec014b4	0.37515795
113	0x3f5ce564	0.8628752
114	0x3ca1cdc7	0.019751443
115	0x3f0a5c4a	0.5404707
116	0x3e2b229b	0.1671242
117	0xbe32e82c	-0.17471379
118	0x3cc80638	0.024417028
119	0xbe0e09a6	-0.13870868
120	0x3e1016f6	0.14071259
121	0x3dc7eeac	0.0976232
122	0xbea9937f	-0.33120343
123	0xbe4ce7c5	-0.20010288
124	0x3d81b9d4	0.06334272
125	0x3de89d95	0.113581814
126	0x3de426fe	0.1114025
127	0xbd5789c0	-0.052621603
128	0xbdde16f7	-0.10844224
129	0x3e323e5a	0.17406598
130	0xbd90eda9	-0.0707658
131	0xbd397fde	-0.04528796
132	0xbd9fe1f3	-0.07806768
133	0xbd86aefc	-0.06576344
134	0x3d745679	0.05965278
135	0x3d869ed8	0.06573266
136	0x3e561337	0.20905767
137	0xbb7d8678	-0.0038684886
138	0x3cd8370d	0.026393438
139	0xbd5920b7	-0.053009715
140	0x3d37b5f4	0.04485126
141	0x3e41bceb	0.18919723
142	0xbd5de5c0	-0.054174185
143	0x3e282efa	0.1642417
144	0xbd1798b1	-0.037010852
145	0x3e5ea80a	0.2174379
146	0xbe4ddc03	-0.20103459
147	0xbd758876	-0.059944592
148	0xbd4074c3	-0.046986353
149	0x3dca0610	0.098644376
150	0x3e91641a	0.28396684
151	0x3e40c9d0	0.18826985
152	0x3e130a6f	0.14359449
153	0xbda9e725	-0.082960404
154	0x3dc59057	0.09646671
155	0xbe49eebe	-0.19719979
156	0x3e8a9965	0.27070156
157	0xbd8b91f8	-0.06814951
158	0xbdeccefc	-0.11562917
159	0x3ea182ad	0.3154501
160	0xbda3ec7e	-0.08004092
161	0x3cb23dd3	0.021757996
162	0x3cfbf342	0.030755643
163	0x3e45570e	0.1927149
164	0xbe236ce6	-0.1595951
165	0x3d1a0093	0.037598204
166	0x3e15e81d	0.14639325
167	0x3e0db7b4	0.13839608
168	0xbded4367	-0.115851216
169	0x3e2209bd	0.15824027
170	0x3ec5ac6a	0.38608104
171	0xbe5252ad	-0.20539351
172	0xbea207de	-0.31646627
173	0x3def7e50	0.11694014
174	0xbe5101ad	-0.20410796
175	0x3e39c036	0.18139729
176	0x3e022a61	0.12711479
177	0x3d252bd1	0.04032499
178	0x3e1dc753	0.15408067
179	0xbe09d816	-0.13461336
180	0x3eb26e0b	0.3484958
181	0x3e580ad0	0.21097875
182	0x3c6a26ba	0.01429146
183	0xbe5cc268	-0.21558535
184	0x3dc2d3ac	0.095130295
185	0xbe40b8fe	-0.18820569
186	0xbd2f66dd	-0.042822707
187	0xbed78253	-0.42091617
188	0xbdc507f3	-0.09620657
189	0x3c10334e	0.0088012945
190	0xbd567fbd	-0.052367914
191	0xbe7fbfbb	-0.24975483
192	0x3e90ccc5	0.28281227
193	0x3d1dedc6	0.038556837
194	0xbe03be35	-0.12865527
195	0x3e42cbcc	0.19023055
196	0x3e98b77f	0.29827496
197	0xbdb8c221	-0.09021402
198	0x3d8dcfaf	0.06924378
199	0x3d10c2de	0.03534209
200	0xbe2f3530	-0.17110133
201	0x3d107679	0.035269234
202	0x3f7f0bf5	0.9962762
203	0xbba4001c	-0.005004896
204	0x3ee5ac46	0.44857997
205	0xbd30664c	-0.043066308
206	0xbc6688d5	-0.014070709
207	0xbebd65fa	-0.36991864
208	0xbe409e20	-0.1881032
209	0xbdcdb7a3	-0.100447915
210	0x3e33586e	0.17514202
211	0x3eb66e87	0.356312
212	0xbdf61b85	-0.12016968
213	0x3d5748a6	0.052559517
214	0x3ca4f2f3	0.020135378
215	0xbc7d43ff	-0.015458106
216	0xbe8ea739	-0.27861956
217	0x3db5da10	0.08879483
218	0xbdb2bedc	-0.0872781
219	0x3d606b96	0.054790102
220	0xbee87439	-0.4540117
221	0xbdcd9bf9	-0.10039515
222	0x3cd6bf56	0.026214283
223	0x3e8bc1b7	0.2729623
224	0xbd0ca668	-0.034338385
225	0xbe6cdefc	-0.23131937
226	0x3e685bc4	0.22691256
227	0xbe0bfa7d	-0.13669772
228	0xbe0a616b	-0.13513725
229	0x3d7e60b5	0.062103946
230	0xbd7a33ca	-0.061084546
231	0x3ef2efa4	0.47448456
232	0x3e1ea9b5	0.15494426
233	0x3f1907ba	0.59777415
234	0x3cf52ed4	0.029929556
235	0x3ea44b5c	0.32088745
236	0xbdb1e2d9	-0.08685846
237	0xbd8dc9bc	-0.069232434
238	0x3ac1be0c	0.001478137
239	0xbdac3b3c	-0.084097356
240	0x3f1d1e15	0.61374027
241	0x3ebfb91b	0.37445912
242	0x3dfe67a1	0.124221094
243	0xbe368a42	-0.17826179
244	0x3e458bd0	0.19291615
245	0x3d9392a4	0.07205704
246	0xbe982f3c	-0.29723537
247	0x3d1c8adb	0.03821836
248	0x3e043336	0.1291016
249	0xbe053af3	-0.13010769
250	0xbe0ad467	-0.13557588
251	0x3eb3da2f	0.35127398
252	0xbe4b5020	-0.19854784
253	0x3f299d5a	0.66255724
254	0xbd2fa5b9	-0.042882655
255	0xbe090a83	-0.13382916
