models/v2/LSTM_xy_epoch_140_h-h_8-12_pt1_pf1.2.pth (torch, 341087 bytes, 14 tensors)

lstm.weight_ih_l0 f4 [256, 2]
0	0x3f15beb3	0.5849411
1	0xbe4272cb	-0.18989103
2	0x3ea068a8	0.31329846
3	0x3e403c2e	0.18772957
4	0xbd3f5dd1	-0.04672033
5	0x3e18b7ed	0.14913912
6	0x3f108629	0.5645471
7	0xbf0a3189	-0.53981835
8	0x3f1f6d3f	0.6227607
9	0xbead1062	-0.33801562
10	0xbeff120b	-0.49818453
11	0xbe46d2a1	-0.19416286
12	0x3e6d98ed	0.23202868
13	0x3cd4d3c5	0.025979886
14	0xbe988607	-0.29789755
15	0x3e7dc907	0.24783717
16	0x3efef811	0.49798635
17	0xbf365d77	-0.71236366
18	0x3d852953	0.065020226
19	0x3ccbe7c6	0.024890792
20	0x3e4300eb	0.19043319
21	0xbe2d92fe	-0.16950604
22	0x3ec4ac3c	0.38412654
23	0x3e4eea05	0.20206459
24	0x3d8e8231	0.06958426
25	0xbd2ca327	-0.04214778
26	0x3f20f933	0.6288025
27	0x3e1c3137	0.15253149
28	0x3f16f2ec	0.5896442
29	0xbf2233ad	-0.633601
30	0x3f02575c	0.5091455
31	0xbf1b01a3	-0.6054937
32	0xbe39d20c	-0.18146533
33	0x3e122240	0.14270878
34	0x3f194ddc	0.5988443
35	0xbe65887b	-0.22415344
36	0x3f29759f	0.661951
37	0xbe8d85a5	-0.27641025
38	0xbe56d7f7	-0.20980822
39	0x3dcf17a6	0.101119325
40	0x3f44416a	0.76662314
41	0xbe19d0b8	-0.15021026
42	0xbe17968a	-0.1480352
43	0x3e93f225	0.2889568
44	0x3f14afe8	0.5808091
45	0xbf011c13	-0.5043346
46	0x3e8f311f	0.27967164
47	0x3ee15bbe	0.44015306
48	0x3f3b198d	0.7308586
49	0x3ede6944	0.43439686
50	0xbe1e5103	-0.15460591
51	0x3e6a824f	0.22901271
52	0x3e309360	0.17243719
53	0x3f0d11f9	0.5510555
54	0x3f121d35	0.57075816
55	0xbebb183b	-0.36541924
56	0x3e0c8942	0.13724235
57	0x3f44c537	0.76863426
58	0x3f29bf15	0.66307193
59	0xbea06258	-0.3132503
60	0x3f19de0e	0.60104454
61	0xbef46ac5	-0.4773771
62	0x3f152d9a	0.5827271
63	0xbeac028e	-0.335957
64	0xbe15842f	-0.14601205
65	0x3e191fa2	0.14953473
66	0x3e0d735c	0.13813537
67	0xbd27ba3d	-0.040949095
68	0x3f0eaca5	0.55732185
69	0xbe9ac491	-0.30228093
70	0xbeb0efa2	-0.34557825
71	0x3d47ba7e	0.048761837
72	0x3f120773	0.57042617
73	0xbf2a4147	-0.66505855
74	0x3e5a8cb8	0.21342742
75	0xbe5fd1a7	-0.2185732
76	0x3ef973b3	0.48721084
77	0xbf10c3bd	-0.5654867
78	0x3ec2d98c	0.380566
79	0xbf26f6bd	-0.6522024
80	0xbe6c1690	-0.23055482
81	0x3e667b9c	0.2250809
82	0x3f23f1fe	0.64041126
83	0xbe6820d7	-0.22668777
84	0x3f06a982	0.526024
85	0xbf126007	-0.57177776
86	0x3f031c09	0.51214653
87	0xbf189826	-0.5960716
88	0x3f005dde	0.5014323
89	0xbf394930	-0.723773
90	0xbe04b76c	-0.12960595
91	0x3e0b8772	0.13625887
92	0x3d36c1f9	0.04461858
93	0xbe871277	-0.26381275
94	0x3e417ffa	0.18896475
95	0x3eef0bf3	0.46688804
96	0x3ece8abc	0.4034022
97	0x3f286c85	0.6579059
98	0xbe86f94b	-0.2636207
99	0x3e6713c8	0.2256614
100	0x3e570c9a	0.21000901
101	0xbe36dcc6	-0.17857656
102	0x3f1ee350	0.620656
103	0xbee5bda0	-0.44871235
104	0x3ee2393b	0.44184288
105	0x3f0089bc	0.50210166
106	0xbedea8fa	-0.43488294
107	0x3dba5f78	0.091002405
108	0x3efb3e12	0.49070793
109	0xbe6ae691	-0.22939517
110	0x3f072585	0.52791625
111	0xbedcef7a	-0.43151456
112	0x3f218406	0.63092077
113	0xbf17f2c6	-0.5935482
114	0xbe197fd9	-0.14990176
115	0x3e2933e0	0.16523695
116	0xbe838a7a	-0.25691587
117	0xbe0bc1df	-0.13648175
118	0x3f23e080	0.64014435
119	0xbf011d4f	-0.50435346
120	0x3f18e4c2	0.59724057
121	0xbdeba362	-0.11505772
122	0xbe80d89d	-0.25165263
123	0xbfadd4ba	-1.3580544
124	0x3f2fe6e0	0.6871166
125	0xbe2f0604	-0.17092139
126	0xbe0e276c	-0.13882226
127	0x3e8eed70	0.27915525
128	0x3ef7fee9	0.4843667
129	0xbea02589	-0.31278637
130	0xbeebd502	-0.4606095
131	0x3ec0456d	0.37552968
132	0x3ef74faf	0.4830298
133	0xbea3de42	-0.32005507
134	0x3e6ff462	0.23433068
135	0xbf1744e6	-0.59089506
136	0x3ec8a414	0.39187682
137	0xbe27e269	-0.16394962
138	0x3eb101e0	0.34571743
139	0xbece8d1e	-0.4034204
140	0xbeb6af95	-0.35680833
141	0x3e9979ae	0.29975647
142	0x3e5aa7ba	0.21353045
143	0xbe816a70	-0.25276518
144	0x3ec479a9	0.3837407
145	0xbec72d20	-0.38901615
146	0x3e13180c	0.14364642
147	0xbe2d66af	-0.16933702
148	0x3cf7a373	0.030229306
149	0xbf63b52e	-0.88948333
150	0x3e2586ff	0.16164778
151	0x3e993ea5	0.29930606
152	0x3f0a0391	0.5391169
153	0xbea4e027	-0.32202265
154	0xbea89e8e	-0.32933468
155	0xbf37dc17	-0.71820205
156	0x3e97074f	0.29497764
157	0xbeaf2c92	-0.34213692
158	0x3ea1ce59	0.31602743
159	0xbe471cf3	-0.19444637
160	0xbe6fd9d4	-0.23422939
161	0x3e81515c	0.25257385
162	0x3e51cd35	0.20488437
163	0xbe6adf81	-0.22936822
164	0x3eb1c85e	0.3472318
165	0xbeb62eb8	-0.3558252
166	0xbe7b6d42	-0.24553397
167	0x3e352c5d	0.17692704
168	0xbeea4db6	-0.45762414
169	0xbd806deb	-0.06270965
170	0xbe418d1d	-0.18901487
171	0x3e974c48	0.29550385
172	0x3e68edc2	0.22746947
173	0xbe8d0600	-0.2754364
174	0x3e0a0d48	0.13481629
175	0xbe602ee2	-0.21892884
176	0xbdb474ef	-0.08811366
177	0xbded1dea	-0.11577971
178	0xbe71688f	-0.23575042
179	0x3e8a1598	0.269696
180	0x3e71e81b	0.23623697
181	0xbe8915de	-0.26774496
182	0xbf1e7409	-0.61895806
183	0xbeb0cdcd	-0.34532014
184	0x3dac9a19	0.08427829
185	0x3f919be0	1.1375694
186	0x3efc8ed3	0.49327716
187	0xbdb7a32a	-0.08966668
188	0x3eabbb24	0.33541214
189	0xbe6b7e01	-0.22997285
190	0x3eaa438c	0.3325466
191	0xbee4f65b	-0.44719204
192	0x3ef92868	0.4866364
193	0xbedccf13	-0.43126735
194	0x3f0855d7	0.5325598
195	0x3eaec871	0.341373
196	0x3eb10660	0.34575176
197	0xbe308f02	-0.17242053
198	0x3ec77450	0.38955927
199	0xbe9a9a59	-0.30195883
200	0x3ecea5c6	0.4036085
201	0xbeb39942	-0.35077864
202	0x3f0f6d73	0.5602638
203	0xbe92eef2	-0.28697926
204	0xbf38b90f	-0.72157377
205	0x3ea55a2a	0.32295352
206	0xbe9596bf	-0.29216573
207	0xbddf9dc6	-0.10918765
208	0x3eae1300	0.3399887
209	0xbe38644d	-0.18007012
210	0x3f1378f7	0.5760645
211	0xbe26686a	-0.16250768
212	0x3f058ca0	0.521677
213	0xbe42ad0e	-0.19011328
214	0x3e44c4b2	0.19215658
215	0xbee5bc9f	-0.4487047
216	0x3efff061	0.49988082
217	0xbf24e21f	-0.64407533
218	0x3f0ab178	0.54177046
219	0xbec66923	-0.38752088
220	0x3ebbc008	0.36669946
221	0xbf26eab5	-0.65201885
222	0x3eb755d9	0.35807684
223	0xbed3c750	-0.41363
224	0xbe3f5886	-0.18686113
225	0x3f676754	0.9039204
226	0x3edf731e	0.43642515
227	0xbda8e7eb	-0.0824736
228	0x3f0048a6	0.5011085
229	0xbec3e302	-0.3825913
230	0x3ea69f12	0.32543236
231	0xbeb4fcec	-0.35349214
232	0x3f3d644a	0.73981154
233	0x3de03ebf	0.10949468
234	0x3f04c304	0.5186007
235	0xbee03047	-0.43786833
236	0xbd7bb7ca	-0.06145457
237	0x3eabdef2	0.3356853
238	0x3ebb4001	0.3657227
239	0xbeb3b6cb	-0.35100397
240	0xbf01c883	-0.5069658
241	0x3e3b7b77	0.18308817
242	0x3ef91aae	0.48653167
243	0xbec8ca67	-0.3921692
244	0x3efda670	0.49541044
245	0xbe7cd1d3	-0.24689417
246	0xbebd47c9	-0.3696883
247	0x3dd59433	0.104286574
248	0x3eb607e3	0.35552892
249	0xbe74ca45	-0.23905285
250	0xbea1c55b	-0.31595883
251	0xbea4e02b	-0.32202277
252	0xbd7007a4	-0.058601037
253	0x3ed1839f	0.4092073
254	0xbd7b41cf	-0.061342057
255	0x3f5fbcfa	0.8739773

lstm.weight_hh_l0 f4 [256, 64]
0	0x3f0dc252	0.55374634
1	0xbeac384f	-0.3363671
2	0x3f1c3248	0.61014223
3	0x3e8aa465	0.27078548
4	0xbeea547f	-0.4576759
5	0xbea53ebf	-0.32274434
6	0xbda59b5f	-0.08086275
7	0x3e95600d	0.29174843
8	0xbf22a111	-0.6352702
9	0x3ee8d4b6	0.45474786
10	0xbe839866	-0.25702208
11	0xbec0705a	-0.37585717
12	0x3ec0ead9	0.37679175
13	0x3e874a93	0.26424083
14	0xbec424b3	-0.3830925
15	0xbeb34a18	-0.35017467
16	0xbef797b9	-0.48357943
17	0x3ec88c4b	0.39169535
18	0xbf0084b4	-0.5020249
19	0xbed63226	-0.41835135
20	0xbdf2ae0f	-0.11849605
21	0xbef0da57	-0.4704158
22	0xbf188405	-0.59576446
23	0x3ea4e830	0.32208395
24	0xbedfba07	-0.43696615
25	0xbf2a3b78	-0.6649699
26	0xbf0cb91e	-0.54969966
27	0xbe5ef4f7	-0.21773134
28	0xbe8cdb97	-0.27511284
29	0xbea78010	-0.3271489
30	0xbf078d15	-0.5294965
31	0xbf1cf2f9	-0.61308247
32	0x3e7f03f3	0.2490385
33	0x3ea722af	0.3264365
34	0x3e43f0f5	0.19134887
35	0x3ea0518d	0.31312218
36	0x3ec038f5	0.37543455
37	0xbe876147	-0.26441404
38	0xbea69293	-0.32533702
39	0xbe598514	-0.21242172
40	0xbebfb982	-0.3744622
41	0x3e740023	0.23828177
42	0xbee49f22	-0.4465266
43	0xbefa2f54	-0.48864233
44	0xbd8274ae	-0.06369911
45	0x3ef2ef9b	0.4744843
46	0x3ec43b95	0.38326707
47	0x3cd21a23	0.025647229
48	0x3e58f22e	0.21186134
49	0x3e3eae0b	0.1862108
50	0xbe6d48e2	-0.23172334
51	0xbef5eb82	-0.4803124
52	0xbed84f96	-0.4224822
53	0x3e84cb8c	0.25936544
54	0xbd117d82	-0.035520084
55	0xbe7273a3	-0.23676924
56	0xbeb567a8	-0.35430646
57	0xbf640fda	-0.8908669
58	0x3d7a6d3f	0.06113934
59	0xbe6ff581	-0.23433496
60	0x3f160704	0.58604455
61	0x3ec6b906	0.38813037
62	0x3ea472f3	0.3211895
63	0xbf22ae9d	-0.6354769
64	0x3e90ef0e	0.28307384
65	0x3ed4cb8e	0.4156155
66	0xbf553654	-0.83286023
67	0x3e28f3f7	0.16499315
68	0x3e4560aa	0.19275156
69	0x3fd2a92c	1.6457877
70	0x3dc2559c	0.09488985
71	0xbd3c1c71	-0.04592556
72	0xbc675f9c	-0.014121916
73	0x3e9fed19	0.3123558
74	0xbe26457f	-0.16237448
75	0xbe5eba72	-0.2175081
76	0x3f1c320e	0.6101388
77	0x3e01f0ed	0.12689562
78	0x4005c772	2.0902982
79	0x3e9294c2	0.28629118
80	0x3ea577de	0.32318014
81	0x3d487525	0.048939843
82	0x3acb9086	0.0015530742
83	0xbdd843f6	-0.105598375
84	0x3f46158c	0.7737663
85	0x3d0c9830	0.034324825
86	0xbe2d019d	-0.16895147
87	0xbf8a983e	-1.0827711
88	0x3d2ac43b	0.041691046
89	0xbe9855e1	-0.2975302
90	0x3f64b9ae	0.89345825
91	0x3d857301	0.06516076
92	0x3f0981d0	0.53713703
93	0xbec30dc1	-0.3809643
94	0x3d2f58a1	0.042809132
95	0x3d94af68	0.072600186
96	0xbe9a961d	-0.30192652
97	0xbf7e7031	-0.9938994
98	0x3ea798c3	0.32733735
99	0x3f71a5f5	0.94393855
100	0x3e9a4763	0.3013259
101	0x3d0df019	0.034652803
102	0xbe9eb016	-0.30993718
103	0x3e68e55a	0.2274374
104	0xbfaf9da4	-1.3719983
105	0x3edb16f8	0.4279096
106	0xbf977842	-1.1833575
107	0x3e17cf64	0.14825207
108	0x3e1e4eac	0.15459698
109	0xbe55dd05	-0.20885094
110	0x3e5d9f91	0.21642901
111	0xbf06d8e4	-0.526747
112	0x3db9807b	0.09057709
113	0xbe8603d5	-0.261748
114	0xbe944c8c	-0.2896465
115	0xbe2bb26f	-0.16767286
116	0xbd043f8c	-0.032287166
117	0x40179596	2.368505
118	0x3e28e76a	0.16494527
119	0xbcc78767	-0.024356557
120	0xbe6964be	-0.22792336
121	0x3e8a4f9d	0.27013865
122	0x3f3e8833	0.74426574
123	0xbf020f04	-0.5080416
124	0x3e32ebb0	0.1747272
125	0x3eba91e6	0.36439437
126	0x3dbe8b23	0.09303882
127	0x3e9d2ea4	0.30699646
128	0xbeb6ff7a	-0.35741788
129	0x3f08657b	0.53279847
130	0xbfc793fc	-1.5592036
131	0xc04f1b4c	-3.236041
132	0xbf13c254	-0.57718396
133	0x3ef000a7	0.46875498
134	0x3f36d6ec	0.71421695
135	0xc0766d29	-3.8504126
136	0xbf31125c	-0.6916864
137	0xbe4a79c3	-0.19773011
138	0xbe11c6c8	-0.14235985
139	0x3e99e716	0.30059117
140	0x3f36d0c6	0.71412313
141	0xbeccc631	-0.39994958
142	0xbd612cb2	-0.054974265
143	0xbd08c69d	-0.033392537
144	0x3eb2ae6d	0.348987
145	0xbf3df88c	-0.7420738
146	0xbee739de	-0.45161337
147	0xbf197671	-0.5994635
148	0x3eadace4	0.33920968
149	0x3e6b8ab2	0.23002127
150	0xbf63ab73	-0.88933486
151	0xbcc61540	-0.024180055
152	0x3d34b84d	0.044121075
153	0xbf931d9d	-1.1493412
154	0x3fd8acb4	1.6927705
155	0xbe28b901	-0.16476823
156	0xbf1f25d9	-0.62167126
157	0xbf8c4313	-1.095797
158	0xbf4df82a	-0.80456793
159	0x3f5e73c7	0.8689541
160	0x3f3ba9e3	0.733061
161	0xbe12ce26	-0.14336452
162	0xbde9dd20	-0.11419129
163	0x3f1131f1	0.5671683
164	0xbe74c2b1	-0.23902394
165	0xbfe2ebbf	-1.7728194
166	0x3e367ce8	0.17821085
167	0xbf78ed27	-0.97236866
168	0x3f1b36ab	0.6063029
169	0xbe5df429	-0.21675171
170	0xbf614351	-0.8799334
171	0xbf891cbd	-1.0711895
172	0x3f1b1249	0.60574776
173	0xbdb61fb0	-0.08892763
174	0x3f081b89	0.53167015
175	0x3f6a2695	0.9146512
176	0x3dc31b7d	0.09526727
177	0xbfe8b0a4	-1.8178906
178	0xbfb568b6	-1.417258
179	0xbf91d6b4	-1.1393647
180	0x3d4ba25d	0.04971539
181	0x3f5b50d2	0.85670197
182	0xbf35c82b	-0.7100856
183	0xbfa172c7	-1.2613152
184	0x3eaccf58	0.3375194
185	0xbdf8cb45	-0.121481456
186	0xbda951b0	-0.08267534
187	0x3ea564a0	0.32303333
188	0x3f3bbe22	0.73336995
189	0xbedd6e75	-0.43248335
190	0xbd582c05	-0.052776355
191	0xbe2d56fe	-0.16927716
192	0x3e7dad46	0.2477313
193	0x3bfe2261	0.007755563
194	0x3f4ed772	0.80797493
195	0xbd9928c8	-0.074784815
196	0x3e224c89	0.15849508
197	0x3e4d1727	0.20028363
198	0x3ee6039e	0.44924635
199	0xbdf0733d	-0.1174073
200	0xbe0de3eb	-0.13856475
201	0xbd9e8e1c	-0.07741949
202	0x3f569a53	0.8382923
203	0x3eb2b6ee	0.3490519
204	0xbed4d823	-0.4157115
205	0xbed5362b	-0.4164289
206	0x3cc9db90	0.024640828
207	0x3e506829	0.20352234
208	0xbd5af9d7	-0.053460922
209	0x3c99e56e	0.018786158
210	0x3cc1963d	0.02363121
211	0xbdb8939d	-0.0901253
212	0x3e70dd7d	0.23521991
213	0x3c2ab87b	0.01041996
214	0xbe2eb17e	-0.17059895
215	0xbf135a86	-0.5756
216	0x3e363ddb	0.17797033
217	0x3dbcbc9a	0.092156604
218	0xbe8781b7	-0.26466152
219	0x3ec7e775	0.39043775
220	0xbe0a62e4	-0.13514286
221	0xbd81a4dd	-0.06330273
222	0xbd09e0b9	-0.033661578
223	0xbd295aad	-0.04134624
224	0x3f354bc1	0.70818716
225	0xbef8c6ab	-0.48589072
226	0xbeb15010	-0.34631395
227	0x3e4aabac	0.1979205
228	0xbd9045c7	-0.07044559
229	0x3f7725af	0.96541876
230	0x3d9fb81c	0.07798788
231	0xbc96f1db	-0.018425873
232	0xbf299c67	-0.66254276
233	0x3e3a7f21	0.18212558
234	0xbe43b927	-0.19113599
235	0x3e82bb34	0.2553345
236	0xbe5b51d4	-0.21417934
237	0x3c7a2ac7	0.015268988
238	0xbe92efa9	-0.2869847
239	0xbe14f071	-0.14544846
240	0xbeafb1fa	-0.34315473
241	0xbe9ad423	-0.30239972
242	0x3fcd88a2	1.6057322
243	0xbe8a1d87	-0.26975653
244	0x3ecb5a6a	0.39717418
245	0xbf789477	-0.9710154
246	0xbd8342a7	-0.06409197
247	0x3e3960da	0.18103352
248	0xbdc589c2	-0.09645416
249	0xbee24c85	-0.44199005
250	0xbcce4195	-0.025177756
251	0x3dc58388	0.09644228
252	0xbe05223b	-0.13001339
253	0xbde64ed5	-0.11245505
254	0xbec32574	-0.38114512
255	0x3e246796	0.1605514

lstm.bias_ih_l0 f4 [256]
0	0x3f0b99f2	0.54531777
1	0x3f3a8663	0.7286131
2	0x3fa9434c	1.3223662
3	0xbd266538	-0.040623873
4	0x3e16fcae	0.14744827
5	0xbd11ac50	-0.03556472
6	0xbf24e1b7	-0.64406914
7	0xc0069af1	-2.1032069
8	0x3f18a434	0.59625554
9	0xc0023ea2	-2.0350728
10	0xbf23ba30	-0.63955975
11	0xbf2a897f	-0.6661605
12	0xbe00bcdc	-0.12572044
13	0xbd3f7543	-0.04674269
14	0x3c8d0245	0.017212996
15	0xbe861ba2	-0.26192957
16	0x3f7713ab	0.96514386
17	0x3eb09f8e	0.3449673
18	0x3eafb6e7	0.3431923
19	0x3f592250	0.8481798
20	0x3f091de8	0.5356126
21	0x3f56ceb6	0.83909166
22	0x3e290cd1	0.16508795
23	0x3edb1965	0.42792812
24	0xbf0e2dc7	-0.555386
25	0x3fcfb1ef	1.6226176
26	0xbf83f668	-1.0309572
27	0x3f0456db	0.5169503
28	0x3f08d9cc	0.5345733
29	0x3def4280	0.11682606
30	0x3e31221a	0.17298165
31	0x3eeb17aa	0.45916492
32	0x3e8c0864	0.27350152
33	0xbfa12036	-1.2587955
34	0x3e19f9a9	0.15036644
35	0xbf503e99	-0.81345516
36	0xbed514ee	-0.4161753
37	0xbf63caef	-0.8898153
38	0x3f5c5c3d	0.86078244
39	0x3e7f8850	0.24954343
40	0xc00bdf7a	-2.185515
41	0x3ece55f7	0.4029996
42	0x3f27e738	0.65587187
43	0x3be33cc4	0.006934734
44	0x3ecb546e	0.39712852
45	0x3f0fe989	0.5621572
46	0xc0013df3	-2.019406
47	0xbfeaa30c	-1.8331008
48	0xbf6c15c9	-0.9222074
49	0xbfd3fb6d	-1.6561104
50	0xbf550d74	-0.8322365
51	0x3e419426	0.1890417
52	0x3f92cf73	1.1469558
53	0x3f2d09aa	0.6759287
54	0x3ea18d30	0.3155303
55	0x3eaa3e71	0.33250764
56	0xbece8867	-0.40338442
57	0x3f073b15	0.5282453
58	0x3e2e60e4	0.17029148
59	0x3e0fe091	0.14050509
60	0x3efc3e9a	0.4926651
61	0x3f338e0f	0.7013864
62	0xbda382ec	-0.07983956
63	0x3f929417	1.1451443
64	0x3de2f0c8	0.11081082
65	0xbe5b4494	-0.21412879
66	0x3e62f647	0.2216426
67	0xbed1bffd	-0.40966788
68	0x3e862cdb	0.26206097
69	0x3e97a369	0.2961686
70	0xbebff75c	-0.37493408
71	0x3de5b94a	0.11216982
72	0x3da691e5	0.08133296
73	0xbf2989e1	-0.6622601
74	0xbee6d471	-0.45083955
75	0xbf08bd0b	-0.53413457
76	0x3eb2300d	0.34802285
77	0xbec14f37	-0.3775575
78	0x3e5e5e1d	0.21715589
79	0x3e73f9db	0.23825781
80	0x3f0bea0d	0.5465401
81	0x3f0f8d79	0.56075245
82	0x3e96bc46	0.29440516
83	0x3f593406	0.84845006
84	0x3ec85282	0.39125448
85	0x3f13b71d	0.57701284
86	0x3eebb747	0.46038267
87	0x3e27ce27	0.16387235
88	0xbf379a9e	-0.717203
89	0x3f848756	1.0353801
90	0xbcba87ac	-0.022769772
91	0x3f2ab25a	0.6667839
92	0x3cf4597a	0.029827822
93	0x3d9888df	0.07447981
94	0x3e3ae907	0.18252955
95	0x3e4095d9	0.18807162
96	0x3de7af5d	0.11312745
97	0xbf1fb09b	-0.62378854
98	0x3e3f19f8	0.1866225
99	0x3e2ece5e	0.1707091
100	0x3e27ad3b	0.16374676
101	0x3e69e956	0.22842917
102	0xbd30f94f	-0.04320651
103	0x3f0806e3	0.5313551
104	0xbda7b027	-0.08187895
105	0x3d921da1	0.071345575
106	0x3dfe3973	0.12413301
107	0xbf1e8a35	-0.6192964
108	0x3d0f72bb	0.035021525
109	0x3e0b4d31	0.13603665
110	0xbe5eff3a	-0.21777049
111	0x3e033400	0.12812805
112	0xbeaf2896	-0.34210652
113	0x3e13ea75	0.14444907
114	0x3ed131d6	0.40858334
115	0x3e2ab224	0.16669518
116	0x3d168f18	0.03675756
117	0xbd125636	-0.03572675
118	0xbe907727	-0.28215906
119	0x3e139f44	0.14416224
120	0x3bf6f823	0.0075369044
121	0x3ea73ff2	0.32665974
122	0x3e5a09db	0.21292822
123	0x3e23a2e4	0.15980107
124	0x3e91678d	0.28399315
125	0x3f3235f9	0.69613606
126	0xbf6baf59	-0.92064434
127	0x3e8a599f	0.270215
128	0x3d3b78c3	0.045769464
129	0x3f159654	0.5843251
130	0x3ddbde16	0.10735719
131	0xbe14a875	-0.14517386
132	0xbe1510c9	-0.14557184
133	0xbec5863c	-0.38578975
134	0xbe0108c0	-0.12600994
135	0x3de38f40	0.11111307
136	0xbebb406b	-0.36572585
137	0x3e64ae58	0.22332132
138	0xbeac80d4	-0.33692038
139	0x3f30a7d2	0.69006073
140	0xbfcfc718	-1.6232634
141	0xbd8c3865	-0.06846694
142	0xbda30986	-0.07960801
143	0x3ceffb53	0.029294645
144	0xbd1f527f	-0.038897034
145	0x3e656c04	0.22404486
146	0xbd9ce985	-0.07661728
147	0xbe823d4b	-0.25437388
148	0xbf71ad35	-0.9440492
149	0xbcdfe667	-0.027331544
150	0xbd464cbd	-0.048413027
151	0xbd9d8a44	-0.07692388
152	0xbc797daf	-0.015227719
153	0x3c776ef3	0.015102136
154	0xbe4a9923	-0.1978498
155	0xbe1ad46b	-0.15120094
156	0xbdd589d9	-0.10426683
157	0xbca53f03	-0.020171648
158	0xbdeda386	-0.11603455
159	0xbe0de980	-0.13858604
160	0x3e20f4c2	0.15718368
161	0x3cb1cff0	0.021705598
162	0x3e2f53ec	0.17121857
163	0x3e16e89a	0.14737168
164	0xbeecc113	-0.46241054
165	0x403ad08d	2.918979
166	0xbe3cf810	-0.18454003
167	0xbe00f371	-0.12592866
168	0x3bf8187a	0.007571277
169	0x3e3ed9d4	0.18637782
170	0xbe4fb99f	-0.20285653
171	0xbd049f05	-0.032378215
172	0x3e8d090e	0.2754597
173	0xbc414095	-0.011795183
174	0x3cebd348	0.02878727
175	0xbe9f0a12	-0.3106237
176	0xbdf3f6ed	-0.11912332
177	0x3df762f7	0.12079423
178	0x403fa4dc	2.9944372
179	0xbc9e5182	-0.019325975
180	0xbdc61dfb	-0.09673687
181	0x3eaebbdd	0.34127703
182	0x3e048efa	0.12945166
183	0xbd9177a2	-0.07102896
184	0x3ea3de80	0.32005692
185	0x3a8f7109	0.0010943721
186	0x3d5d5ed1	0.054045502
187	0x3dd0ccf4	0.10195342
188	0x3e311c04	0.17295843
189	0x3ddc9328	0.10770255
190	0xbdaac5d4	-0.08338514
191	0xbec7f1a2	-0.3905154
192	0x3edb1e92	0.4279676
193	0x3e71f994	0.23630363
194	0x3e5f1757	0.21786247
195	0xbfcb59bc	-1.588676
196	0xbf629d30	-0.885211
197	0x3e20eb61	0.1571479
198	0xbf91492d	-1.1350456
199	0xbf9f7ac0	-1.2459335
200	0x3f957fc7	1.167962
201	0x3f023cc2	0.5087396
202	0x3e8bc179	0.27296045
203	0xbf89b9c4	-1.0759816
204	0x3f0a1450	0.53937244
205	0xbfac9b9c	-1.3484988
206	0x3e825ce3	0.25461492
207	0xbfd52bf8	-1.6654043
208	0x3da166c8	0.07880932
209	0x3f741321	0.9534169
210	0x3faea218	1.3643217
211	0x3ed41b4c	0.41427076
212	0xbf695b58	-0.91155005
213	0x3f1148c7	0.56751674
214	0x3fd4e3cd	1.6632019
215	0x3d79b3fa	0.060962655
216	0xbf0a16c1	-0.5394097
217	0x3e47a577	0.19496714
218	0x3c8ddd79	0.01731752
219	0x3f286646	0.65781057
220	0x3ebe4d12	0.37168175
221	0x3fadd84b	1.3581632
222	0x3fb60c8d	1.422258
223	0x3f318ee7	0.69358677
224	0x3cfebdd3	0.031096375
225	0xbeda77d5	-0.4266955
226	0xbe659713	-0.22420911
227	0x3f01d5f1	0.50717074
228	0xbf19bf73	-0.60057753
229	0x3e8528d1	0.26007703
230	0xbe59361d	-0.21212049
231	0x3f17732f	0.5916013
232	0xbf4cec56	-0.8004812
233	0x3e5b17b3	0.2139576
234	0x3fc523e9	1.5401584
235	0xbf874a63	-1.0569576
236	0x3f847330	1.0347652
237	0x3de27d90	0.110591054
238	0x3c021694	0.007939953
239	0xbf9b6653	-1.2140602
240	0x3c05e1dd	0.008171526
241	0xbfc7bfd5	-1.5605417
242	0x3e7da994	0.2477172
243	0x3faca3ac	1.3487449
244	0x3eb900ea	0.3613351
245	0x3d9aa011	0.075500615
246	0x3eac69e9	0.33674553
247	0xbe07b875	-0.13253959
248	0xbe409ec8	-0.1881057
249	0x3e613015	0.21990998
250	0x3bb77775	0.005598957
251	0x3eec2215	0.46119753
252	0x3fa136d8	1.2594862
253	0xbdae0145	-0.08496336
254	0xbfa2badc	-1.2713275
255	0x3ec8bc8c	0.3920635

lstm.bias_hh_l0 f4 [256]
0	0x3f07c050	0.5302782
1	0x3f0f6a57	0.56021637
2	0x3f9bfe37	1.2186955
3	0x3dbf4dc5	0.09341005
4	0x3c4219e1	0.01184699
5	0xbe173785	-0.14767273
6	0xbf574817	-0.84094375
7	0xc0031d98	-2.0486813
8	0x3edd1f3b	0.4318789
9	0xbff600d7	-1.9219006
10	0xbf2fe230	-0.6870451
11	0xbf154849	-0.58313423
12	0xbc4ce9a2	-0.012506874
13	0xbcf54e53	-0.029944574
14	0x3e4a7f57	0.19775139
15	0xbe9d89f1	-0.30769303
16	0x3f5d89d6	0.86538446
17	0x3eaa3884	0.33246243
18	0x3ef3d1e6	0.47621077
19	0x3f592f98	0.8483825
20	0x3ed2e037	0.41186687
21	0x3f67306c	0.9030826
22	0x3e4e1115	0.20123704
23	0x3f07fb79	0.5311809
24	0xbf3fa2f1	-0.74858004
25	0x3fe19dc0	1.7626266
26	0xbf900b1e	-1.1253393
27	0x3ee700ab	0.45117697
28	0x3f0c3621	0.54770094
29	0x3d8cf5a6	0.06882791
30	0x3e478321	0.19483615
31	0x3ed93e58	0.42430377
32	0x3e835331	0.25649408
33	0xbf9f36d9	-1.2438613
34	0x3d2c0858	0.042000145
35	0xbf817893	-1.0114921
36	0xbe773047	-0.2413951
37	0xbf65ca86	-0.8976215
38	0x3f69eed5	0.91380054
39	0x3e66a931	0.22525479
40	0xc00cca5d	-2.1998513
41	0x3e90f340	0.28310585
42	0x3f23eadc	0.6403024
43	0x3dadcfd7	0.08486908
44	0x3efe5917	0.49677345
45	0x3f0e7b61	0.5565701
46	0xc009dd11	-2.1541178
47	0xbfee947f	-1.8639067
48	0xbf6e6f61	-0.931387
49	0xbfd5510e	-1.6665361
50	0xbf4ba723	-0.79551905
51	0x3e0f8c5f	0.14018391
52	0x3f8194d5	1.0123545
53	0x3f219648	0.63119936
54	0x3ef5bcbb	0.47995552
55	0x3f09c23a	0.5381199
56	0xbe9f836e	-0.3115496
57	0x3efeaab3	0.49739608
58	0x3e204666	0.15651855
59	0x3e23c23b	0.15992062
60	0x3e9f992e	0.31171554
61	0x3f3a1558	0.7268882
62	0xbbfebe35	-0.0077741393
63	0x3f841303	1.0318302
64	0x3e3762ee	0.17908832
65	0xbe05dfc6	-0.13073644
66	0x3ec8f717	0.39251015
67	0xbea8dbf8	-0.32980323
68	0x3e80c59c	0.25150764
69	0x3ea48635	0.32133642
70	0xbe4fccad	-0.20292921
71	0x3e9682f9	0.293968
72	0x3e5f873e	0.21828935
73	0xbf388553	-0.72078437
74	0xbf00e6be	-0.50352085
75	0xbf32c81e	-0.69836605
76	0x3e94c043	0.29052934
77	0xbecfb13c	-0.40564907
78	0x3e5a1a1a	0.2129902
79	0x3e556827	0.20840512
80	0x3eac9ed2	0.3371492
81	0x3f0073d1	0.5017672
82	0x3ea9c189	0.33155468
83	0x3f4effa0	0.808588
84	0x3e4fa916	0.20279345
85	0x3f06cc1a	0.52655184
86	0x3ee03f17	0.43798134
87	0xbd45857e	-0.04822301
88	0xbf1fe6c6	-0.6246151
89	0x3f6eda5c	0.9330194
90	0x3dd91012	0.10598768
91	0x3f3a8310	0.72856236
92	0xbdf81932	-0.121141806
93	0x3dc3b4d4	0.095559746
94	0x3e912e19	0.28355482
95	0x3e7c87ae	0.24661133
96	0x3dc3df9a	0.09564133
97	0xbefa8573	-0.4892994
98	0x3e12e5e1	0.14345504
99	0x3e9f94f3	0.31168327
100	0x3d0b7927	0.034051087
101	0x3e5e4633	0.21706466
102	0xbc87cfa2	-0.0165785
103	0x3eee8c40	0.46591377
104	0xbdc6aab1	-0.097005256
105	0x3d8eff17	0.06982248
106	0x3d809aa7	0.062794976
107	0xbf3555ca	-0.7083403
108	0x3e4f4e59	0.20244731
109	0x3e76f7ea	0.24118009
110	0xbea5b331	-0.32363275
111	0x3e798a52	0.24369171
112	0xbf06aa0b	-0.52603215
113	0x3da3c9ec	0.07997498
114	0x3e42b9d0	0.19016194
115	0x3e8679fe	0.26264948
116	0xbe112921	-0.14175846
117	0xbca9f19e	-0.020745095
118	0xbe4af5f6	-0.19820389
119	0x3e18a0d1	0.14905097
120	0xbe5e341a	-0.21699563
121	0x3e397ba0	0.18113565
122	0x3e0949a5	0.13407
123	0x3e794dd9	0.24346103
124	0x3e21b027	0.15789853
125	0x3f190899	0.59778744
126	0xbf570740	-0.8399544
127	0x3ec9b55a	0.39396173
128	0x3dca8beb	0.098899685
129	0x3f0013de	0.50030315
130	0x3db82498	0.08991355
131	0xbe34f586	-0.17671785
132	0xbdfb06d8	-0.12257165
133	0xbeca2171	-0.3947864
134	0xbd0394b0	-0.03212422
135	0x3e8beb3a	0.273279
136	0xbe4afe23	-0.19823508
137	0x3dd9be76	0.10632031
138	0xbed999d7	-0.42500183
139	0x3f1b5917	0.60682815
140	0xbfe59e01	-1.7938844
141	0xbdfbe5aa	-0.12299664
142	0xbd4379e8	-0.04772368
143	0x3e15404e	0.14575312
144	0x3ccd459c	0.025057606
145	0x3e145198	0.1448425
146	0xbd5d45f5	-0.054021794
147	0xbeb0878f	-0.34478423
148	0xbf8143e8	-1.0098848
149	0xbd669341	-0.056292776
150	0x3bbd952c	0.005785605
151	0xbd6fbdc0	-0.05853057
152	0x3d2d8eda	0.042372562
153	0xbe265505	-0.1624337
154	0xbdd95b93	-0.106131695
155	0xbd495507	-0.049153354
156	0xbdf3d0e3	-0.11905076
157	0x3d9e4bb2	0.077292815
158	0xbdae117f	-0.08499431
159	0xbc48cbb3	-0.012255597
160	0x3d931c21	0.071830995
161	0x3dacc0ef	0.08435237
162	0x3db7b4df	0.08970045
163	0xbcc8d028	-0.02451332
164	0xbeba72c5	-0.36415687
165	0x404239eb	3.034785
166	0xbe2ba596	-0.16762385
167	0x3b8eb460	0.0043549985
168	0x3d7ca9ff	0.06168556
169	0x3c2c5e9c	0.0105206035
170	0xbe81faf8	-0.25386786
171	0x3d5718be	0.05251383
172	0x3edefa44	0.43550313
173	0xbc800656	-0.015628021
174	0x3da0c6de	0.07850431
175	0xbe982a47	-0.29719755
176	0xbddf293f	-0.10896539
177	0xbd1ad7aa	-0.03780333
178	0x404bc24e	3.1837344
179	0xbdb490b0	-0.088166595
180	0x3d50fdc4	0.05102326
181	0x3efdff46	0.4960882
182	0x3df4ca68	0.119526684
183	0xbe2cb195	-0.16864617
184	0x3eef27c4	0.46710026
185	0xbddac1d3	-0.106815
186	0x3db46377	0.08808034
187	0xbd5fd5ab	-0.05464713
188	0x3e12814b	0.14307134
189	0x3e60b3ba	0.2194356
190	0xbe1041b2	-0.14087561
191	0xbe8925d8	-0.26786685
192	0x3ec68a59	0.38777426
193	0x3e8e2dc2	0.27769285
194	0x3dad0f54	0.08450189
195	0xbfc04d79	-1.5023643
196	0xbf583274	-0.84451985
197	0x3dc17acb	0.09447249
198	0xbf8504f7	-1.039214
199	0xbf93a8ce	-1.153589
200	0x3f90325a	1.1265366
201	0x3ee7854c	0.45218885
202	0x3e84d4bc	0.25943553
203	0xbfa3f2c6	-1.2808464
204	0x3f03ba9a	0.51456606
205	0xbfae0bcc	-1.359735
206	0x3ea1b66f	0.31584498
207	0xbfe2e14e	-1.7725008
208	0x3e7b4859	0.24539317
209	0x3f6c21c7	0.9223904
210	0x3fa9a8ce	1.325464
211	0x3e4a7b73	0.19773655
212	0xbf388f34	-0.7209351
213	0x3f0fe7cc	0.5621307
214	0x3fdd8308	1.7305613
215	0x3dd761ca	0.10516699
216	0xbee46d8a	-0.44614822
217	0x3ece4af7	0.4029157
218	0x3e0216a4	0.12703949
219	0x3f0c7257	0.5486197
220	0x3e7ba17c	0.2457332
221	0x3f8f4e9f	1.1195868
222	0x3fa6abc7	1.3021172
223	0x3f3a3e49	0.7275129
224	0x3e663bfe	0.22483823
225	0xbf24cbef	-0.6437368
226	0xbd01d901	-0.03170109
227	0x3ec08653	0.3760248
228	0xbecfa2e2	-0.40553957
229	0x3daa383e	0.083115086
230	0xbe66894b	-0.2251331
231	0x3f3b3a9b	0.731363
232	0xbf50d40e	-0.8157357
233	0x3e22e48c	0.15907496
234	0x3fcede5f	1.6161612
235	0xbf80e250	-1.0069065
236	0x3f890d87	1.0707253
237	0x3e0eeb83	0.13957028
238	0xbde16109	-0.11004836
239	0xbf8a2a9b	-1.0794252
240	0xbe46bcb8	-0.19407928
241	0xbfc26768	-1.5187807
242	0x3e365705	0.17806633
243	0x3fc6614d	1.5498444
244	0x3f0f42d2	0.55961335
245	0x3e78712c	0.24261922
246	0x3edfd8d1	0.43720105
247	0xbe81e298	-0.2536819
248	0xbe8b42a1	-0.2719927
249	0x3e2bc492	0.16774204
250	0xbc93fb7d	-0.018064255
251	0x3f152463	0.58258647
252	0x3f9960e9	1.19827
253	0x3c59a017	0.013282797
254	0xbfb35014	-1.4008813
255	0x3e9e7548	0.30948853

lstm.weight_ih_l1 f4 [256, 64]
0	0xbd8c8d71	-0.06862915
1	0x3eaa3f2f	0.3325133
2	0xbe7f94df	-0.24959134
3	0xbf0ef908	-0.5584874
4	0x3ede78f3	0.43451652
5	0x3e0391c0	0.12848568
6	0x3e3397a7	0.1753832
7	0x3e33f0dd	0.17572351
8	0xbf1962d2	-0.5991641
9	0xbe1008c1	-0.1406584
10	0x3e6bc753	0.23025255
11	0xbd9f7dbb	-0.07787653
12	0x3ccce0e1	0.025009574
13	0xbf0f561a	-0.55990756
14	0xbeb6bf6e	-0.35692924
15	0x3f0e931c	0.5569322
16	0xbec22358	-0.3791759
17	0x3f3efeeb	0.74607724
18	0xbefa13be	-0.48843187
19	0xbe663efa	-0.22484961
20	0x3eb551ab	0.3541387
21	0xbf259f70	-0.6469641
22	0xbe990fd1	-0.2989488
23	0xbe1be70e	-0.15224859
24	0x3ec9bd68	0.39402318
25	0xbece2bcc	-0.4026779
26	0x3ec14fe1	0.37756255
27	0x3df8e1de	0.12152456
28	0xbc9f5c02	-0.019453052
29	0xbe06b05c	-0.13153213
30	0xbeea9d51	-0.45823148
31	0xbf18c9a2	-0.5968267
32	0xbf9f4798	-1.2443724
33	0xbdfeb9fe	-0.12437819
34	0x3d1cfd0f	0.038327273
35	0x3f0d81c1	0.55276114
36	0xbdb91280	-0.09036732
37	0x3ca80830	0.020511717
38	0x3e3a875f	0.18215702
39	0x3e35f873	0.17770557
40	0xbe088fdb	-0.13336127
41	0x3d180547	0.037114408
42	0xbe95b637	-0.2924058
43	0x3dc8499f	0.09779667
44	0xbe1e2e94	-0.15447456
45	0xbd2d4446	-0.04230144
46	0xbe29a54e	-0.16566965
47	0xbe17338f	-0.14765762
48	0xbd9c2457	-0.07624119
49	0xbee0ae5b	-0.43883023
50	0x3f5c0472	0.85944283
51	0xbef1e3c8	-0.47244096
52	0x3d5d7ad6	0.054072224
53	0x3c98cc78	0.018652186
54	0x3e09b3fc	0.13447565
55	0xbe2c1096	-0.16803202
56	0x3e676779	0.22598065
57	0x3f09b9e3	0.53799266
58	0x3d885f2a	0.06658776
59	0x3e29684d	0.16543694
60	0x3ef01cbb	0.4689692
61	0xbe4c841f	-0.19972275
62	0xbef21954	-0.4728495
63	0xbefa4d81	-0.48887256
64	0x3eb44499	0.35208586
65	0xbf035c15	-0.5131238
66	0x3eb2fa1f	0.34956452
67	0xbda1f227	-0.07907515
68	0xbefe5a82	-0.49678427
69	0x3f587693	0.8455593
70	0xbccc12c3	-0.02491129
71	0x3dd70a0c	0.10499963
72	0xbeee9e82	-0.46605307
73	0xbe44ec3a	-0.19230738
74	0xbee652fa	-0.4498518
75	0x3e88fb83	0.26754388
76	0xbe5d59e7	-0.21616326
77	0x3cb3e8c0	0.02196157
78	0xbf360d7f	-0.71114343
79	0xbe035602	-0.12825778
80	0xbd81ffea	-0.0634764
81	0x3ea61755	0.32439676
82	0xbeecf890	-0.46283388
83	0xbe376a95	-0.17911752
84	0xbe9eca21	-0.31013587
85	0xbe5e0d9e	-0.21684882
86	0xbf28cd8a	-0.6593863
87	0xbeb93192	-0.36170632
88	0xbf0790a4	-0.5295508
89	0xbf857f23	-1.0429424
90	0x3fa49fc3	1.2861255
91	0xbe1b0032	-0.15136793
92	0xbefba0d5	-0.49146143
93	0xbe03927d	-0.1284885
94	0xbf101457	-0.56281036
95	0xbd863668	-0.06553346
96	0x3ebce27c	0.36891544
97	0xbe74f40e	-0.23921224
98	0x3e970fa1	0.2950411
99	0x3e127b23	0.14304785
100	0x3e9eb946	0.31000727
101	0x3efc5c15	0.49289003
102	0xbeb752d4	-0.3580538
103	0xbf0bbc6f	-0.545844
104	0xbe9786f1	-0.2959514
105	0x3eab17ef	0.33416697
106	0xbf14d689	-0.58139855
107	0x3d2d4569	0.042302523
108	0x3dd5b59d	0.104350306
109	0x3f8be644	1.0929646
110	0x3dcfd575	0.101481356
111	0xbcfb6b65	-0.030690858
112	0xbe3a037f	-0.18165396
113	0xbf2647a8	-0.6495309
114	0xbd18a69e	-0.037268274
115	0x3d47124e	0.04860144
116	0x3ebaac65	0.36459652
117	0x3eb7065c	0.3574704
118	0x3ead519a	0.3385132
119	0xbe9dccb6	-0.30820245
120	0xbe20eecc	-0.15716094
121	0xbfee3eb2	-1.8612883
122	0x3e948160	0.29004955
123	0xbe6dc3dd	-0.23219247
124	0xbcd4c042	-0.025970582
125	0x3e9038e2	0.28168398
126	0xbf368c48	-0.713078
127	0xbd9c2584	-0.07624343
128	0xbe03e2f0	-0.12879539
129	0x3de3757e	0.11106394
130	0xbe976a4d	-0.2957329
131	0xbe407b8d	-0.18797131
132	0xbe0968a5	-0.13418825
133	0x3ec4bfec	0.38427675
134	0x3e2a3088	0.16620076
135	0xbeb1b875	-0.34711042
136	0x3ce5592a	0.027996618
137	0xbd3bcd33	-0.04584999
138	0x3d9213dc	0.07132694
139	0xbd5b7823	-0.05358137
140	0x3c1c464c	0.009538244
141	0x3e1ec318	0.1550411
142	0x3dde9ae1	0.108693846
143	0x3eab0fcd	0.33410493
144	0x3c85b1e7	0.016320182
145	0x3ca596bf	0.020213483
146	0xbd8bcae2	-0.06825806
147	0xbe0a2d41	-0.13493825
148	0x3e28a3ad	0.16468687
149	0xbdb9e9c5	-0.09077791
150	0xbce3ed92	-0.027823243
151	0xbd634f64	-0.055495635
152	0xbe3c044c	-0.18361014
153	0xbb44f46e	-0.0030052918
154	0x3e793449	0.24336351
155	0xbeb0c8d4	-0.3452822
156	0x3e00e970	0.1258905
157	0xbddbcb97	-0.10732191
158	0xbd91e30b	-0.07123383
159	0xbe84916a	-0.25892192
160	0x3e93d8bd	0.28876296
161	0x3dba232d	0.090887405
162	0x3cc36adc	0.023854665
163	0xbea5dafc	-0.32393634
164	0xbdcb3630	-0.09922445
165	0xbe243b95	-0.16038354
166	0x3e5258c8	0.2054168
167	0xbc9702a6	-0.01843388
168	0x3e7c4397	0.24635158
169	0xbb2d89f8	-0.002647994
170	0xbd1931d4	-0.037401035
171	0x3e71a12d	0.2359664
172	0x3e11148e	0.14167997
173	0x3e046bc8	0.1293174
174	0xbda5009c	-0.08056757
175	0x3e8d46b0	0.27592993
176	0x3e55fbf7	0.20896898
177	0xbd04a8d5	-0.032387573
178	0xbd152e68	-0.03642121
179	0xbe2b77cf	-0.16744922
180	0xbd700d56	-0.05860647
181	0x3f0b89b9	0.54507023
182	0x3e65fe2b	0.22460239
183	0xbd5c24c0	-0.053745985
184	0x3e5947f0	0.21218848
185	0xbf482f7e	-0.7819747
186	0x3f01ae51	0.5065661
187	0x3e1ae510	0.15126443
188	0x3db349f8	0.08754343
189	0xbe25123a	-0.16120234
190	0x3d537394	0.051623896
191	0xbd9504b5	-0.072762884
192	0xbe93ef9c	-0.28893745
193	0xbd767bfa	-0.060176827
194	0x3ee3f349	0.4452155
195	0x3f54e74e	0.8316544
196	0x3d55d6f9	0.052206967
197	0x3e40e358	0.18836725
198	0xbeaf5412	-0.34243828
199	0x3fa92ca3	1.3216747
200	0x3f1d90f8	0.6154933
201	0x3f23c730	0.6397581
202	0x3d71c2c9	0.059023652
203	0xbe27eeca	-0.16399685
204	0x3e17ac2d	0.14811774
205	0xbc1dc442	-0.009629311
206	0xbe650c5a	-0.22367993
207	0xbf237541	-0.6385079
208	0xbe91525a	-0.28383142
209	0x3e26f220	0.16303301
210	0x3f435d77	0.7631449
211	0xbde68324	-0.11255482
212	0x3edbc59f	0.4292421
213	0xbe5293ff	-0.20564269
214	0x401ef50f	2.4837072
215	0xbf21c3e9	-0.6318956
216	0x3ea3ce63	0.31993398
217	0x3f8409ab	1.031545
218	0x3ebe07a3	0.371152
219	0x3f73d2f7	0.9524378
220	0xbed0ecc2	-0.40805632
221	0x400d86b8	2.2113476
222	0x3f9f4266	1.2442138
223	0xbcf9f676	-0.03051303
224	0xbef38ec4	-0.4756986
225	0xbe848df2	-0.25889546
226	0x3e5cc459	0.21559276
227	0xbeba766b	-0.3641847
228	0xbe6e736a	-0.23286214
229	0x3eb24c12	0.34823662
230	0x3eb5c2af	0.35500094
231	0x3e5c8c03	0.21537785
232	0xbf1808bc	-0.5938833
233	0xbe02adca	-0.12761608
234	0x3ed82b9f	0.4222078
235	0xbeebd598	-0.46061397
236	0xbc893b2f	-0.016751854
237	0xbf02d173	-0.51100844
238	0xbed102fa	-0.40822583
239	0xbe8d9991	-0.27656224
240	0x3f8100a4	1.007832
241	0x3ebbb804	0.3666383
242	0x3f273317	0.6531233
243	0x3ffa60bb	1.956077
244	0x3de1e59b	0.11030122
245	0xbed66633	-0.41874847
246	0xbdf4388e	-0.119248495
247	0xbd9c94a6	-0.0764554
248	0x3e7a9b6a	0.24473348
249	0x3edce895	0.43146196
250	0x3d7c60d0	0.061615765
251	0x3e82e1ef	0.25563
252	0xbf1f95b6	-0.62337816
253	0x3c893574	0.016749121
254	0x3d37ee2e	0.04490488
255	0x3e2ee72a	0.1708037

lstm.weight_hh_l1 f4 [256, 64]
0	0xbde6c2df	-0.112676375
1	0x3f579b51	0.8422137
2	0x3e255617	0.16146122
3	0xbec712c7	-0.38881513
4	0x3f89067c	1.0705104
5	0x3f2f88e3	0.6856825
6	0x3f93a0c5	1.1533438
7	0x3cea9aa6	0.028638195
8	0x3e41dded	0.18932314
9	0x3f2c7e3b	0.6738011
10	0x3ec44d59	0.38340262
11	0xbe38c8f4	-0.18045408
12	0x3eb2c38d	0.34914818
13	0x3f501dd3	0.8129551
14	0x3e8343ef	0.25637767
15	0xbf137837	-0.5760531
16	0x3f1ad305	0.6047824
17	0x3e8beeab	0.27330527
18	0x3f010cfc	0.5041044
19	0xbe90b868	-0.2826569
20	0xbe9dc2e7	-0.3081276
21	0x409fe8fb	4.99719
22	0x3f687c27	0.9081444
23	0x3f7936b6	0.9734911
24	0xbdfbb862	-0.122910276
25	0xc0554fbe	-3.332992
26	0x404799e4	3.1187677
27	0x3e7eb85e	0.24875018
28	0x3f8469dc	1.0344806
29	0xbf43525f	-0.76297563
30	0x3edf44ab	0.43607077
31	0x3eea3cbd	0.45749465
32	0x3d91684e	0.07099973
33	0xbd95f06d	-0.07321248
34	0xbf1d848e	-0.6153039
35	0xbf276463	-0.6538755
36	0x3ee331d7	0.44373962
37	0xbebcdda7	-0.36887857
38	0xbf9c23d9	-1.219844
39	0x3f6f885d	0.9356745
40	0xbf1eccd3	-0.62031287
41	0xbf22bda9	-0.6357065
42	0xbf982a8f	-1.1887988
43	0xbb6a169c	-0.0035719043
44	0xbfa20f77	-1.266097
45	0x3e945224	0.28968918
46	0xbf87e845	-1.0617758
47	0x3dc60b4f	0.09670126
48	0x3f2954c7	0.66144985
49	0x3e8663b3	0.2624794
50	0x3e0661eb	0.1312329
51	0x3e17a9ba	0.1481084
52	0xc034c077	-2.8242471
53	0x3df43d28	0.11925727
54	0x3f40d8ab	0.7533061
55	0xbf21c8d2	-0.6319705
56	0xbf29a116	-0.6626142
57	0xc0681a5b	-3.6266086
58	0xbeea3387	-0.45742437
59	0xbec91300	-0.39272308
60	0xbef3df64	-0.4763137
61	0x3f622c7b	0.8834912
62	0x3f82c022	1.0214884
63	0xbf0f8a25	-0.56070167
64	0x3ff5211a	1.9150727
65	0xbea022b6	-0.31276482
66	0x3e938906	0.28815478
67	0xbee030a2	-0.43787104
68	0x3f570ad6	0.8400091
69	0xc0012d32	-2.0183835
70	0x3f7e21cd	0.99270326
71	0x3e99b599	0.3002136
72	0x3ef94a56	0.48689526
73	0xbed0c763	-0.4077712
74	0xbdbfb93d	-0.09361503
75	0x3c026e1a	0.007960821
76	0xbeeb39ef	-0.45942637
77	0x3e34c03d	0.17651458
78	0xbe798af9	-0.2436942
79	0xbabae8de	-0.0014260074
80	0xbeb8a2b8	-0.36061645
81	0x3efcd7c1	0.49383357
82	0x3f008b6e	0.5021275
83	0x4020a91c	2.5103216
84	0xbef0a742	-0.47002608
85	0x3e7aeb7e	0.24503896
86	0xbeb1a04f	-0.34692618
87	0x3f3d1a1c	0.73867965
88	0x3f1d6fdd	0.61498815
89	0xbe5681cb	-0.2094795
90	0xc00862a9	-2.1310217
91	0xbe02a0c6	-0.12756643
92	0xbecdd008	-0.40197778
93	0x3f94d64f	1.1627902
94	0xbfb175d3	-1.3864082
95	0x3e3b130a	0.18268982
96	0xbf35528b	-0.70829076
97	0x3e73667a	0.2376956
98	0x3dee908e	0.11648665
99	0xbef3c141	-0.4760838
100	0x3ebfc242	0.37452894
101	0x400eeece	2.2333255
102	0xbf2a548c	-0.6653526
103	0x3f07476b	0.5284335
104	0x3ed8a881	0.42316058
105	0xbf787ed9	-0.97068554
106	0x3d33de70	0.043913305
107	0xbf531fd0	-0.8247042
108	0xbf2f9188	-0.6858144
109	0x3f3c6cc4	0.73603463
110	0xbe6d63c5	-0.2318259
111	0xbf808695	-1.0041071
112	0xbfa87b48	-1.3162622
113	0xbe9a5ae7	-0.30147478
114	0x3f980e01	1.1879274
115	0x3ef62d7a	0.4808157
116	0xbdc84e03	-0.097805046
117	0x3fa60afa	1.29721
118	0xbda806aa	-0.08204396
119	0x3f9a1716	1.2038295
120	0x3f87ed3c	1.0619273
121	0xbe8e7656	-0.27824658
122	0x3e2d128c	0.16901606
123	0xbf91b870	-1.1384411
124	0x3e5649d4	0.209266
125	0x3f3e704c	0.743901
126	0xc088fe51	-4.2810445
127	0x3e90ecf6	0.28305787
128	0xbf166fcc	-0.5876434
129	0xbf470af9	-0.7775112
130	0x3e59ad86	0.212576
131	0xbe656f19	-0.22405662
132	0x3e9f957d	0.31168738
133	0x3e8cd39e	0.275052
134	0x3d539e5e	0.051664703
135	0x3f4c1d70	0.7973242
136	0xbf2c0a44	-0.67203164
137	0xbe28df7f	-0.16491507
138	0xbef8a4b3	-0.48563156
139	0xbed46e3d	-0.41490355
140	0x3da87169	0.08224756
141	0xbeb1b35a	-0.34707147
142	0x3fd49fc9	1.6611263
143	0xbd8f1db4	-0.06988087
144	0xbf000d94	-0.5002072
145	0x3f29fa33	0.663974
146	0xbd19b842	-0.037529238
147	0xbdbc397a	-0.0919065
148	0x3dff2cc8	0.12459713
149	0x3ea96324	0.3308345
150	0xbe945fa0	-0.28979206
151	0x3f8d8ee3	1.105923
152	0xbe579568	-0.21053088
153	0x3f99e9bc	1.2024455
154	0x3f64e609	0.89413506
155	0x3ebe420b	0.37159762
156	0xbf4e1799	-0.8050476
157	0xbead18fc	-0.33808124
158	0xc078e2be	-3.8888392
159	0x3d4c0574	0.049809888
160	0xbd24b9a7	-0.040216114
161	0xbeb0b3c7	-0.3451216
162	0xbf252262	-0.6450559
163	0xbf3bb49d	-0.7332247
164	0x3ea062ec	0.3132547
165	0x3fe1e02d	1.7646538
166	0x3ebb4543	0.3657628
167	0x3eefefbc	0.4686259
168	0xbe2fbd67	-0.17162095
169	0xbecf8cee	-0.40537208
170	0x3e4c4d77	0.19951425
171	0x3dc82e02	0.097744
172	0x3ed7947c	0.42105472
173	0xbe7ae9cb	-0.24503247
174	0x3ee7d532	0.45279843
175	0xbea0d9bc	-0.31416118
176	0x3e470319	0.19434775
177	0x3d8bf880	0.06834507
178	0x3ff8e1f5	1.9443957
179	0x3f30bc80	0.6903763
180	0xbe4f221b	-0.20227854
181	0xbd557d15	-0.05212124
182	0x3eba1730	0.36345816
183	0xbe4b790e	-0.19870397
184	0xbe343bb2	-0.17600897
185	0xbe9e844c	-0.3096031
186	0x3e0b806f	0.13623212
187	0x3eea8605	0.45805374
188	0xbf67b6ca	-0.9051329
189	0x3ec35f5e	0.38158697
190	0x3f522a61	0.82095915
191	0x3d9d0a8a	0.07668026
192	0x3db083ed	0.08618913
193	0x3ed3fdcf	0.41404578
194	0x3e26c6b1	0.16286732
195	0x400c783f	2.1948392
196	0xbb88d776	-0.0041760756
197	0x3e8746cf	0.2642121
198	0x3ea7b905	0.32758346
199	0xbf097fd6	-0.5371069
200	0x3f6a6a7f	0.9156875
201	0x3e81c6ed	0.2534708
202	0xbe8c6d68	-0.2742722
203	0xbccd262f	-0.025042621
204	0x3e4b0d1a	0.19829217
205	0x3cf0b68a	0.029383916
206	0xbe2b7000	-0.16741943
207	0xbd78b01e	-0.060714833
208	0xbf30947f	-0.6897659
209	0xbe9b24d3	-0.30301532
210	0xbe947571	-0.2899585
211	0xbe8a93cb	-0.27065882
212	0x3f4a95bf	0.79134744
213	0xbea29254	-0.31752264
214	0x3d8160eb	0.06317314
215	0xbeb41bff	-0.3517761
216	0x3f374a83	0.7159807
217	0xbe06df86	-0.13171205
218	0x3dec52ae	0.115392074
219	0xbdcc884a	-0.099869326
220	0x3d445320	0.047930837
221	0x3e7d1036	0.24713215
222	0xbf9b3f2a	-1.2128651
223	0xbf72e166	-0.9487518
224	0xbf3458a1	-0.70447737
225	0xbdc5c8c1	-0.096574314
226	0xbf24f6f3	-0.64439315
227	0xbec7e005	-0.390381
228	0x3e4468e7	0.19180642
229	0x3f05b70a	0.5223242
230	0x3f12b3db	0.5730569
231	0x3fdab3e4	1.7086148
232	0x3e58538a	0.21125618
233	0xbf0f019d	-0.55861837
234	0xbe011e3e	-0.12609193
235	0xbeeffecd	-0.46874085
236	0xbe1c5b84	-0.15269285
237	0xbd9f7d0c	-0.07787523
238	0x3ef8529a	0.4850052
239	0x3dc421d0	0.09576762
240	0x3f025351	0.5090838
241	0xbe1874fe	-0.14888379
242	0xbdd9f3ee	-0.10642229
243	0xbce722fd	-0.028214926
244	0x3f58f212	0.8474437
245	0xbe9aab94	-0.3020903
246	0x3e86b3e3	0.26309118
247	0xbe8ca148	-0.27466798
248	0xbee9d334	-0.45668948
249	0x3ba6cff8	0.00509071
250	0x3e3e6459	0.18592967
251	0x3d1fffe5	0.0390624
252	0xbeab63d0	-0.33474588
253	0xbf08c63d	-0.5342749
254	0xbf745d4e	-0.9545487
255	0x3e213188	0.15741551

lstm.bias_ih_l1 f4 [256]
0	0xbe34deda	-0.17663136
1	0x3eaa05ba	0.33207494
2	0xbddbf9b9	-0.1074099
3	0xbe792810	-0.24331689
4	0xbe9c1173	-0.30482063
5	0xbcf344cc	-0.02969589
6	0xbdad86b4	-0.08472958
7	0xbd0bf778	-0.03417155
8	0x3ed9fbb2	0.4257484
9	0xbd4d95f4	-0.050191835
10	0xbd202a58	-0.039102882
11	0x3d5d4583	0.05402137
12	0xbcc53df2	-0.02407739
13	0xbe984461	-0.2973967
14	0x3f15b868	0.58484507
15	0xbe321641	-0.17391302
16	0xbeeb661b	-0.45976338
17	0x3e328776	0.17434487
18	0xbec27eed	-0.37987462
19	0xbd0ea44a	-0.034824647
20	0xbd9fc327	-0.07800894
21	0xbe5dbde9	-0.21654476
22	0x3e6f0263	0.23340754
23	0x3bc66b68	0.0060552843
24	0x3c17131f	0.009220867
25	0xbecf0146	-0.4043066
26	0xbecf2c34	-0.40463412
27	0x3db5cbbd	0.088767506
28	0x3e6da732	0.23208311
29	0x3e8e20b0	0.27759314
30	0xbe64289b	-0.22281115
31	0xbe53faec	-0.20701188
32	0x3d55b214	0.05217178
33	0xbd6f1568	-0.058370024
34	0xbeb3388e	-0.35004085
35	0xbe8fa47e	-0.28055185
36	0xbe36a4e5	-0.1783634
37	0xbe3e6917	-0.18594776
38	0xbd400433	-0.046879005
39	0xbe3fa98d	-0.18717022
40	0xbd831883	-0.064011596
41	0xbd8036d1	-0.062604554
42	0xbbe1628b	-0.0068782023
43	0xbe6014ae	-0.21882889
44	0xbb656d2b	-0.0035007696
45	0x3e1a8d55	0.15092976
46	0x3e59b320	0.21259737
47	0xbe2d5d01	-0.1693001
48	0xbec2e6d6	-0.3806674
49	0xb9a8e80a	-0.0003221634
50	0x3e339473	0.17537098
51	0x3ea88551	0.32914212
52	0x3ed8b8ae	0.423284
53	0x3e9b8426	0.3037426
54	0xbe23b07d	-0.15985294
55	0xbeb625ac	-0.35575616
56	0xbdaa608c	-0.08319196
57	0xbc8abb37	-0.016934974
58	0x3d966450	0.07343352
59	0xbe12abb2	-0.14323309
60	0xbe839c72	-0.25705296
61	0xbef01a35	-0.46894994
62	0xbd98a00c	-0.074524015
63	0xbe64f855	-0.22360356
64	0xbdde3b2c	-0.1085113
65	0x3dedb9d9	0.11607713
66	0xbe4804ff	-0.19533156
67	0x3ee9dd23	0.45676526
68	0x3d38ec2c	0.045147106
69	0x3e625a0c	0.22104663
70	0xbe05a77f	-0.13052176
71	0xbc48af3d	-0.012248811
72	0x3d3851ed	0.045000006
73	0xbe7872eb	-0.24262588
74	0x3e6e0aa3	0.23246245
75	0x3d319e4a	0.043363847
76	0x3ed3873e	0.4131412
77	0xbdad7641	-0.08469821
78	0xbe06d8a1	-0.13168575
79	0x3c91b9ca	0.017788786
80	0xbe9069d2	-0.28205734
81	0xbeb56e6f	-0.35435817
82	0x3d0f58aa	0.034996666
83	0x3e8719fa	0.26387006
84	0xbba7179a	-0.005099249
85	0xbde484db	-0.11158153
86	0x3eedffec	0.46484315
87	0xbc97b246	-0.018517625
88	0x3e9a426d	0.30128804
89	0x3e561a4a	0.20908466
90	0xbe59f20b	-0.21283738
91	0x3ea08482	0.31351095
92	0x3ee3b936	0.44477242
93	0x3db31765	0.087446965
94	0x3e4db096	0.20086893
95	0x3f0d6015	0.55224735
96	0x3e7d4194	0.24732047
97	0xbcc10ab4	-0.023564674
98	0x3b22200f	0.0024738347
99	0x3de177da	0.11009188
100	0x3ebc05b8	0.36723113
101	0xbdd11b42	-0.10210277
102	0x3d986010	0.074401975
103	0x3eb10428	0.34573483
104	0xbdd0d44c	-0.101967424
105	0x3e1fe99f	0.15616463
106	0xbd1674f8	-0.036732644
107	0x3edecfae	0.43517822
108	0xbe26d790	-0.16293168
109	0x3e1657e0	0.14681959
110	0x3ed7c43d	0.42141905
111	0xbe145250	-0.14484525
112	0x3ee73c9f	0.45163438
113	0x3f698901	0.91224676
114	0xbd786858	-0.060646385
115	0x3f15781e	0.5838641
116	0x3e84fa75	0.25972334
117	0xbe69e137	-0.22839819
118	0x3dba458e	0.09095298
119	0xbe718d2b	-0.23589008
120	0x3e735ba0	0.23765421
121	0x3d939ae8	0.072072804
122	0xbeb16640	-0.34648323
123	0xbe6a1b40	-0.22861958
124	0x3da02e2b	0.07821306
125	0x3dedc908	0.11610609
126	0x3df2d63f	0.118572704
127	0xbe347587	-0.17622958
128	0xbddb2099	-0.10699577
129	0x3e73c233	0.2380455
130	0xbd1d9b2d	-0.038478065
131	0xbc7f2179	-0.015571945
132	0xbd1c7a6d	-0.03820269
133	0xbdb1bb7b	-0.08678337
134	0x3d6a7288	0.05723813
135	0x3e8d317a	0.2757681
136	0x3e9a41f9	0.30128458
137	0x3c418630	0.011811778
138	0xbb137c17	-0.0022504383
139	0xbd819999	-0.063281246
140	0x3d7fd5ca	0.062459745
141	0x3e87265e	0.2639646
142	0xbd9317e3	-0.071822904
143	0x3e4c26bf	0.19936655
144	0xbdbf3634	-0.0933651
145	0x3ea740cd	0.32666627
146	0xbe96b38a	-0.29433852
147	0xbcf270ca	-0.029594798
148	0xbaab4251	-0.0013066028
149	0x3dfd92b5	0.12381498
150	0x3e6fe1b4	0.23425943
151	0x3e6bdb11	0.23032786
152	0x3e4670c5	0.19378956
153	0x3b3a5beb	0.0028436135
154	0x3e463632	0.19356611
155	0xbe5de09f	-0.21667717
156	0x3e58b91b	0.21164362
157	0xbc22210b	-0.009895573
158	0xbdec51af	-0.115390174
159	0x3ee0ed63	0.43931112
160	0xbdedab36	-0.116049215
161	0x3cd257e8	0.025676683
162	0x3d7eb8a9	0.062187824
163	0x3e9701f9	0.29493693
164	0xbc8416d2	-0.016124163
165	0x3db752ab	0.089513145
166	0x3e5e3db7	0.2170323
167	0x3e0558c3	0.13022141
168	0xbddf468b	-0.10902127
169	0x3e79babf	0.24387644
170	0x3ed9c0e9	0.4252999
171	0xbea1fcf6	-0.31638306
172	0xbe92dc7d	-0.28683844
173	0x3db22da0	0.087001085
174	0xbe7b37c8	-0.24532998
175	0x3dc912d3	0.098180436
176	0x3e2659c0	0.16245174
177	0x3d84a583	0.06476881
178	0x3e7ff32c	0.24995106
179	0xbe0bf12e	-0.13666221
180	0x3f05d96d	0.5228489
181	0x3e9e4fea	0.30920345
182	0xbcc5e63e	-0.02415764
183	0xbeb70c54	-0.35751593
184	0x3e392998	0.18082273
185	0xbe341bd2	-0.17588738
186	0xbe16e0d0	-0.14734197
187	0xbed6d1d7	-0.4195697
188	0xbdf06b35	-0.11739198
189	0xbc419a3f	-0.01181656
190	0xbdcc4513	-0.09974112
191	0xbe8dc4fe	-0.27689356
192	0x3e9d1ecb	0.30687556
193	0x3cebeae1	0.028798522
194	0xbdb761fa	-0.089542344
195	0x3e7b2e21	0.24529316
196	0x3ecfe63b	0.4060534
197	0xbdb95ecc	-0.09051284
198	0x3d6e19c8	0.058130056
199	0x3b8426fe	0.0040329685
200	0xbe409f4a	-0.18810764
201	0x3db98f03	0.090604804
202	0x3f25d500	0.6477814
203	0xbd828a52	-0.06374039
204	0x3f24e378	0.6440959
205	0xbdcd7556	-0.10032146
206	0xbd4c693d	-0.04990505
207	0xbeefc631	-0.46830896
208	0xbe79eb5d	-0.2440619
209	0xbe0dfaaa	-0.13865152
210	0x3e4505c3	0.19240479
211	0x3ee5729f	0.4481401
212	0xbe5793b3	-0.21052437
213	0x3ce6353f	0.028101562
214	0x3cd5db5d	0.026105577
215	0xbd528999	-0.051400755
216	0xbe9f4fe0	-0.31115627
217	0x3e0693d4	0.1314233
218	0xbd5addb7	-0.0534341
219	0x3d03ef42	0.032210596
220	0xbf091c35	-0.53558666
221	0xbe03b0e0	-0.12860441
222	0xbd25fa12	-0.04052169
223	0x3ed35a95	0.41280046
224	0xbd7b342e	-0.06132906
225	0xbea950f4	-0.33069575
226	0x3e4712fa	0.19440833
227	0xbe7739f3	-0.241432
228	0xbe55bd2a	-0.20872942
229	0xbcd98299	-0.026551532
230	0xbda27285	-0.07931999
231	0x3ea4e713	0.32207546
232	0x3e23492b	0.1594588
233	0x3f1fd82f	0.62439245
234	0x3e097d9a	0.1342682
235	0x3ed28d88	0.41123605
236	0xbe144fe0	-0.14483595
237	0xbd6dc1e6	-0.058046244
238	0xbcf6ad36	-0.03011189
239	0xbdceb83e	-0.10093735
240	0x3f143546	0.5789379
241	0x3eeeda47	0.46650907
242	0x3da13f0b	0.078733526
243	0xbe87ca02	-0.26521307
244	0x3e63adb9	0.22234239
245	0x3de84229	0.11340744
246	0xbecaf4d7	-0.39639923
247	0xbd8aedbd	-0.06783626
248	0x3e65edf8	0.22454059
249	0xbe514745	-0.20437343
250	0xbd958093	-0.07299914
251	0x3edbc131	0.4292083
252	0xbe6d6705	-0.2318383
253	0x3f26bdb0	0.6513319
254	0xbd760106	-0.06005957
255	0xbd908b02	-0.07057764
