models/v2/LSTM_xy_epoch_60_h-h_8-12_pt1_pf1.2.pth (torch, 340376 bytes, 14 tensors)

lstm.weight_ih_l0 f4 [256, 2]
0	0x3f10a2ae	0.5649823
1	0xbea53cda	-0.3227299
2	0x3ec1ab16	0.3782584
3	0x3e832a84	0.25618374
4	0xbd9507e8	-0.072768986
5	0x3dc279be	0.09495877
6	0x3ee27d57	0.44236252
7	0xbeef68a6	-0.46759528
8	0x3f1e35ae	0.6180066
9	0xbea40ff7	-0.3204343
10	0xbee41310	-0.44545794
11	0xbe23ab8d	-0.1598341
12	0x3e5524d9	0.20814838
13	0x3c1fa898	0.009744786
14	0xbe9e0fd1	-0.30871442
15	0x3e18be72	0.14916399
16	0x3efec6bd	0.49761
17	0xbf36555f	-0.71224016
18	0x3d0cfcca	0.034420766
19	0x3d87a3ee	0.06623064
20	0x3df55114	0.11978355
21	0xbe0d3028	-0.13787901
22	0x3e786476	0.24257073
23	0x3ddff761	0.10935856
24	0x3d565223	0.052324425
25	0xbd506587	-0.050878074
26	0x3f35269b	0.7076203
27	0xbe7593ba	-0.23982134
28	0x3f18a3e7	0.59625095
29	0xbf22b6ae	-0.6356
30	0x3ed3f8e2	0.4140082
31	0xbf0104b9	-0.5039783
32	0xbe13435e	-0.14381167
33	0x3dad5b77	0.08464711
34	0x3f1b47fc	0.60656714
35	0xbe657fa5	-0.22411974
36	0x3f29af9a	0.6628357
37	0xbe8fe9c3	-0.28108034
38	0xbe1f5396	-0.15559229
39	0x3db31ffb	0.08746334
40	0x3f42a00d	0.7602547
41	0xbe376626	-0.1791006
42	0xbde424a2	-0.111398
43	0x3e4f6ed3	0.2025712
44	0x3f1885d4	0.59579206
45	0xbf025393	-0.50908774
46	0x3e3d7cd5	0.18504651
47	0x3e870d01	0.2637711
48	0x3e9b2d78	0.30308127
49	0x3e20688e	0.15664884
50	0xbdc1341f	-0.094337694
51	0x3e27c09e	0.16382071
52	0x3dd25f85	0.10272125
53	0x3ec71f29	0.3889096
54	0x3f111823	0.56677455
55	0xbebb085c	-0.36529815
56	0x3d5cc4cb	0.053898614
57	0x3ed87787	0.42278692
58	0x3f2a5ec7	0.6655087
59	0xbea60b62	-0.3243056
60	0x3f19dbf7	0.60101265
61	0xbef47003	-0.47741708
62	0x3f16ed5a	0.5895592
63	0xbead5ab4	-0.33858263
64	0xbe1937a7	-0.14962636
65	0x3ded87c6	0.11598162
66	0x3d4dc660	0.050238013
67	0xbe19dee6	-0.15026435
68	0x3f159712	0.5843364
69	0xbea12f2b	-0.314813
70	0xbeb8ebe3	-0.36117467
71	0xbe4eb5c8	-0.20186532
72	0x3ee62100	0.44947052
73	0xbf20bf24	-0.6279166
74	0x3e07fd09	0.13280119
75	0xbdbda576	-0.09260075
76	0x3ee15f06	0.4401781
77	0xbf1120d9	-0.56690747
78	0x3ea0658a	0.31327468
79	0xbf2639b8	-0.6493182
80	0xbe66636e	-0.22498867
81	0x3e3d95ab	0.18514125
82	0x3f1f9219	0.623323
83	0xbe9d1966	-0.3068344
84	0x3f07c67f	0.53037256
85	0xbf12a3f1	-0.57281405
86	0x3ef850e1	0.48499206
87	0xbf182458	-0.59430456
88	0x3eab2be8	0.33431935
89	0xbf2ba994	-0.6705563
90	0xbe0e05c6	-0.1386939
91	0x3e0294a4	0.12752014
92	0x3d08f801	0.03343964
93	0xbe0fd298	-0.14045179
94	0x3dc84004	0.09777835
95	0x3e218986	0.15775117
96	0x3e9bac50	0.30404902
97	0x3ef6ba16	0.48188847
98	0xbe57eaf6	-0.21085724
99	0x3e03d1e6	0.12873039
100	0x3df25ab0	0.118337035
101	0xbdb1f28f	-0.086888425
102	0x3f1fc980	0.6241684
103	0xbee65e2d	-0.44993725
104	0x3e9b640c	0.30349767
105	0x3ea700ee	0.32617897
106	0xbe82078c	-0.25396383
107	0x3dcf8e9b	0.10134622
108	0x3f0c074e	0.54698646
109	0xbe866d1f	-0.26255128
110	0x3f06aeda	0.5261055
111	0xbedcb7d0	-0.43108988
112	0x3f128bd6	0.5724462
113	0xbf136eb0	-0.5759077
114	0xbdeaeb8d	-0.11470709
115	0x3e30c3e1	0.17262222
116	0xbe46b822	-0.19406179
117	0xbd6c81b5	-0.057740886
118	0x3f242c1a	0.64129794
119	0xbf012e64	-0.5046141
120	0x3f20b6c6	0.6277889
121	0xbe856ba4	-0.26058686
122	0xbe242bad	-0.16032286
123	0xbf54074f	-0.8282365
124	0x3ea6dc14	0.3258978
125	0x3de3c4c4	0.111215144
126	0xbdce5404	-0.100746185
127	0x3e403c7e	0.18773076
128	0x3ef6585a	0.48114282
129	0xbea2d295	-0.31801286
130	0xbec2296e	-0.37922233
131	0x3ebc4dfd	0.3677825
132	0x3ed23110	0.41053057
133	0xbe94c7ad	-0.2905859
134	0x3e0413b8	0.12898147
135	0xbd7fd219	-0.062456224
136	0x3e883f7d	0.26610938
137	0xbe5645fe	-0.20925137
138	0x3e8c787a	0.27435666
139	0xbeae0ff2	-0.3399654
140	0xbeb6f06f	-0.3573031
141	0x3e9c80ac	0.3056692
142	0x3e550b84	0.20805174
143	0xbe34201e	-0.17590377
144	0x3ecdac47	0.401705
145	0xbecfe693	-0.40605602
146	0x3dc03753	0.09385552
147	0xbdeae844	-0.114700824
148	0x3d938dfd	0.072048165
149	0xbf0f2293	-0.5591213
150	0x3e69726e	0.22797558
151	0x3e0262fb	0.1273307
152	0x3f0300e0	0.5117321
153	0xbea039f7	-0.31294224
154	0xbe7bd0fb	-0.24591438
155	0xbf02bce2	-0.5106946
156	0x3ebcd0d1	0.36878064
157	0xbec057da	-0.37567025
158	0x3e95e408	0.29275537
159	0xbe44a9b2	-0.19205359
160	0xbe303ae7	-0.1720997
161	0x3dd5b3d6	0.104346916
162	0xbd9a290f	-0.075273626
163	0x3d5149f3	0.051095914
164	0x3eb40579	0.35160425
165	0xbeba7814	-0.36419737
166	0xbe392373	-0.18079929
167	0x3df2a2d7	0.118474655
168	0xbeae5022	-0.3404551
169	0xbd6b7071	-0.05748028
170	0xbe1b7152	-0.15179947
171	0x3e51acb9	0.20476045
172	0x3e2431d7	0.16034637
173	0xbe97a7e2	-0.29620272
174	0x3e8ac9f8	0.27107215
175	0xbec61129	-0.38684967
176	0x3d8641ad	0.065554954
177	0xbe5d3eab	-0.21605937
178	0xbe2ef707	-0.17086421
179	0x3e3c3372	0.18379
180	0x3eec69e5	0.4617454
181	0xbedf8daf	-0.43662784
182	0xbea862a6	-0.32887763
183	0xbe517b07	-0.20457087
184	0xbce402dd	-0.027833397
185	0x3f6314a2	0.8870336
186	0x3ef4a1d5	0.47779718
187	0xbe86dcc1	-0.26340297
188	0x3e8e95de	0.27848715
189	0xbe83700e	-0.25671428
190	0x3e12bb05	0.14329155
191	0xbe98ea89	-0.29866436
192	0x3ebbb595	0.36661974
193	0xbec5b17f	-0.3861198
194	0x3eb756d7	0.3580844
195	0x3e959adf	0.2921972
196	0x3ebbe292	0.36696297
197	0xbe5861f9	-0.21131124
198	0x3ec57971	0.38569215
199	0xbe99f1e3	-0.30067357
200	0x3ed8eadd	0.42366686
201	0xbebd428a	-0.36964828
202	0x3f0653cb	0.5247161
203	0xbe8d6a3f	-0.27620122
204	0xbefda778	-0.4954183
205	0x3d6aca52	0.057321854
206	0xbe61cfc9	-0.2205192
207	0xbdced5c9	-0.1009937
208	0x3e9b0dd2	0.30283982
209	0xbe258304	-0.1616326
210	0x3f046f30	0.5173216
211	0xbe7ac6d5	-0.24489911
212	0x3f059b32	0.52189934
213	0xbe425ee4	-0.1898151
214	0x3d8773f9	0.06613917
215	0xbdea208d	-0.1143199
216	0x3ea64fb4	0.32482684
217	0xbf10c90a	-0.5655676
218	0x3efe5de9	0.49681023
219	0xbebea838	-0.37237716
220	0x3e82ce35	0.25547948
221	0xbea514af	-0.32242343
222	0x3ea9a263	0.33131704
223	0xbeca2bed	-0.39486638
224	0x3d874c7d	0.06606386
225	0x3f40358d	0.7508171
226	0x3ee7c34c	0.45266187
227	0xbdf2e41e	-0.11859916
228	0x3eeb16ae	0.4591574
229	0xbebda5e5	-0.3704063
230	0x3e6f5564	0.23372418
231	0xbead6368	-0.33864903
232	0x3f01fcd4	0.5077641
233	0x3dad61d1	0.084659226
234	0x3f013c1c	0.50482345
235	0xbedd63a4	-0.43240082
236	0xbea90d65	-0.33018032
237	0x3eb30d3d	0.34971038
238	0x3eba0aec	0.36336458
239	0xbeb39fd4	-0.35082877
240	0xbf0b8a71	-0.5450812
241	0x3de01431	0.10941351
242	0x3edf1884	0.4357339
243	0xbec05492	-0.37564522
244	0x3eeb9464	0.4601165
245	0xbe807d92	-0.25095803
246	0xbecd4365	-0.4009048
247	0x3e444328	0.19166243
248	0x3ec16f00	0.3778
249	0xbe8bf194	-0.27332747
250	0xbe2ca06e	-0.16858074
251	0xbe9bde9e	-0.3044328
252	0x3e34fba7	0.17674123
253	0x3e67ded8	0.22643602
254	0xbd8e091b	-0.069353305
255	0x3f686fe7	0.9079575

lstm.weight_hh_l0 f4 [256, 64]
0	0x3f0dc1f8	0.553741
1	0xbeac3849	-0.33636692
2	0x3f1c3244	0.610142
3	0x3e8aa39f	0.27077958
4	0xbeea53b8	-0.45766997
5	0xbea53df9	-0.32273844
6	0xbda599bb	-0.080859624
7	0x3e95600d	0.29174843
8	0xbf22a111	-0.6352702
9	0x3ee8d4b6	0.45474786
10	0xbe8397a2	-0.25701624
11	0xbec0705a	-0.37585717
12	0x3ec0ea31	0.37678674
13	0x3e874a6b	0.26423964
14	0xbec424b3	-0.3830925
15	0xbeb34951	-0.35016873
16	0xbef797b9	-0.48357943
17	0x3ec88c4b	0.39169535
18	0xbf0084b4	-0.5020249
19	0xbed63221	-0.4183512
20	0xbdf2aaa5	-0.11848954
21	0xbef0da57	-0.4704158
22	0xbf188405	-0.59576446
23	0x3ea4e830	0.32208395
24	0xbedfba07	-0.43696615
25	0xbf2a3b78	-0.6649699
26	0xbf0cb91e	-0.54969966
27	0xbe5ef34a	-0.21772495
28	0xbe8cdb97	-0.27511284
29	0xbea77fe7	-0.3271477
30	0xbf078d15	-0.5294965
31	0xbf1cf2f9	-0.61308247
32	0x3e7f03f3	0.2490385
33	0x3ea722af	0.3264365
34	0x3e43ef48	0.19134247
35	0x3ea0518d	0.31312218
36	0x3ec0382d	0.3754286
37	0xbe87620d	-0.26441994
38	0xbea691cd	-0.32533112
39	0xbe598367	-0.21241532
40	0xbebfb982	-0.3744622
41	0x3e73fe76	0.23827538
42	0xbee49f22	-0.4465266
43	0xbefa2eb7	-0.48863766
44	0xbd8274cf	-0.06369936
45	0x3ef2ef9b	0.4744843
46	0x3ec43ad0	0.3832612
47	0x3cd21a23	0.025647229
48	0x3e58f22e	0.21186134
49	0x3e3eae0b	0.1862108
50	0xbe6d4a8e	-0.23172972
51	0xbef5eb82	-0.4803124
52	0xbed84f96	-0.4224822
53	0x3e84cb8c	0.25936544
54	0xbd1176a8	-0.03551355
55	0xbe7271f8	-0.23676288
56	0xbeb566e0	-0.3543005
57	0xbf640fda	-0.8908669
58	0x3d7a73da	0.06114564
59	0xbe6ff3d4	-0.23432857
60	0x3f160704	0.58604455
61	0x3ec6b83e	0.3881244
62	0x3ea472f3	0.3211895
63	0xbf22ae9d	-0.6354769
64	0x3dfb81d9	0.12280626
65	0x3f0455e0	0.51693535
66	0xbf85cae1	-1.0452539
67	0x3e09c216	0.13452944
68	0x3c1e3878	0.009657018
69	0x3ea392a5	0.31947818
70	0xbcc2ad7e	-0.023764368
71	0xbc03bff4	-0.008041371
72	0x3dfc00a2	0.12304808
73	0x3f3342d9	0.70023876
74	0xbda557e7	-0.08073407
75	0x3c425643	0.011861387
76	0x3f057721	0.521349
77	0x3e02ed55	0.12785847
78	0x4017ad6f	2.3699605
79	0x3e122e64	0.14275509
80	0x3bdddec1	0.006770939
81	0x3d912cd7	0.07088631
82	0xbe5f3fb8	-0.2180165
83	0xbdcd6da4	-0.10030678
84	0xbd7a18e1	-0.061058883
85	0x3d7f79f7	0.062372174
86	0xbd9aa851	-0.07551635
87	0xbf96eb12	-1.1790488
88	0x3d002212	0.031282492
89	0xbecb5266	-0.39711303
90	0x3f8e1652	1.1100562
91	0xbde2f18e	-0.11081229
92	0x3ea737f3	0.32659873
93	0xbee22973	-0.44172248
94	0xbdf6b08d	-0.12045393
95	0x3d3af373	0.045642328
96	0x3f26e5e5	0.6519454
97	0xbfe46cdf	-1.7845725
98	0x3e385ff5	0.18005355
99	0xbdd41956	-0.10356395
100	0x3e1071c0	0.14105892
101	0xbc881cbb	-0.016615262
102	0xbe5b8d88	-0.21440709
103	0xbe8c2c5c	-0.27377594
104	0x3e22ecb5	0.15910609
105	0x3e890933	0.2676483
106	0x3e93e758	0.2888744
107	0xbe998636	-0.29985207
108	0x3de23b9f	0.11046528
109	0xbc38fa3e	-0.011290131
110	0x3e1d9561	0.15389015
111	0x3ed189a0	0.40925312
112	0xbe0d1633	-0.13778
113	0xbefa2d76	-0.4886281
114	0xbd23ea77	-0.040018525
115	0xbe85a5b1	-0.26102975
116	0x3ebbe95d	0.3670148
117	0x3f3e576f	0.74352163
118	0x3e2db349	0.16962923
119	0x3e0f0570	0.13966918
120	0xbe0a234d	-0.13490029
121	0x3f254d85	0.6457141
122	0x3ca81758	0.020518944
123	0xbeb56d06	-0.3543474
124	0x3e2f212a	0.17102495
125	0x3e511f93	0.20422201
126	0x3f0309f0	0.5118704
127	0x3b1b08ed	0.0023656443
128	0xbe5cdc07	-0.21568309
129	0x3eb71365	0.35756984
130	0xbec54bce	-0.38534397
131	0xbf89b016	-1.0756862
132	0xbddceff7	-0.10787957
133	0x3ed37369	0.41298988
134	0x3f579dd5	0.8422521
135	0xbfd4e160	-1.6631279
136	0xbee1131a	-0.43959886
137	0x3ddff35f	0.10935091
138	0x3ded04a2	0.11573149
139	0xbd0b1240	-0.03395295
140	0x3f825723	1.0182842
141	0xbf35b108	-0.70973253
142	0xbe04283c	-0.12905973
143	0x3e2af420	0.16694689
144	0xbd7d4711	-0.061835352
145	0xbdea8eed	-0.11453042
146	0xbed8aed8	-0.42320895
147	0xbe83fa89	-0.2577708
148	0x3e71d619	0.23616828
149	0x3dacdbef	0.084403865
150	0xbf2c70c3	-0.6735956
151	0xbd093b37	-0.033503737
152	0x3d0d4ddb	0.034498077
153	0xbf2c2cf6	-0.67256105
154	0x3f4dccbc	0.80390525
155	0xbeb1fe2f	-0.3476424
156	0xbe8a0be2	-0.2696219
157	0xbf18ecb3	-0.59736174
158	0xbedb00f3	-0.42774162
159	0xbe059601	-0.13045503
160	0x3e879609	0.26481655
161	0x3e2f5b5c	0.17124695
162	0x3b1bf3c0	0.002379641
163	0xbde38cab	-0.11110815
164	0xbdc743b9	-0.09729714
165	0xbfd1eca2	-1.640034
166	0x3d3f3bf1	0.046688024
167	0xbf33687a	-0.70081294
168	0x3ed36917	0.41291115
169	0xbd99a5e7	-0.075023465
170	0xbf3108ac	-0.6915386
171	0xbf38965d	-0.72104436
172	0x3e3d84b5	0.18507655
173	0x3db3dbc8	0.08782154
174	0x3f07a3da	0.5298439
175	0x3ee64ea7	0.44981882
176	0x3f0b200b	0.5434577
177	0xbf1c1b60	-0.6097927
178	0xbfcb22aa	-1.5869954
179	0xbf1d16e0	-0.6136303
180	0xbb38401b	-0.0028114382
181	0x3f403802	0.7508546
182	0xbf0c1972	-0.54726326
183	0xbf8d30d3	-1.1030525
184	0x3e53c4ba	0.20680514
185	0xbe238635	-0.15969165
186	0xbcd877bd	-0.026424283
187	0x3e478b4b	0.1948673
188	0x3ed55414	0.4166571
189	0xbed87721	-0.42278388
190	0xbc9fb3d6	-0.019494932
191	0xbef55820	-0.47918797
192	0x3e7da9ce	0.24771807
193	0x3bffaf05	0.0078028464
194	0x3f4ed459	0.80792767
195	0xbd995dc7	-0.0748859
196	0x3e224d0d	0.15849705
197	0x3e4d1c2d	0.2003028
198	0x3ee612cf	0.44936225
199	0xbdf06d99	-0.11739654
200	0xbe0dec9f	-0.13859795
201	0xbd9e7c36	-0.07738535
202	0x3f569ab3	0.838298
203	0x3eb2b274	0.34901774
204	0xbed4d33d	-0.41567412
205	0xbed54362	-0.41652972
206	0x3cca1ecc	0.024672888
207	0x3e50771a	0.20357934
208	0xbd5b3172	-0.05351395
209	0x3c9a11fe	0.018807407
210	0x3cc149b8	0.023594722
211	0xbdb8aa9c	-0.09016916
212	0x3e70eaa2	0.23527005
213	0x3c2a3be5	0.0103902565
214	0xbe2eba10	-0.17063165
215	0xbf135d10	-0.5756388
216	0x3e363e04	0.17797095
217	0x3dbcc301	0.092168815
218	0xbe8778e3	-0.26459417
219	0x3ec7e455	0.3904139
220	0xbe0a4f2b	-0.13506763
221	0xbd81b16d	-0.063326694
222	0xbd0a09be	-0.033700697
223	0xbd296f15	-0.0413657
224	0x3f354e13	0.70822257
225	0xbef8c900	-0.4859085
226	0xbeb1501b	-0.34631428
227	0x3e4ab58b	0.19795816
228	0xbd904dc3	-0.07046082
229	0x3f7719d4	0.96523786
230	0x3d9fd26f	0.07803809
231	0xbc971f5d	-0.018447572
232	0xbf29a402	-0.6626588
233	0x3e3a7ba9	0.18211235
234	0xbe43b04e	-0.19110224
235	0x3e82c245	0.2553884
236	0xbe5b8ca3	-0.21440367
237	0x3c79cf2d	0.015247148
238	0xbe92e83f	-0.28692815
239	0xbe14f777	-0.14547525
240	0xbeafbb73	-0.343227
241	0xbe9ad40d	-0.30239907
242	0x3fcd83be	1.605583
243	0xbe8a2312	-0.26979882
244	0x3ecb5be1	0.39718536
245	0xbf78965e	-0.9710444
246	0xbd83a50b	-0.06427964
247	0x3e396140	0.18103504
248	0xbdc56f6f	-0.09640395
249	0xbee24f91	-0.4420133
250	0xbcce66f1	-0.02519557
251	0x3dc59dc4	0.09649232
252	0xbe051814	-0.12997466
253	0xbde65363	-0.112463735
254	0xbec32e1a	-0.3812111
255	0x3e246138	0.16052711

lstm.bias_ih_l0 f4 [256]
0	0x3f0eb0d9	0.557386
1	0x3ed693e0	0.41909695
2	0x3f1d1c0f	0.6137094
3	0xbd83b6ae	-0.06431328
4	0x3e166c95	0.14689858
5	0x3d4a6ec1	0.04942203
6	0xbe8742c1	-0.26418117
7	0xbfef2bc5	-1.8685232
8	0x3f18a888	0.5963216
9	0xbf803826	-1.0017135
10	0xbee25cb0	-0.4421134
11	0xbe9bc4b2	-0.30423504
12	0xbe031db1	-0.12804295
13	0x3db548d9	0.08851785
14	0x3c900c83	0.017584091
15	0xbe8a67f8	-0.27032447
16	0x3f196afa	0.5992886
17	0x3eb0d476	0.34537095
18	0x3eafc4fa	0.3432997
19	0x3ef235d4	0.47306693
20	0x3f09fa7b	0.5389783
21	0x3ee93d33	0.45554504
22	0x3e2a0ace	0.16605684
23	0xbc39c1aa	-0.011337677
24	0xbdc09a8a	-0.09404476
25	0x3f90fe9a	1.1327698
26	0xbf1367d5	-0.5758031
27	0x3f04fc3a	0.5194737
28	0x3eb77ce8	0.35837483
29	0x3df0065e	0.117199644
30	0x3e3125f8	0.1729964
31	0x3eeb48ad	0.45953885
32	0x3e7919d6	0.24326262
33	0xbf417ba6	-0.755793
34	0x3e1bb0dc	0.15204185
35	0xbe493259	-0.19648112
36	0xbed8570e	-0.42253917
37	0xbf00960a	-0.5022894
38	0x3f5d95e1	0.8655682
39	0x3e852020	0.26001072
40	0xbfde4cc7	-1.736718
41	0x3ecee366	0.40407866
42	0x3f27f971	0.6561499
43	0x3befe436	0.007320906
44	0x3ec50117	0.38477394
45	0x3ebfcfa8	0.37463117
46	0xbf887c1b	-1.0662874
47	0xbf64a87e	-0.893196
48	0xbf097641	-0.53696066
49	0xbf3caf97	-0.7370543
50	0xbeb2ebb8	-0.34945464
51	0x3e41d6f0	0.18929648
52	0x3f6550fb	0.8957669
53	0x3ea90c88	0.33017373
54	0x3e4a75e2	0.19771531
55	0x3eaa36c0	0.33244896
56	0xbed09f1f	-0.407464
57	0x3ea49659	0.32145956
58	0x3ecef0bb	0.40418038
59	0x3e0fe4e7	0.14052163
60	0x3efe7f88	0.49706674
61	0x3f1a73f2	0.6033317
62	0xbe8ce229	-0.27516297
63	0x3f24b60a	0.6434027
64	0x3de19e03	0.110164665
65	0xbe639970	-0.222265
66	0x3e5c5379	0.21516217
67	0xbf058093	-0.52149314
68	0x3e5fe45b	0.21864454
69	0x3e8a6069	0.2702668
70	0xbec058bb	-0.37567696
71	0x3ddff3ea	0.10935195
72	0x3daedba8	0.0853799
73	0xbedc71cb	-0.43055567
74	0xbecc694d	-0.39924088
75	0xbe9dfd32	-0.30857235
76	0x3eb14eb2	0.34630352
77	0xbe2b9763	-0.16756968
78	0x3e67d2e7	0.22639047
79	0x3e745f66	0.23864517
80	0x3f1f596e	0.62245834
81	0x3ebd9f8f	0.37035796
82	0x3e97b296	0.29628438
83	0x3f1d15ed	0.6136158
84	0x3e9b239d	0.30300608
85	0x3ef7646a	0.48318797
86	0x3ef8d454	0.48599494
87	0x3ece0ac3	0.40242586
88	0xbe9750fe	-0.2955398
89	0x3f2f707b	0.68531007
90	0x3e128e0d	0.14312
91	0x3ec8587d	0.3913001
92	0x3e1de3f0	0.15418983
93	0x3d9f7e8d	0.077878095
94	0x3e5450ac	0.20733899
95	0x3e30ffae	0.17285034
96	0x3dcf9f94	0.10137859
97	0xbec42a51	-0.38313535
98	0x3e3cf3e5	0.18452413
99	0x3e2ea604	0.17055517
100	0x3e290ffb	0.16510002
101	0x3e6a217f	0.2286434
102	0x3df8fce1	0.12157608
103	0x3eac6936	0.3367402
104	0xbdaa5cde	-0.08318494
105	0x3d83179d	0.06400988
106	0x3dfe3837	0.12413066
107	0xbf1b35b9	-0.6062885
108	0x3c8409c1	0.016117932
109	0x3e083156	0.1330007
110	0xbdfd1af6	-0.12358658
111	0x3dfc0edc	0.12307522
112	0xbe096cd7	-0.13420425
113	0x3e15d849	0.14633287
114	0x3ecfd3fb	0.40591416
115	0x3e30cc2c	0.17265385
116	0x3d83dcb3	0.064385794
117	0xbd153d92	-0.03643567
118	0xbe49c8f3	-0.19705562
119	0x3e136a94	0.14396125
120	0x3e02f1de	0.12787578
121	0x3ea4d3ff	0.3219299
122	0x3e581b45	0.21104153
123	0x3e5246f0	0.20534873
124	0x3e934a58	0.28767657
125	0x3f051b5a	0.5199486
126	0xbf2d45cd	-0.6768463
127	0x3e48f770	0.1962564
128	0x3d37ec63	0.04490317
129	0x3eee5981	0.4655266
130	0x3dda4702	0.10658075
131	0xbe2855a3	-0.16438918
132	0xbe150fc3	-0.14556794
133	0xbddd3081	-0.10800267
134	0xbd8eda5c	-0.069752425
135	0x3de37794	0.11106792
136	0xbebb4017	-0.36572334
137	0x3e649cca	0.22325435
138	0x3d4aa2b8	0.049471587
139	0x3f39aab5	0.72526103
140	0xbf957cf6	-1.167876
141	0x3e4fc0ec	0.20288438
142	0xbda36f5b	-0.07980224
143	0x3d495179	0.049149964
144	0xbd196165	-0.0374464
145	0x3e65c6a3	0.22439055
146	0xbd9cebb3	-0.076621436
147	0xbe824203	-0.25440988
148	0xbf4f8945	-0.8106883
149	0xbcceb402	-0.025232319
150	0xbd4a79b9	-0.04943249
151	0xbdf37bfc	-0.118888825
152	0x3befcfa8	0.0073184557
153	0x3c755a24	0.0149751045
154	0xbe8de64d	-0.27714768
155	0xbe203fdc	-0.1564936
156	0xbdd21611	-0.10258115
157	0xbca378ba	-0.019955028
158	0xbded7899	-0.11595268
159	0xbe0e1582	-0.13875392
160	0x3e63b324	0.22236305
161	0x3ca81faa	0.020522911
162	0x3e2ff8f6	0.17184815
163	0x3e16f023	0.14740042
164	0xbeef89d9	-0.46784857
165	0x3fe327ec	1.7746558
166	0xbe399634	-0.18123704
167	0xbe0537e6	-0.13009605
168	0x3bf9ed1d	0.007627143
169	0x3e3e8624	0.18605858
170	0xbe4fce90	-0.20293641
171	0xbcf965bd	-0.03044402
172	0x3e953e3e	0.2914905
173	0xbcba56a9	-0.0227464
174	0x3ce9bd6f	0.028532712
175	0xbe281039	-0.16412438
176	0xbdfc7a2d	-0.12327991
177	0x3df762d3	0.12079396
178	0x3ff54587	1.9161843
179	0xbc9de56a	-0.019274432
180	0xbdc53729	-0.096296616
181	0x3f0d64e6	0.55232084
182	0x3e3f78ab	0.18698375
183	0xbd916cf9	-0.07100863
184	0x3ea4e10e	0.32202953
185	0x3b98e334	0.0046657566
186	0x3d5f8c7a	0.05457733
187	0x3dd0ad94	0.101893574
188	0x3e31709f	0.17328118
189	0x3dda5eea	0.10662635
190	0xbdaff2e0	-0.085912466
191	0xbec7fcb1	-0.39059976
192	0x3edb97b3	0.42889175
193	0x3e4bd524	0.19905525
194	0x3e5fa85b	0.21841566
195	0xbf75c67a	-0.96005976
196	0xbd79dc90	-0.06100136
197	0x3e22ffae	0.15917847
198	0xbf298229	-0.66214234
199	0xbf347113	-0.7048504
200	0x3f27230d	0.6528786
201	0x3f022ba4	0.5084784
202	0x3e106dfb	0.14104454
203	0xbf256efa	-0.6462246
204	0x3f0a34a3	0.5398657
205	0xbf3e8259	-0.74417645
206	0x3e1f3bfb	0.15550224
207	0xbf57dade	-0.8431834
208	0x3d976890	0.073929906
209	0x3f07843a	0.52936137
210	0x3f43bb24	0.7645743
211	0x3ed4189f	0.41425034
212	0xbf8c2172	-1.0947707
213	0x3f10b09a	0.5651947
214	0x3f7239ce	0.9461945
215	0x3d2a743b	0.041614752
216	0xbe0ae9b4	-0.13565713
217	0x3e478b0d	0.19486637
218	0x3e714b3e	0.23563859
219	0x3efae7d7	0.49005005
220	0x3ebd27a9	0.3694432
221	0x3f604ee7	0.87620395
222	0x3f473027	0.7780785
223	0x3ec00ce0	0.37509823
224	0x3d2dbcc0	0.042416334
225	0xbea87132	-0.3289886
226	0x3dee6d48	0.116419375
227	0x3ec29afa	0.38008863
228	0xbf1af034	-0.6052277
229	0xbde655e1	-0.11246849
230	0xbe5b8b00	-0.21439743
231	0x3eaa101a	0.3321541
232	0xbebc0f48	-0.3673041
233	0x3e60995d	0.21933503
234	0x3f5a4567	0.8526215
235	0xbecbad19	-0.397805
236	0x3ea5fe55	0.32420602
237	0x3dea63ee	0.11444841
238	0x3ca4a7f6	0.020099621
239	0xbf057eea	-0.5214678
240	0xbc2a4f34	-0.01039486
241	0xbf8cf6b7	-1.1012791
242	0x3e122d7a	0.1427516
243	0x3f48871c	0.7833116
244	0x3eb8cdce	0.36094517
245	0x3d99ed56	0.07515971
246	0x3eb2b792	0.34905678
247	0x3e4d91be	0.20075127
248	0xbe45f139	-0.193303
249	0x3e63e779	0.22256269
250	0xbaffde52	-0.0019521213
251	0x3eebf500	0.46085358
252	0x3f45e6a6	0.77305067
253	0xbe3ef564	-0.18648297
254	0xbf75a1ea	-0.95950186
255	0x3ec86280	0.3913765

lstm.bias_hh_l0 f4 [256]
0	0x3f0ad737	0.5423464
1	0x3e805c5b	0.25070462
2	0x3f0291bf	0.5100364
3	0x3d8ec986	0.06972031
4	0x3c391f09	0.011298903
5	0xbd806217	-0.06268709
6	0xbeec0fb6	-0.46105736
7	0xbfe83221	-1.8140298
8	0x3edd20a8	0.43188977
9	0xbf637768	-0.88854074
10	0xbefaad3a	-0.48960286
11	0xbe628331	-0.22120358
12	0xbc72f0a5	-0.014827882
13	0x3dd7afd6	0.10531585
14	0x3e4add52	0.1981099
15	0xbea1d647	-0.31608793
16	0x3effc25d	0.49952975
17	0x3eaa6d6c	0.33286607
18	0x3ef3dff9	0.47631815
19	0x3ef2505c	0.47326934
20	0x3ed49b89	0.41524914
21	0x3f050040	0.51953506
22	0x3e4f0f12	0.20220593
23	0x3dbc3f2f	0.09191739
24	0xbe93105b	-0.28723416
25	0x3fa2ea6b	1.2727789
26	0xbf2b91a3	-0.670191
27	0x3ee84644	0.45366108
28	0x3ebe357d	0.37150183
29	0x3d8db984	0.0692015
30	0x3e4786ff	0.1948509
31	0x3ed96f5b	0.4246777
32	0x3e67aea0	0.22625208
33	0xbf3da8ac	-0.740855
34	0x3d32ea6c	0.043680593
35	0xbec9fe7b	-0.39451966
36	0xbe7db446	-0.247758
37	0xbf02959a	-0.51009524
38	0x3f6b2879	0.9185863
39	0x3e716158	0.2357229
40	0xbfe022bb	-1.7510599
41	0x3e9180af	0.2841849
42	0x3f23fd15	0.6405805
43	0x3dae9838	0.08525127
44	0x3ef805c0	0.48441887
45	0x3ebcf33f	0.36904332
46	0xbf99ba87	-1.2010049
47	0xbf6c8b3c	-0.92399955
48	0xbf0bcfd9	-0.54614025
49	0xbf3f5ae6	-0.74748075
50	0xbea01f3f	-0.3127384
51	0x3e0fcf29	0.14043869
52	0x3f42dea7	0.7612099
53	0x3e922599	0.2854431
54	0x3eb96a4b	0.36213908
55	0x3f09c0a4	0.5380957
56	0xbea19a26	-0.31562918
57	0x3e94cb2d	0.2906126
58	0x3ec7e394	0.39040816
59	0x3e23c691	0.15993716
60	0x3ea1da1c	0.31611717
61	0x3f20fb3b	0.6288335
62	0xbe4ff8bb	-0.20309727
63	0x3f07b3ce	0.53008735
64	0x3e36b9bd	0.17844291
65	0xbe0e34ae	-0.13887283
66	0x3ec5a4f9	0.38602427
67	0xbee21c7c	-0.44162357
68	0x3e55164a	0.20809284
69	0x3e974335	0.29543462
70	0xbe508d7d	-0.20366473
71	0x3e951119	0.29114607
72	0x3e63ad34	0.2223404
73	0xbefa694b	-0.48908457
74	0xbee76281	-0.4519234
75	0xbef2130f	-0.47280166
76	0x3e93dee8	0.28881
77	0xbe485aac	-0.19565839
78	0x3e638ee4	0.22222477
79	0x3e55cdb2	0.20879248
80	0x3ed37c2f	0.41305682
81	0x3e9f6bd9	0.3113697
82	0x3eaab7d9	0.3334339
83	0x3f12e187	0.5737538
84	0x3dea95cf	0.11454355
85	0x3edd8dfc	0.43272388
86	0x3eed5c24	0.4635936
87	0x3e42e3cb	0.19032209
88	0xbe4fd115	-0.20294602
89	0x3f153c9f	0.58295625
90	0x3e8b339e	0.27187818
91	0x3ee7fb6f	0.45309016
92	0x3b52fbce	0.0032193544
93	0x3dcaaa81	0.09895802
94	0x3e9de21a	0.30836564
95	0x3e6cf183	0.23139004
96	0x3dabcfd1	0.08389247
97	0xbe7e9c55	-0.24864323
98	0x3e10bfce	0.14135668
99	0x3e9f7c7b	0.3114966
100	0x3d11051e	0.03540527
101	0x3e5e7e5c	0.2172789
102	0x3e17c301	0.14820482
103	0x3e8ae7c3	0.27129945
104	0xbdc95768	-0.098311245
105	0x3d7ff125	0.062485833
106	0x3d80996b	0.06279262
107	0xbf32014e	-0.6953324
108	0x3e3bf1da	0.18353978
109	0x3e73dc0f	0.23814414
110	0xbe6af26e	-0.22944042
111	0x3e745db3	0.23863868
112	0xbea2e30d	-0.3181385
113	0x3da7a62f	0.08185994
114	0x3e3ffdfa	0.18749228
115	0x3e8986c4	0.2686063
116	0xbde9bbdd	-0.11412785
117	0xbcafc0da	-0.021454263
118	0xbde7a070	-0.11309898
119	0x3e186c21	0.14884998
120	0xbdc5f259	-0.09665365
121	0x3e34a265	0.17640074
122	0x3e075b0f	0.1321833
123	0x3e93f7f6	0.28900117
124	0x3e257705	0.16158684
125	0x3ed7dd26	0.4216091
126	0xbf189dad	-0.59615594
127	0x3ea3d83b	0.32000908
128	0x3dc8c774	0.09803668
129	0x3ec35463	0.3815032
130	0x3db68d84	0.08913711
131	0xbe48a2b4	-0.19593316
132	0xbdfb0196	-0.12256162
133	0xbdef9c6d	-0.11699758
134	0x3cc5ae22	0.024130885
135	0x3e8bdfbf	0.27319142
136	0xbe4af844	-0.19821268
137	0x3dd99b7a	0.10625358
138	0xbd1e24c2	-0.038609274
139	0x3f245bfa	0.64202845
140	0xbfab53df	-1.338497
141	0x3e17e97f	0.14835165
142	0xbd44436a	-0.047915854
143	0x3e29969f	0.16561364
144	0x3cd92ac6	0.026509654
145	0x3e14ac37	0.1451882
146	0xbd5d4695	-0.05402239
147	0xbeb08c47	-0.34482023
148	0xbf6062b7	-0.87650627
149	0xbd5dfbcc	-0.05419521
150	0x3b9c4421	0.004768864
151	0xbdcdd0b4	-0.100495726
152	0x3d84f3df	0.06491827
153	0xbe267607	-0.16255961
154	0xbe3de150	-0.18542981
155	0xbd5f04e7	-0.054448035
156	0xbdf05d1b	-0.117365085
157	0x3d9eb9f3	0.07750311
158	0xbdade692	-0.084912434
159	0xbc4b5dab	-0.012412469
160	0x3e0c4d17	0.13701282
161	0x3daa55e9	0.08317167
162	0x3db90739	0.09034581
163	0xbcc89a17	-0.024487538
164	0xbebd3b8b	-0.3695949
165	0x3ff1fb11	1.8904744
166	0xbe2843bc	-0.16432089
167	0x3943508e	0.00018626658
168	0x3d7cea31	0.06174678
169	0x3c27219c	0.010200884
170	0xbe820450	-0.25393915
171	0x3d5f0551	0.05444843
172	0x3ee72f6e	0.45153373
173	0xbcd9bcb4	-0.026579238
174	0x3da04567	0.078257374
175	0xbe1a50a8	-0.1506983
176	0xbde7ac7f	-0.11312198
177	0xbd1ad828	-0.0378038
178	0x4006bff1	2.1054652
179	0xbdb4781e	-0.08811973
180	0x3d52cdf3	0.05146594
181	0x3f350525	0.70710975
182	0x3e354ee8	0.17705882
183	0xbe2caf4b	-0.16863744
184	0x3ef02a52	0.46907288
185	0xbdd37314	-0.10324684
186	0x3db578c7	0.08860927
187	0xbd6011b4	-0.054704383
188	0x3e12d5e6	0.14339408
189	0x3e5f9b6a	0.2183663
190	0xbe12da0e	-0.14340994
191	0xbe8930e7	-0.26795122
192	0x3ec7037a	0.3886984
193	0x3e76374e	0.24044535
194	0x3dae31b6	0.08505575
195	0xbf5fae65	-0.8737548
196	0xbca66a5a	-0.020314384
197	0x3dc5a43e	0.09650467
198	0xbf10f949	-0.5663038
199	0xbf1ccd03	-0.61250323
200	0x3f1c8724	0.6114371
201	0x3ee7607a	0.45190793
202	0x3e029532	0.12752226
203	0xbf59df4f	-0.85106367
204	0x3f03daed	0.5150593
205	0xbf416267	-0.75540775
206	0x3e5defe3	0.21673541
207	0xbf7345c3	-0.9502832
208	0x3e764b28	0.24052107
209	0x3eff2573	0.4983326
210	0x3f39c874	0.7257149
211	0x3e4a6f02	0.19768909
212	0xbf67763b	-0.9041478
213	0x3f0f4f9f	0.5598087
214	0x3f81bbc4	1.0135427
215	0x3dafc3da	0.085822776
216	0xbd2da43b	-0.04239295
217	0x3ece4035	0.4028336
218	0x3eb0d191	0.34534886
219	0x3ec2ff73	0.38085517
220	0x3e7955be	0.24349114
221	0x3f233a3b	0.6376073
222	0x3f286ee7	0.65794224
223	0x3ed16be4	0.40902627
224	0x3e71d3b6	0.23615918
225	0xbf0bc799	-0.54601437
226	0x3e9e2b82	0.3089257
227	0x3e7eeab4	0.2489422
228	0xbed20521	-0.41019538
229	0xbe942fdf	-0.28942773
230	0xbe68de2e	-0.22741005
231	0x3ef19d0f	0.4719014
232	0xbec3dea8	-0.3825581
233	0x3e286636	0.1644524
234	0x3f6dba33	0.9286224
235	0xbeb20cde	-0.34775442
236	0x3eb867bb	0.3601664
237	0x3e12e08f	0.14343475
238	0xbdc879c6	-0.097888514
239	0xbec60fbe	-0.38683885
240	0xbe59be8c	-0.21264094
241	0xbf879e4a	-1.0595181
242	0x3d95b320	0.07309556
243	0x3f7c0188	0.98439837
244	0x3f0f2a8e	0.5592431
245	0x3e78177b	0.24227707
246	0x3ee6267a	0.4495123
247	0x3da30a25	0.07960919
248	0xbe8deadc	-0.27718246
249	0x3e2e7bf6	0.17039475
250	0xbcd1d5c4	-0.025614627
251	0x3f150b50	0.58220387
252	0x3f363ad2	0.711835
253	0xbdb4b79d	-0.08824084
254	0xbf8b6616	-1.0890529
255	0x3e9e1b3c	0.30880153

lstm.weight_ih_l1 f4 [256, 64]
0	0xbdd16bd1	-0.102256425
1	0x3e4dfff9	0.20117177
2	0xbd96cca8	-0.07363254
3	0xbe95c433	-0.2925125
4	0x3dcd62db	0.10028621
5	0x3d45e6c2	0.04831577
6	0x3e191933	0.14951019
7	0x3d2ddf5d	0.042449344
8	0xbed16751	-0.40899137
9	0xbd7ceb22	-0.061747678
10	0xba966c7c	-0.0011476423
11	0x3d8d30bc	0.06894061
12	0xbea2067f	-0.3164558
13	0xbe4e4655	-0.20144017
14	0xbea4c58d	-0.3218197
15	0x3e75fff5	0.24023421
16	0xbe818c2e	-0.2530226
17	0x3f0653c5	0.5247157
18	0xbe98428e	-0.29738277
19	0xbe116f5c	-0.14202636
20	0x3e64c3c4	0.22340304
21	0xbec85438	-0.39126754
22	0xbd246ff7	-0.04014584
23	0x3cda8bb1	0.026677938
24	0xbccb4fd1	-0.024818333
25	0xbdc412a2	-0.095738664
26	0x3dcda4b7	0.100411825
27	0xbd8ff777	-0.07029622
28	0x3e1fe8ee	0.156162
29	0xbe9fb7f5	-0.31195036
30	0xbe99d56c	-0.3004564
31	0xbf0126c1	-0.5044976
32	0xbef56412	-0.4792791
33	0xbdd9d522	-0.10636355
34	0xbe801ca3	-0.25021848
35	0x3d509d30	0.050931156
36	0xbdfdf128	-0.123995125
37	0x3e2f4d26	0.17119274
38	0x3e371f46	0.17883024
39	0xbe4bfcf2	-0.1992071
40	0x3d0924b5	0.033482272
41	0x3b64cb67	0.0034911276
42	0x3e02cf61	0.12774421
43	0x3d28b31e	0.041186444
44	0xbc8d124e	-0.017220642
45	0xbf116d02	-0.5680696
46	0xbe27ecaf	-0.16398881
47	0xbe29d4cf	-0.16585086
48	0xbe201d50	-0.15636182
49	0x3d9245c3	0.07142212
50	0x3f061554	0.52376294
51	0xbdea8498	-0.114510715
52	0xbd6b679e	-0.057471864
53	0x3e8d7fcd	0.27636567
54	0xbbf3bd57	-0.0074383426
55	0x3d711260	0.058855414
56	0x3e64ee0e	0.22356436
57	0x3f0a2356	0.5396017
58	0x3e4620ef	0.193485
59	0x3e24e490	0.16102815
60	0x3e78c645	0.24294384
61	0xbe77f827	-0.24215756
62	0xbea806d8	-0.3281772
63	0xbe7af711	-0.24508311
64	0x3ea32f59	0.3187206
65	0xbec4deaa	-0.3845113
66	0x3e845891	0.2584882
67	0x3ec9eb52	0.39437348
68	0xbe6df6c2	-0.23238662
69	0x3f71920a	0.9436346
70	0xbde820ad	-0.113343574
71	0x3e92e1bb	0.28687844
72	0x3ab27b31	0.0013617036
73	0x3db72bca	0.08943899
74	0xbe9a79cd	-0.30171052
75	0xbdc47518	-0.09592646
76	0xbed5ab33	-0.41732177
77	0x3e82e0c5	0.2556211
78	0xbef88199	-0.48536375
79	0xbe75d9d1	-0.24008872
80	0xbe1f873d	-0.15578933
81	0x3e2f4ef8	0.17119968
82	0xbd450578	-0.04810092
83	0xbd4b85d6	-0.049688183
84	0xbe9b9127	-0.3038418
85	0xbe0d8fda	-0.13824406
86	0xbd2409ff	-0.040048596
87	0x3c7358d8	0.014852725
88	0xbe9ee50c	-0.31034124
89	0xbda1ef0d	-0.079069234
90	0xbdde7258	-0.10861653
91	0xbe25e1a8	-0.16199362
92	0xbee05733	-0.43816528
93	0x3e2996a8	0.16561377
94	0xbd90b485	-0.07065681
95	0xbe48d4cc	-0.19612426
96	0x3eb3d85e	0.35126013
97	0x3d34391d	0.04399978
98	0x3e554f13	0.20830946
99	0x3e6d61dd	0.23181863
100	0x3e8da45c	0.2766446
101	0x3e5007e7	0.20315515
102	0xbeb443c9	-0.35207966
103	0xbea06adc	-0.31331527
104	0xbe88e0fe	-0.26734155
105	0x3e9a02ae	0.3008017
106	0xbdf73641	-0.12070895
107	0xbec1b8cf	-0.3783631
108	0x3dc1d56b	0.09464534
109	0x3e8f9385	0.28042236
110	0x3db1fe84	0.08691123
111	0xbe1ec65c	-0.15505356
112	0x3e5b32af	0.21406053
113	0xbe205a7c	-0.15659517
114	0x3e162b48	0.14664948
115	0x3e140dd6	0.14458403
116	0xbd7bcc2c	-0.06147401
117	0xbd408862	-0.047005065
118	0x3e4fad0e	0.20280859
119	0xbe4b2898	-0.19839704
120	0xbe1ba6d6	-0.15200362
121	0xbed39f61	-0.41332534
122	0x3e54dfe9	0.2078854
123	0xbe697039	-0.22796716
124	0xbc974896	-0.018467229
125	0x3e4b189b	0.19833605
126	0xbdcb2488	-0.09919077
127	0x3dc616bc	0.09672305
128	0xbd8e4bf4	-0.06948081
129	0x3e39f8e2	0.18161348
130	0xbd8d6f5e	-0.06906007
131	0xbeadf88a	-0.33978683
132	0x3d0376a4	0.032095566
133	0xbda5a896	-0.08088796
134	0x3dbc9f75	0.092101015
135	0xbe2fcfb7	-0.1716908
136	0xbc820910	-0.015873462
137	0x3d2af9e1	0.04174221
138	0x3d50ace8	0.050946146
139	0x3dbd058b	0.09229573
140	0x3d3028b3	0.043007564
141	0xbd843159	-0.06454725
142	0x3c45605f	0.012046902
143	0x3e0cb24a	0.13739887
144	0xbdf8ad1a	-0.121423915
145	0x3d61cb49	0.05512551
146	0xbddbd75e	-0.107344374
147	0xbdb7b386	-0.08969788
148	0x3dd5820d	0.10425196
149	0xbe021bbb	-0.12705891
150	0xbd8553ac	-0.065101
151	0xbd9e9bd0	-0.077445626
152	0xbd1ad6e7	-0.037802603
153	0xbd236818	-0.039894193
154	0x3c0c1706	0.008550411
155	0xbe4df91c	-0.20114559
156	0x3d5c5a60	0.053797126
157	0xbe23c924	-0.15994698
158	0xbe3195a2	-0.17342237
159	0xbdc56bf1	-0.09639729
160	0xbc2d45f3	-0.010575759
161	0x3b53121c	0.003220684
162	0xbd14a778	-0.036292523
163	0xbe081cf6	-0.13292298
164	0xbd23798a	-0.03991083
165	0xbdb3579c	-0.087569445
166	0x3e21a89f	0.1578698
167	0xbdd9a79d	-0.10627673
168	0xbd0cb83e	-0.034355395
169	0x3d681a1a	0.056665517
170	0xbe6f3c96	-0.23362955
171	0x3d97b7b9	0.07408089
172	0x3d2e4891	0.042549673
173	0xbe2838a8	-0.16427863
174	0xbba2fd68	-0.004974056
175	0xbdc97db1	-0.09838427
176	0xbcf81cb7	-0.03028713
177	0x3db7af01	0.08968926
178	0xbe8a3ba1	-0.26998618
179	0xbdc5720f	-0.096408956
180	0xbd73bcd3	-0.05950625
181	0x3ee2fed0	0.44335032
182	0xbe413d4d	-0.1887104
183	0xbee16598	-0.44022822
184	0x3e286dfa	0.16448203
185	0xbdfd0455	-0.12354342
186	0x3e931e95	0.2873427
187	0x3dd0f8f5	0.10203735
188	0x3d4a2f48	0.049361497
189	0xbe5c2eeb	-0.21502273
190	0xbcbd84e7	-0.023134662
191	0xbd2710df	-0.040787574
192	0xbe6ab0a6	-0.22918949
193	0xbdc5d1d0	-0.09659159
194	0x3d945013	0.072418354
195	0x3ebe94f7	0.37223026
196	0xbdd97ecb	-0.10619887
197	0x3ebbbe50	0.36668634
198	0xbcb67007	-0.022270216
199	0x3f6258d3	0.88416785
200	0x3e1dc5c6	0.15407476
201	0x3e2b302f	0.167176
202	0x3e31d0a8	0.17364752
203	0x3d544557	0.05182394
204	0x3ec1d0c7	0.37854597
205	0xbcd393ef	-0.025827376
206	0x3e62c604	0.2214585
207	0xbe680d1a	-0.22661248
208	0xbdbb7e83	-0.091549896
209	0x3e559e5f	0.20861195
210	0x3e8e6f69	0.27819374
211	0x3b71e6df	0.0036911292
212	0x3e15511e	0.14581725
213	0xbe17d997	-0.14829098
214	0x3f87af29	1.060033
215	0xbeefc64b	-0.46830973
216	0x3dbdf2d4	0.092748314
217	0x3f3dbc55	0.74115497
218	0x3eb4a5ee	0.35282844
219	0x3f6debd7	0.9293799
220	0x3e946b1f	0.28987977
221	0x3f6f5da6	0.9350227
222	0x3f066de3	0.52511424
223	0xbe02839d	-0.12745519
224	0x3dd7e3d8	0.105415046
225	0xbd9be01d	-0.076111056
226	0x3d64b898	0.055840105
227	0x3db4d76a	0.088301495
228	0xbe314613	-0.17311887
229	0x3e10a8ba	0.14126864
230	0x3e8347cc	0.25640714
231	0x3e99a4bc	0.30008495
232	0xbe02c7a6	-0.12771472
233	0xbd8affab	-0.06787046
234	0x3f1dd66e	0.6165532
235	0xbea193dc	-0.3155812
236	0x3da1c2f0	0.078985095
237	0xbcf812c9	-0.030282395
238	0xbe5a1fe9	-0.21301235
239	0xbe2ba1e5	-0.16760977
240	0x3f134112	0.57521164
241	0x3f2c91c7	0.6740994
242	0x3e456410	0.19276452
243	0x3f6fd41f	0.93683046
244	0x3c1e5ff8	0.009666435
245	0xbe90a6b4	-0.28252184
246	0xbd71cc42	-0.059032686
247	0x3f52eefb	0.82395905
248	0x3e1593a7	0.14607106
249	0xbd6f328b	-0.05839781
250	0x3e6b760f	0.22994255
251	0x3e20bc8f	0.1569693
252	0xbe9105b4	-0.28324664
253	0x3bc3ed4b	0.0059792153
254	0x3d44c736	0.048041545
255	0x3d732021	0.059356812

lstm.weight_hh_l1 f4 [256, 64]
0	0xbece3854	-0.4027735
1	0x3ef7d2cc	0.48403013
2	0x3e6b19e1	0.22959091
3	0xbe5fdcac	-0.21861523
4	0x3fda7f74	1.7070146
5	0x3f1f6022	0.6225606
6	0x3f6e1f9f	0.93017
7	0xbed669c9	-0.41877583
8	0xbe8664e3	-0.26248845
9	0x3fa06f65	1.2533995
10	0x3d3b4403	0.045719158
11	0x3b324d88	0.0027206857
12	0x3d9d5978	0.076830804
13	0x3f0e7455	0.5564626
14	0xbed4faf9	-0.41597727
15	0xbe0dcdbb	-0.13848011
16	0x3e8b0317	0.27150795
17	0x3f242dea	0.6413256
18	0x3f39a9a3	0.7252447
19	0xbec27e7d	-0.37987128
20	0xbedf053b	-0.43558678
21	0x4089ecc3	4.3101516
22	0x3f5bfcb7	0.8593249
23	0x3f95ca0b	1.1702284
24	0x3ec8463d	0.39116088
25	0xc044818f	-3.0704076
26	0x3feb6b49	1.8392116
27	0xbbc8f7bd	-0.0061330483
28	0x3f02dd8e	0.51119316
29	0xbf1213dc	-0.57061553
30	0x40052ec4	2.0809793
31	0x3eae35fd	0.34025565
32	0x3d77c962	0.060494788
33	0x3e9b9053	0.30383548
34	0xbe8ab83b	-0.27093682
35	0xbf8a6632	-1.0812438
36	0x3d0acdad	0.033887554
37	0xbee5ac30	-0.4485793
38	0xbf964cbd	-1.1742169
39	0x3f65e8fd	0.89808637
40	0xbe28511c	-0.16437191
41	0xbf30b489	-0.69025475
42	0xbf6d82ea	-0.92777884
43	0x3e2b2b8d	0.16715832
44	0xbf06825d	-0.5254267
45	0x3e2a2637	0.1661614
46	0xbf65849b	-0.89655465
47	0x3f3ce8d8	0.7379279
48	0x3f0bc553	0.5459797
49	0x3ea22f55	0.31676736
50	0xbf1f3d84	-0.6220324
51	0x3e6aa211	0.22913386
52	0xc029cf2a	-2.6532693
53	0x3e6b0e1d	0.22954603
54	0x3d96011a	0.07324429
55	0xbd8d2d34	-0.068933874
56	0xbf0aea0c	-0.5426338
57	0xc0092c75	-2.1433384
58	0x3e31462d	0.17311926
59	0xbe82659a	-0.2546814
60	0xbf2541cc	-0.64553523
61	0x3f4ddf1b	0.80418557
62	0x3f08c791	0.53429514
63	0xbea87937	-0.3290498
64	0x3f3f2159	0.7466026
65	0xbf901945	-1.1257712
66	0x3f3e3ec8	0.74314547
67	0xbd9d3846	-0.07676749
68	0x3f4a0aa4	0.78922486
69	0xbf0b319c	-0.5437257
70	0x3dd629f5	0.104572214
71	0x3e8dd014	0.27697814
72	0xbb8e4562	-0.004341767
73	0x3c498d28	0.012301721
74	0xbca03b74	-0.0195596
75	0xbe76659c	-0.24062198
76	0x3e3fe7f7	0.18740831
77	0x3b5ed893	0.00340036
78	0xbeb006be	-0.34380144
79	0xbe85efdc	-0.2615956
80	0x3dd04d40	0.10170984
81	0x3db9231f	0.09039902
82	0x3e95ada9	0.29234055
83	0x3ed52d5a	0.41636163
84	0x3e736c70	0.23771834
85	0x3e1a59cb	0.15073316
86	0xbf6cdfe7	-0.9252915
87	0x3f609315	0.8772443
88	0x3e922dbd	0.2855052
89	0x3d355ab6	0.04427596
90	0xbf0c1521	-0.5471974
91	0xbed69a50	-0.41914606
92	0x3e81fd2b	0.25388464
93	0x3e524eec	0.20537919
94	0xbf447c47	-0.7675213
95	0x3e1607b9	0.14651383
96	0xbe49a6b4	-0.19692498
97	0x3e3ea0f2	0.18616083
98	0xbf118e9a	-0.5685822
99	0x3b8b8146	0.004257354
100	0x3da4d2ed	0.080480434
101	0x3f90a88b	1.1301435
102	0xbee4f675	-0.44719282
103	0x3ece339c	0.4027375
104	0xbf6c4ca0	-0.9230442
105	0x3eb2e139	0.34937456
106	0x3e59ada7	0.2125765
107	0x3d66f12c	0.056382343
108	0xbe9f5990	-0.31123018
109	0x3ee82807	0.45343038
110	0xbc3f5794	-0.011678595
111	0xbf285587	-0.65755504
112	0xbee6b851	-0.45062497
113	0xbcc2adf2	-0.023764584
114	0x3f199c11	0.60003763
115	0xbe4bb5d8	-0.19893587
116	0xbd5f5df2	-0.054532953
117	0x3e47d7a3	0.19515853
118	0xbf3187e1	-0.6934796
119	0x3d0eb32b	0.034838837
120	0x3eeb9de4	0.46018898
121	0x3e5cb5f1	0.2155378
122	0xbe217c62	-0.15770105
123	0xbf4199e9	-0.75625473
124	0xbc9c962c	-0.019114576
125	0xbd0c01b0	-0.034181297
126	0xc021d937	-2.5288827
127	0xbe9e4f22	-0.3091975
128	0x3d91f4fc	0.07126805
129	0xbf478562	-0.779379
130	0x3cba53c8	0.022745028
131	0xbd02f6e1	-0.031973723
132	0x3e26aaf5	0.16276152
133	0xbe314838	-0.17312706
134	0x3d822368	0.063544095
135	0xbe44216b	-0.19153373
136	0xbf148367	-0.58013004
137	0x3b2f7b13	0.0026776239
138	0xbefb4119	-0.49073103
139	0x3d8e1146	0.069368884
140	0xbc89b8bd	-0.016811723
141	0xbf368bf1	-0.71307284
142	0x3f8ae1ee	1.0850198
143	0x3e0104f1	0.12599541
144	0xbf5a545a	-0.8528496
145	0x3ec19472	0.37808567
146	0xbe890214	-0.26759398
147	0xbe89d983	-0.2692376
148	0xbdbef7f5	-0.09324638
149	0x3cfdcd58	0.030981705
150	0xbebeaa19	-0.3723915
151	0xbe112375	-0.14173682
152	0xbe3ce099	-0.18445052
153	0x3f12de87	0.573708
154	0x3e0c4bd4	0.13700801
155	0x3e17ebfc	0.14836115
156	0xbb5d43ac	-0.003376226
157	0x3f96195b	1.1726488
158	0xc01321b2	-2.2989316
159	0x3de16bfc	0.110069245
160	0x3d114bff	0.035472866
161	0x3ea8a35b	0.3293713
162	0xbe0238db	-0.12717001
163	0xbe8b3873	-0.27191505
164	0x3c911e67	0.017714692
165	0x3f77b34e	0.9675797
166	0x3f987cb8	1.1913061
167	0x3eb907b7	0.36138698
168	0x3f025303	0.50907916
169	0xbcf62663	-0.030047601
170	0xbe5db112	-0.21649578
171	0xbdc09371	-0.09403122
172	0x3f2ac7cc	0.66711116
173	0x3d8958c6	0.06706385
174	0x3e97c4ab	0.29642233
175	0xbd0a69a3	-0.03379215
176	0x3e3423ba	0.17591754
177	0x3e051194	0.12994987
178	0x3f98e404	1.1944585
179	0xbe7d2d08	-0.2472421
180	0xbc82898a	-0.015934724
181	0xbe193d87	-0.14964877
182	0x3f2a4f2a	0.66527045
183	0xbe0c1dbc	-0.13683218
184	0x3e35f3e5	0.1776882
185	0x3f14ca96	0.5812162
186	0x3eb87346	0.36025447
187	0x3e3b714d	0.1830494
188	0xbf1666b5	-0.5875047
189	0x3e8e5c12	0.2780462
190	0xbf393d41	-0.7235909
191	0x3d018f76	0.031630956
192	0xbe0820c3	-0.13293748
193	0x3e27bbfa	0.16380301
194	0x3ed2164a	0.4103263
195	0x3fd00007	1.6250008
196	0x3e62fc42	0.22166541
197	0x3e82eb83	0.25570306
198	0x3e0bd84b	0.13656728
199	0xbea6492b	-0.32477698
200	0x3f1dad54	0.615926
201	0x3e0e3d59	0.1389059
202	0xbea858f8	-0.32880378
203	0x3d148003	0.036254894
204	0xbc1c4f2a	-0.009540359
205	0xbd01b406	-0.031665824
206	0xbd899859	-0.06718511
207	0x3e82efe2	0.2557364
208	0xbef4c92b	-0.4780973
209	0xbd2941ae	-0.041322403
210	0x3cd47666	0.025935363
211	0xbec8c695	-0.39214006
212	0x3dc0e977	0.0941953
213	0xbe42e109	-0.19031157
214	0x3e3f0570	0.18654418
215	0xbe3f9257	-0.18708168
216	0x3f4e0419	0.80475
217	0xbe1c4e2c	-0.15264195
218	0xbe772424	-0.2413488
219	0xbdcf2ee2	-0.10116364
220	0x3dfb9b48	0.12285477
221	0x3dd0ea8a	0.10200985
222	0xbf6fc450	-0.93658924
223	0xbf36fb2c	-0.7147701
224	0x3dc5bdc3	0.09655335
225	0x3da4958f	0.080363385
226	0xbe6c3bc5	-0.23069675
227	0xbe1a60c4	-0.15075976
228	0x3ec31740	0.38103676
229	0x3f8abf02	1.0839541
230	0x3d089d22	0.03335298
231	0x3f41436f	0.7549352
232	0x3d341212	0.043962546
233	0xbe33aac8	-0.17545617
234	0xbdc9efbf	-0.09860181
235	0xbefd770b	-0.49504885
236	0xbcc0c31a	-0.023530532
237	0xbe784092	-0.24243382
238	0x3ee5e3bf	0.4490032
239	0x3e502da2	0.20329908
240	0x3e32db5f	0.17466496
241	0x3df34cdc	0.11879894
242	0xbd9138b9	-0.07090897
243	0xbdaaa03d	-0.08331344
244	0x3f0e0140	0.5547066
245	0xbe8f3442	-0.27969557
246	0x3e23aa42	0.15982917
247	0xbf09efe6	-0.5388168
248	0xbccb2eaa	-0.024802525
249	0x3e3946fd	0.18093486
250	0x3e0bedda	0.13664952
251	0xbf0c9f55	-0.5493062
252	0xbc8ed7e2	-0.017436925
253	0xbe98aac2	-0.29817778
254	0x3d2349e3	0.039865386
255	0xbd912c5d	-0.0708854

lstm.bias_ih_l1 f4 [256]
0	0xbe32512d	-0.17413779
1	0x3ea7791d	0.3270959
2	0xbd745241	-0.059648756
3	0xbe14374d	-0.1447422
4	0xbe3fd6f0	-0.18734336
5	0xbced618a	-0.028977174
6	0xbde8616a	-0.11346705
7	0xbb756961	-0.0037446844
8	0x3e8239bd	0.25434676
9	0xbcaf547a	-0.021402586
10	0xbcad02e1	-0.021119537
11	0x3e12dccb	0.14342038
12	0x3d5250c2	0.051346548
13	0xbe540a53	-0.20707063
14	0x3f070272	0.52738106
15	0xbe22743a	-0.1586465
16	0xbe911600	-0.28337097
17	0x3eb2b09c	0.34900367
18	0xbe8954ce	-0.26822513
19	0x3c19ee42	0.009395184
20	0xbe0f94f8	-0.14021671
21	0xbe18dc44	-0.14927775
22	0x3e31b39e	0.17353675
23	0x3d2b6a2c	0.0418493
24	0xbd728600	-0.059209824
25	0xbe6c23ee	-0.23060581
26	0xbe9d2e2a	-0.30699283
27	0x3d9ed06a	0.077545956
28	0x3ddecd18	0.10878962
29	0x3eab8cfb	0.33505997
30	0xbde52910	-0.11189473
31	0xbd8e12ec	-0.06937203
32	0x3e4acbaa	0.19804254
33	0xbd4b506f	-0.049637254
34	0xbe5992a6	-0.21247348
35	0xbe0e87e2	-0.13919023
36	0xbe55287f	-0.2081623
37	0xbce8ee1d	-0.028433854
38	0xbd90874b	-0.07057055
39	0xbe6124a3	-0.21986632
40	0xbd2aae0b	-0.041669887
41	0x3b069099	0.0020532964
42	0xbd929460	-0.071572065
43	0xbe147ce6	-0.1450077
44	0x3dfee4e8	0.12446004
45	0x3d80edc3	0.062953494
46	0x3e5913ac	0.2119891
47	0xbe19378b	-0.14962594
48	0xbe9ebc01	-0.3100281
49	0xbd056728	-0.03256908
50	0x3e200137	0.15625463
51	0x3f0869dd	0.53286535
52	0x3e350d12	0.17680767
53	0x3e11fd45	0.14256771
54	0xbd761103	-0.060074817
55	0xbe15a9ea	-0.14615598
56	0xbcfe2cfe	-0.031027313
57	0x3dd13a24	0.102161676
58	0x3cc9c070	0.024627894
59	0xbc4fed9a	-0.012690926
60	0xbe8658a2	-0.26239496
61	0xbea190db	-0.31555828
62	0xbc7411a2	-0.014896782
63	0xbe109cdd	-0.14122339
64	0xbd4d184e	-0.050072007
65	0x3dcd92db	0.10037776
66	0xbdfecd8b	-0.12441548
67	0x3ec6898c	0.38776815
68	0x3c786e82	0.015163066
69	0x3df2024e	0.11816846
70	0xbd68ab28	-0.056803852
71	0x3d277973	0.040887307
72	0x3dc6b900	0.09703255
73	0xbe39e6a9	-0.18154396
74	0x3f12ec3b	0.5739171
75	0x3d88a410	0.066719174
76	0x3ea2e54c	0.31815565
77	0x3b017099	0.0019750951
78	0xbd9d24f8	-0.07673067
79	0x3dc8c321	0.09802843
80	0xbe164fe8	-0.1467892
81	0xbe3d011e	-0.18457457
82	0x3cdee197	0.027207179
83	0x3e2099c2	0.15683654
84	0x3d6c9323	0.057757508
85	0xbdfe3ad4	-0.12413564
86	0x3f1dafef	0.6159658
87	0x3d507166	0.050889395
88	0x3e6ec1f4	0.23316175
89	0x3e729a4a	0.23691669
90	0xbca391df	-0.019967018
91	0x3e60c104	0.2194863
92	0x3eeb95b3	0.4601265
93	0x3e5326bd	0.20620246
94	0x3df60d8c	0.120143026
95	0x3f21f8ff	0.6327056
96	0x3e4fc974	0.20291692
97	0x3d50f868	0.05101815
98	0x3d622bb8	0.055217475
99	0x3e178083	0.14795117
100	0x3e8c931c	0.27455986
101	0xbc177411	-0.009243981
102	0x3dfb46f7	0.12269395
103	0x3e3ccfee	0.18438694
104	0xbe12c285	-0.14332016
105	0x3d8c458c	0.068492025
106	0xbd2d6439	-0.042331908
107	0x3eae16d7	0.340018
108	0xbc25dd9d	-0.0101236375
109	0x3dab6167	0.083681874
110	0x3e7a7f43	0.24462609
111	0xbe0cd3af	-0.13752626
112	0x3e9e880a	0.30963165
113	0x3f51b38f	0.8191461
114	0x3d6a4f34	0.05720444
115	0x3ef134d4	0.47110617
116	0x3e140907	0.14456569
117	0xbdf9e6d3	-0.12202229
118	0x3cdfe319	0.027329968
119	0xbda00ebf	-0.078153126
120	0x3e028074	0.12744313
121	0x3dbc9ad2	0.09209217
122	0xbe9e75ee	-0.30949348
123	0xbe4ead19	-0.20183219
124	0x3d2da6e6	0.042395495
125	0x3de15e0e	0.11004268
126	0x3df0053c	0.117197484
127	0x3b2c8ee9	0.0026330298
128	0xbdbb6d7f	-0.09151744
129	0x3e3c55aa	0.18392053
130	0xbd6c380f	-0.05767065
131	0xbd4c01a8	-0.049806267
132	0xbda78d32	-0.08181228
133	0xbd893422	-0.06699397
134	0x3d4920a5	0.049103398
135	0x3bd06f02	0.0063608894
136	0x3e3a6cfb	0.18205635
137	0xbba6b3d8	-0.005087357
138	0x3d028562	0.031865485
139	0xbd20c674	-0.03925176
140	0x3d1cf39e	0.03831827
141	0x3e303065	0.17205961
142	0xbd05f21f	-0.032701608
143	0x3de3ff38	0.111326635
144	0xbc89adc3	-0.016806489
145	0x3e4249e9	0.18973507
146	0xbe286a6c	-0.16446847
147	0xbdaeaca4	-0.08529022
148	0xbd7203e7	-0.059085753
149	0x3da74ec5	0.08169321
150	0x3e9a7858	0.3016994
151	0x3e271b08	0.16318905
152	0x3dff1ed8	0.12457055
153	0xbdefc7c2	-0.11708023
154	0x3db44cb5	0.08803693
155	0xbe53934a	-0.20661655
156	0x3eac2a53	0.3362604
157	0xbdaf3d19	-0.08556575
158	0xbdefa143	-0.1170068
159	0x3e895a9a	0.26826936
160	0xbd9492d8	-0.07254571
161	0xba774a1d	-0.0009433346
162	0x3c3eed4c	0.011653256
163	0x3e18e3d2	0.14930657
164	0xbe332851	-0.17495848
165	0x3c4d7143	0.012539211
166	0x3dd8455e	0.10560106
167	0x3dd9e695	0.10639683
168	0xbdbd712e	-0.09250103
169	0x3e080226	0.1328207
170	0x3eb4ab60	0.35287
171	0xbe2039af	-0.15647005
172	0xbe98788e	-0.29779476
173	0x3deae670	0.11469734
174	0xbe2e6d74	-0.1703394
175	0x3e4505c4	0.1924048
176	0x3de30fb4	0.110869795
177	0x3cbe65a7	0.023241831
178	0x3dc985c2	0.098399654
179	0xbe0a3073	-0.13495044
180	0x3e9c3bbb	0.3051432
181	0x3e331fe9	0.17492642
182	0x3d300e18	0.04298219
183	0xbe2e938e	-0.17048475
184	0x3d61d9c5	0.05513932
185	0xbe4a3841	-0.19748022
186	0xbba38746	-0.004990491
187	0xbec51e6a	-0.38499767
188	0xbd94f9c0	-0.072741985
189	0xbcaebde4	-0.021330781
190	0xbd44d858	-0.048057884
191	0xbe5c56e0	-0.21517515
192	0x3f0513d1	0.5198336
193	0x3d89b5b3	0.067241095
194	0xbdfb6c5e	-0.12276529
195	0x3e319314	0.17341262
196	0x3e89165b	0.26774868
197	0xbdd1405c	-0.10217354
198	0x3d8c92c0	0.06863928
199	0x3cfe39b7	0.03103338
200	0xbe2fd1be	-0.17169854
201	0x3baf5c49	0.0053515774
202	0x3f72df53	0.94872016
203	0x3cade2a7	0.02122624
204	0x3eab6033	0.33471832
205	0xbd2d4319	-0.042300317
206	0xbc53fad8	-0.012938224
207	0xbea13026	-0.31482047
208	0xbe240bed	-0.16020174
209	0xbd82848b	-0.06372937
210	0x3e2308a2	0.15921262
211	0x3ea63f45	0.32470146
212	0xbddfbb3d	-0.10924385
213	0x3db21832	0.08696021
214	0x3c86e2a3	0.01646549
215	0x3b8a4d2a	0.0042206245
216	0xbe82686e	-0.254703
217	0x3da4be18	0.0804407
218	0xbdacf825	-0.08445767
219	0x3d7bb225	0.06144919
220	0xbec387a6	-0.3818943
221	0xbdf54d9d	-0.11977694
222	0x3d438af7	0.04773995
223	0x3e618aee	0.22025654
224	0x3cf83224	0.030297346
225	0xbe396558	-0.18105066
226	0x3e565ea7	0.20934545
227	0xbd90dfa0	-0.07073903
228	0xbdc960e1	-0.09832931
229	0x3de477cf	0.11155664
230	0xbd75e653	-0.060034107
231	0x3eb2118d	0.34779015
232	0x3e1c736e	0.15278408
233	0x3f140d30	0.5783262
234	0x3d16f513	0.036854815
235	0x3eb8936c	0.36049974
236	0xbd4a9a38	-0.04946348
237	0xbdb05685	-0.08610252
238	0x3c00e3e0	0.00786683
239	0xbd4ad382	-0.049518116
240	0x3f183174	0.5945046
241	0x3ea7b25a	0.3275326
242	0x3e074449	0.13209642
243	0xbe1887ed	-0.14895602
244	0x3e3a80e5	0.18213232
245	0x3c881dc2	0.016615752
246	0xbe817ea7	-0.2529194
247	0x3da44672	0.08021249
248	0x3e04b3ba	0.12959185
249	0xbdea6fa2	-0.114470735
250	0xbe3baf87	-0.18328677
251	0x3e9ed50e	0.31021923
252	0xbe366e06	-0.17815408
253	0x3f5208de	0.8204478
254	0xbd53350e	-0.05156427
255	0xbe13a038	-0.14416587
