models/v2/LSTM_xy_zone_ttc_epoch_40_h-h_8-12_penalty_false.pth (torch, 353587 bytes, 14 tensors)

lstm.weight_ih_l0 f4 [256, 15]
00000000: 064b df3e ef3f b1be e266 3c3f 8eaf 223d
00000010: 1b62 0ebe ce49 43bd eb89 8cbd b0f0 a1be
00000020: 54c1 78be dd69 0ebe 8735 e73c 5f20 f9bd
00000030: b509 a4bd 5cb2 ebbb b85b a13c 41cf 353d
00000040: bd73 97bc 49d5 6ebe e7a8 983f 7280 a43f
00000050: d949 86bf 3b4a a53d 2328 4e3d 6757 83be
00000060: b140 78bc 5f2e f0bc e5c9 d73c 1a48 403e
00000070: 0315 573b 8836 563c a5ea b93e 93d3 fabe
00000080: f406 6ebe 2894 eebd 3804 febd d3e9 edbd
00000090: d7a2 9c3e 8bff fa3b 6ce4 813c 7820 1dbb
000000a0: ee36 8fbe d610 013d b08d 323c a438 33bd
000000b0: 973f f93d 5510 203d a328 bcbd 984d a5be
000000c0: 8063 483f c3af 52bf 0ba7 50be a60c 96bd
000000d0: e53c a4bd f03e 343e f943 e83d f9b4 da3d
000000e0: 33ad 883d 8564 5fbe e0b0 cdbd cef2 b03d
000000f0: 9ce0 bebe 9d98 293e 2650 d0bd 518d 35bf
00000100: 6532 56c0 f2ae 67bf f5f8 16bc 35f5 093e
00000110: 8469 063e d8f8 c23d abf7 febb d9ef f33d
00000120: 6720 a73d 90e4 62bd fe44 dcbd 1c33 93be
00000130: aef1 183c 9337 fb3e c346 c23a 5364 6f3e
00000140: d0e3 f5bd c095 633d 9d4c 7b3e 2920 abbc
00000150: d8dd 10be e875 d2bd 657d f5be 0f82 1ebe
00000160: 1433 3ebb 8487 32bc d89a c33e d421 0dbe
00000170: b240 483e 0ccc c03e 3b57 323f 2af5 393e
00000180: 598b 12be 0988 1fbe e64e f43c 1eaa 30be
00000190: 11a5 fc3c b15a 83bd 58f2 243c 5b3e 343d
000001a0: a870 4dbd d8c8 b53e c07b c8be 9d96 603d
000001b0: 554d b93d 0bd0 b43e 751c 0a3f 1ccf d1bd
000001c0: ab05 1bbe 13ec 02be 0b4a 66be 6d58 75bd
000001d0: 39ce e9bb 171e 18bd 530b 283a e763 b4bd
000001e0: 552d 8c3e d8c7 293d 5c1b 5fbf d661 a23d
000001f0: 7304 cd3e 5ec9 693d 4eed 683d b162 ab3e
00000200: 0ffe cebd abb9 c03d 520c c53e b18b 3dbd
00000210: c6c6 7fbb 6295 6d3d 00da 01bc a14e 093e
00000220: 4a3e bdbd 489c 47be fd24 d3bb b7bb 6f3e
00000230: 6dd8 533e ff63 883d 4906 083e 27e4 173e
00000240: 285f bb3d 0a86 d03d 0c66 acbc 46e0 203d
00000250: 8364 27bd af9d adbd 3b52 cf3e 07a0 d13d
00000260: dff4 9bbe 553a e6be 167c f33e 467d c6be
00000270: 0ab1 4ebe ac44 b1be 63f4 b13d cf62 4d3d
00000280: ecb6 113e a3b2 1abe 846f 2fbe f8fb e7bb
00000290: 40ad d1bb 3043 8a3e 93fe d83e 7279 a3be
000002a0: f8b2 523f ee6a 89bf 351a 713f fe1a 2abd
000002b0: 5da0 a7bd 35b0 2ebe 25f3 c0be 1bf3 61be
000002c0: 8163 56be 1899 0a3c 8ec4 ba3d 8499 1abd
000002d0: 49e5 0dbc 8d45 b43d 430b 623e 264c 2d3e
000002e0: e9f9 7bbf fc21 51bf 5f18 8e3e e13d 433d
000002f0: 2964 a5be afff 3b3e 0a38 863c b093 5c3d
00000300: df83 f43d 8773 dbbd e935 0b3d 8153 30be
00000310: b06e 853e c667 383f 5d8e 403f 5bdf ccbe
00000320: 0240 88bf b458 d7bd af69 05bf 2aa4 85bd
00000330: 9b23 b53e 8273 42bd aa5f 05bd f98a 61be
00000340: 6463 2a3e 3af2 f9bd d6f2 833e 7840 883e
00000350: 25f1 893e 3460 02bc 53e6 8a3f 367b cebe
00000360: 339a 94bd 5675 8fbd 661e d53c 86a2 4bbe
00000370: c7d3 85be 0eb7 65bd 5c11 41bd a9df d53b
00000380: a4b4 463d fc3e f33e 9d01 d0be 9e5b 913e
00000390: 439b ac3e 2a36 1dbe 435f 4abd 0a7b 8b3d
000003a0: e403 043d 3bf7 f83d c35e 1e3d 0029 92bb
000003b0: 912d d5bc 629d c53d d066 363c 1f1e 903c
000003c0: 4906 65be 884a 023e d0d4 cbbd 1ece bc3e
000003d0: 4284 993e 131c 453e 90bf 0ebd 2a6f 04bd
000003e0: 512e 0fbe ebfa 143e 77f5 fbbd 78da a93d
000003f0: 65f8 023e 47a7 b3bd b804 a53c 4c3b b93e
0.43611926 -0.3461909 0.73594487 0.039718203 -0.13904612 -0.047677808 -0.06862243 -0.31628942
-0.24292499 -0.13907571 0.028223766 -0.121643774 -0.08009664 -0.007192893 0.019697055 0.044387106
-0.018487806 -0.2332355 1.1926545 1.2851698 -1.0491287 0.08070799 0.050331246 -0.2565262
-0.015152142 -0.029318986 0.026341388 0.18777505 0.003281892 0.013074525 0.36311832 -0.48989543
-0.2324484 -0.11649352 -0.124031484 -0.11616864 0.30592987 0.0076598576 0.01585599 -0.0023975652
-0.27971596 0.031510197 0.010898039 -0.04375519 0.12170332 0.039078075 -0.09187438 -0.32285762
0.78276825 -0.8229944 -0.20376222 -0.07326631 -0.08019427 0.17602134 0.1134109 0.10679049
0.0667366 -0.21815689 -0.10043502 0.08640061 -0.37280738 0.16562124 -0.10171537 -0.70918757
-3.3468258 -0.9050132 -0.009214629 0.13472445 0.13126189 0.095201194 -0.007780989 0.11910982
0.08160477 -0.055393755 -0.10755347 -0.2874993 0.009334965 0.49065837 0.0014822114 0.23378114
-0.120063424 0.055562735 0.24540944 -0.020889359 -0.14147127 -0.10276395 -0.4794723 -0.15479301
-0.0029022144 -0.010896567 0.38204074 -0.13782436 0.1955593 0.37655675 0.69664353 0.18159929
-0.1431097 -0.15579237 0.029822778 -0.17252395 0.030840429 -0.064137824 0.010067545 0.04400478
-0.050156265 0.35504794 -0.39156914 0.054831136 0.09047953 0.35314974 0.5394967 -0.10244581
-0.15138881 -0.12785368 -0.22489183 -0.059898783 -0.0071351794 -0.03713807 0.0006410379 -0.08808117
0.27378336 0.04145035 -0.8715112 0.07928817 0.40042457 0.057076804 0.056866936 0.33473733
-0.101070516 0.09410413 0.38485962 -0.0462758 -0.003902839 0.05800379 -0.00792551 0.13408901
-0.09240396 -0.1949321 -0.0064436183 0.23411451 0.20688029 0.06659698 0.13283648 0.14833127
0.09149009 0.10181816 -0.021044753 0.039276384 -0.04086734 -0.084773414 0.40492424 0.10235601
-0.3046026 -0.4496638 0.47555608 -0.3876745 -0.20184723 -0.34622705 0.08689191 0.05014306
0.14229935 -0.15107207 -0.17132384 -0.0070795976 -0.006398827 0.27004385 0.42381725 -0.31928593
0.82304335 -1.0735757 0.94180614 -0.041529648 -0.08184884 -0.17059405 -0.37685505 -0.22065394
-0.20936395 0.008459352 0.09119521 -0.03774406 -0.008660623 0.08802328 0.22074609 0.1692358
-0.9842821 -0.8169248 0.2775297 0.047666434 -0.3230298 0.18359254 0.016384143 0.053851783
0.11939215 -0.107153945 0.03398696 -0.17219354 0.2606101 0.72033346 0.7521723 -0.40014157
-1.0644534 -0.10514966 -0.52114385 -0.065254524 0.35378727 -0.047473438 -0.032561935 -0.2202567
0.16639477 -0.12204404 0.25771207 0.26611686 0.2694179 -0.007957507 1.0851539 -0.40328377
-0.07255974 -0.07004802 0.026015472 -0.19886217 -0.26138136 -0.056082778 -0.047135696 0.0065269065
0.048512116 0.4750899 -0.4062623 0.2839021 0.33712205 -0.15352693 -0.049407255 0.06810577
0.032230273 0.121565305 0.03866459 -0.004460454 -0.026022704 0.09649159 0.011132911 0.017592488
-0.22365679 0.12723744 -0.099527 0.36876005 0.29983717 0.1924899 -0.034850657 -0.032332577
-0.13982512 0.14548843 -0.12302678 0.08293623 0.12790067 -0.0877214 0.020143852 0.36178052

lstm.weight_hh_l0 f4 [256, 64]
00000000: c0d6 84be 9f0c 133e b57c 5abe 80fe ce3e
00000010: afbc 08be 6419 2ebe 1bfd 4d3e 11de 24bf
00000020: ce9a ea3e 0e05 99be 81e9 abbd 8c2f d93c
00000030: 455e a33e 374e 943e 7f9f ee3d 040c 5dbe
00000040: 3c4d d23e 7559 b9be 463a 9d3e 9d8f 583e
00000050: 0d49 fa3d d225 11be edc0 d23e 0156 a3be
00000060: ca69 89bd 97c1 d13e 0c08 c6be c031 b0be
00000070: 5e2e 913e 9882 0cbe 7a57 d5be a152 d53d
00000080: cbaf 98bd 5b71 6bbc 2b0d 1a3e 59fc 0d3d
00000090: 90af 113e e68c c8bd 6e68 6a3e 4962 72be
000000a0: 37f1 3f3d 3096 ffbd 01b0 c33c 3c31 933c
000000b0: d98b 94be 44da dfbe 1e06 c4bd 9218 1c3f
000000c0: a679 89be 999e 08bb 9a07 acbd 02d3 c1be
000000d0: 9288 0bbf 67a7 673e d153 243e b027 3fbd
000000e0: 64dc 7bbd 243b b73e 812f 1cbe 3fe2 073e
000000f0: b61d c5be 0bb4 11bf 740d 9bbe 999f 483e
00000100: ad47 61bf 5ab8 f43e 7789 2abf 6f9d 36bf
00000110: b7de 2cbf c2d4 64bf 3a03 8dbf 5ab9 0d3f
00000120: 40a0 8f3f 35a4 25bf 3a80 0fbf 2d08 cb3d
00000130: 1735 fa3e 4625 9d3d 33e9 4cbf e16e 80bf
00000140: c151 bb3d 5110 c23e 397d 0ebf f863 71bf
00000150: 894f e6be 238f a43f 2b03 ffbe b7d4 153f
00000160: 8941 18c0 1d0d 95be d29d 193e 571b a13e
00000170: bbb2 df3d d128 3fbe b8b7 e83e a241 e6be
00000180: fa4a 0d3e bb18 24be 1a3b 2740 a733 543f
00000190: cce7 e63f 9488 8a3f 9019 19bf 69d4 5dbf
000001a0: d88e f43f 730f b73f 7a8c 1abe 19be 053f
000001b0: 1d77 c73e 8e2a 06bf ae15 a9be 2dda 55bf
000001c0: fc94 29bf a6f8 2fbe 578f 153f c57a a63f
000001d0: e291 dd3e 87c7 80bf aca2 5f3f 5320 c53e
000001e0: b90c fe3e 1be3 113d 81c9 01bf 0463 11bf
000001f0: 7db0 8fbe fecb dbbd 0f01 fcbc 27bf f13e
00000200: 6619 203e ecf6 023e a938 b6be 64ab 073f
00000210: fd43 0b3f 6799 a7be 1125 ca3e 442e 50be
00000220: 7432 003f bbd0 e2be 05d7 e33d 54ee 75be
00000230: ef2e 95bd 6587 8fbd f833 003e ea11 f23d
00000240: 68f6 743d a28c 9abe 3e78 863e 0cba 9cbe
00000250: c9e3 03bd 4d31 44be 695b 3c3e b3d5 d7be
00000260: e9bf 8c3e f546 df3e 0ab1 e1bd a0ee 0bbf
00000270: 75c4 be3e 348b fb3c ee0b abbe 9943 f73d
00000280: 5e75 2cbe c34a 58ba a738 bc3d e8f6 603d
00000290: bbee 0dbe 2413 edbe 56b2 b73e 1072 c0be
000002a0: c78b c8be a63c 403e 2c0e 603e df97 04be
000002b0: 25f5 b5be 4ce2 1fbf a2f6 64be 08d8 5d3e
000002c0: d155 bbbe 38ca e33d 4899 a1bd 83f4 03bf
000002d0: f6a5 51be cc13 273e 9c4d 423e 1b7a b5be
000002e0: 9488 a83e 2d77 0d3d 17e1 18be 84f9 6a3e
000002f0: abff babe 8b45 71be 0d09 9abd 2332 2d3e
00000300: fb9e 7abf 45c0 033e 8230 b93e 8393 11be
00000310: 8327 363e 98c8 283e d4e2 e63b 8dce 2b3f
00000320: 9ce3 8cbe 9026 e13b 68ae 6cbe 0da2 0a3f
00000330: 6a2f 82bf 0060 4d3d e8e7 8abe 1521 c3bf
00000340: 1f95 aa3d c94f b93d abd8 4bbf caaf a13f
00000350: 9544 803e b9a8 88bf ce09 af3e 46f2 44be
00000360: 6406 6abf 4549 66bf c1be f43e 253b 193f
00000370: 1f50 aabe 625b 863f c0eb d4be 3c57 28bd
00000380: 4774 b1be ea6d 143f 63b2 103e b4df 5f3f
00000390: 4a3a 51bf a68a 8abe 72b1 3c3e d9b8 183f
000003a0: 791a fb3e 2595 da3f 6cb2 10bf d875 81bc
000003b0: c574 81be 1441 753e 0c1f ad3e fec8 5cbf
000003c0: d00b 803d 4f55 80bd 044e 5c3f 1d18 4c3f
000003d0: 56fd 613f 2bbf 19bf c2b2 053f 42a0 95be
000003e0: 3af4 483f eb0e 53be 276d a8be 49e1 493f
000003f0: 7b0f 86be 0695 473f 3def 043f ca1a 213f
-0.2594509 0.14360283 -0.21336634 0.40428543 -0.13353227 -0.17001873 0.20116083 -0.64401346
0.45821232 -0.2988667 -0.08394147 0.02651193 0.3190786 0.28965923 0.11651515 -0.21586615
0.4107455 -0.36201063 0.30708522 0.21148534 0.122209646 -0.14174584 0.41162816 -0.31901553
-0.06709631 0.4096801 -0.38678014 -0.34412956 0.28355688 -0.13721693 -0.41668302 0.10416151
-0.07455405 -0.014370288 0.15044086 0.034664486 0.14227128 -0.09792499 0.228914 -0.23670305
0.0468609 -0.12479818 0.023887636 0.017967813 -0.29012945 -0.4372121 -0.09571479 0.6097499
-0.26850623 -0.0020846485 -0.083998874 -0.378563 -0.54505265 0.22622453 0.16047598 -0.04666871
-0.061489478 0.35787308 -0.15252496 0.132699 -0.3849923 -0.5691535 -0.302837 0.19592132
-0.87999994 0.477969 -0.66616005 -0.71333975 -0.67527336 -0.8938714 -1.101661 0.5536095
1.122078 -0.64703685 -0.56055033 0.09913669 0.4886863 0.07673125 -0.80043334 -1.0033838
0.09146453 0.37903073 -0.55659825 -0.94293165 -0.44982556 1.2856182 -0.49807104 0.585277
-2.379 -0.29111567 0.1500161 0.3146617 0.10922762 -0.18667914 0.45452666 -0.4497195
0.13798133 -0.16025059 2.6129823 0.82891315 1.8039489 1.082293 -0.5980463 -0.8665224
1.9106092 1.430159 -0.1509265 0.5224319 0.38958064 -0.52408683 -0.33024353 -0.83536035
-0.6624296 -0.17184696 0.58421844 1.3006216 0.43275362 -1.0060891 0.8735759 0.38501224
0.49619082 0.035616975 -0.50698096 -0.5679171 -0.28064337 -0.10732268 -0.030762224 0.4721615
0.15634689 0.12789506 -0.35590103 0.52995896 0.54400617 -0.32734224 0.39481404 -0.20330149
0.50076985 -0.44299874 0.11124996 -0.24016696 -0.072843425 -0.07008246 0.12519825 0.11819823
0.059805304 -0.3018542 0.26263613 -0.30610693 -0.032199655 -0.19159432 0.18394245 -0.42155227
0.27490166 0.43608823 -0.11020096 -0.5466099 0.3725926 0.030706026 -0.3340754 0.1207344
-0.16841647 -0.00082508865 0.09190493 0.05492297 -0.138606 -0.46303666 0.35878247 -0.37587023
-0.39169142 0.18773136 0.21880406 -0.12948559 -0.35538593 -0.62454677 -0.22359708 0.2166444
-0.3658891 0.111225545 -0.07890564 -0.5154497 -0.20473465 0.16316146 0.18974918 -0.35444722
0.329167 0.034537483 -0.14929615 0.22946745 -0.36523184 -0.23561685 -0.075212575 0.16913657
-0.97898835 0.12866314 0.3616982 -0.14216428 0.1778851 0.1648277 0.007046083 0.67112046
-0.27517402 0.006871052 -0.23113406 0.5415352 -1.017072 0.05014038 -0.27130055 -1.5244471
0.08329224 0.09048421 -0.79627484 1.2631772 0.25052324 -1.067649 0.34187168 -0.19233045
-0.91416 -0.8995555 0.47801784 0.5985587 -0.33264253 1.0496638 -0.41586113 -0.04109882
-0.34659025 0.57980216 0.14130549 0.8745072 -0.8172957 -0.27058905 0.18427065 0.59657055
0.49043635 1.7076765 -0.5652225 -0.015803263 -0.252844 0.23950607 0.3381275 -0.8624419
0.06252253 -0.06266271 0.8605654 0.79724294 0.88277185 -0.60057324 0.5222589 -0.2922383
0.7849766 -0.2061116 -0.32895777 0.7885938 -0.26183686 0.77961767 0.5192755 0.629315

lstm.bias_ih_l0 f4 [256]
00000000: 6d2e 153f 9170 34be fa10 233f 462a 91bf
00000010: b9a6 cabd dc0c e93e febc 703d 3efb 363f
00000020: 6192 86be cf7c 683d 8aad 013f 0b84 043f
00000030: 2506 9dbf be92 493e 0b00 3b3d 1019 133f
00000040: 7c73 d33e 798c 4ebf cee5 9d3e 5a8a 6b3f
00000050: b404 7cbe 17e0 4cbf 0c1e ca3e bc31 23be
00000060: 876b 54bf 4289 0a40 2201 003f c916 533f
00000070: 4901 00bf b357 e73e 138e 8a3e 7978 883e
00000080: 96f9 16bf 666a 903e 4030 933d 5b9f 7dbd
00000090: b916 63bc 3fc7 fc3e e7d9 4bbf 12f8 ec3e
000000a0: 225e 613f ace5 063e 7f77 0ec0 72a1 423f
000000b0: f3c6 0d3d a560 9e3d fde3 dabe 4dbd a73e
000000c0: 7356 a8be c689 153e 00dd 1dbc dd66 0b3f
000000d0: e9ac 1740 b4f9 723e 3594 833e bb36 2b3e
000000e0: 60dc 713f d490 0d3e 9f67 08bf 29a4 edbf
000000f0: e5af a0bd bdf9 c63f 57bf 043f b977 bebe
00000100: 91f4 1e3f 0928 963e e8ed 2b3e a615 f73d
00000110: d25b 1d3e 0efa debd 39c6 e53a 952c cc3e
00000120: b2d5 0dbd 8290 2f3e 7e08 813e cbf6 113e
00000130: 00c9 33be 6a39 8c3e c37a 2a3d 1b58 fa3e
00000140: 4645 26bd 95de c43d dcbd 913e f33e 6d3e
00000150: d3ba a13e 0943 1dbf b057 383e ec8b 8d3c
00000160: 0bc6 173e 2adb 253f 7b59 b5be 94d3 7bbd
00000170: af8a bbbe 86fe 393d 646c bc3e 2cc6 bc3e
00000180: 3560 113d 36ee 7d3e d770 953e cf7a dd3e
00000190: daf6 5fbe 784c f73e 44c2 c5be 6b7b e53d
000001a0: f724 873e 9b5b 9abd a36a 2fbe f689 29bd
000001b0: 6721 06bf 87b3 29bc fabe 04be a57a 2b3f
000001c0: b674 d43d 4862 0e3e 4fd3 1d3f 0b6c 043e
000001d0: 6230 313f ee14 053d 3fae 85be 035d a13e
000001e0: d012 66bd 74d5 24be 484f c8be c227 85be
000001f0: 606d 473e f68b 003f 89af b13d 7635 b73e
00000200: 7968 4f3c ad1d aebe 23c8 38bd 5913 c63d
00000210: aad8 fb3d 06f0 6ebc ba45 cdbe 8144 48be
00000220: 882d 183e b63e ed3d 5da7 f03d e166 26be
00000230: 36e1 1a3f 19a7 683e f34a febe 1393 c53e
00000240: eeac 573e 2182 6dbe 5b12 343e 048f e1bd
00000250: a138 0bbf 4146 4fbe 416b 95bd f906 543d
00000260: f772 943e 14a8 c83c 53cb 22be 1ab1 d3bd
00000270: f1fe 933d 5e9c 36be 697f 1a3f f7a8 8b3d
00000280: e7e3 cc3e d738 143e 3ea5 3a3f 3e64 b2be
00000290: 00c6 d13d 41e9 3c3d feb6 bcbe 1f1e 4dbe
000002a0: 9b18 d8bd 34a6 a3be 8f3b 363d 1b29 0c3e
000002b0: fdbd 203f ef38 3f3c cea2 2f3d c177 113e
000002c0: ddc2 d7be f5fa 4d3e 89fd 99bf a348 453e
000002d0: 05cf 86be 874d ec3d cd44 85bd c24c 3e3e
000002e0: abe7 20be 1bcb ffbd cc8e 693f b813 01bf
000002f0: 4d67 8f3f fe7f 4ebe fb36 85bd 48f6 be3c
00000300: d4ae a93f 94ab aa3e 5204 233f 926d 1e3e
00000310: dac1 c73d f931 d13c 8c47 123f 01ac 7c3f
00000320: 77d6 0f3f 247a c43c 2d94 58bd be84 8e3e
00000330: de1d f3bd fbcb 8e3e a4ec 91be 31ce a63f
00000340: 1b61 9b3e bf20 e7be 42f2 623f ad13 be3e
00000350: aa4f 603e 2ec7 66bf 5424 223e 3409 02bf
00000360: dede 353f 334a 043e a434 cc3e f211 823e
00000370: add4 d63e d6ba 2f3d 0214 143f 2438 cd3d
00000380: a62f 1fbf 1071 a83d a1e0 2c3f 2c47 70bd
00000390: d2b2 6f3e a5ba 503e 1def 3b3e 7e11 473e
000003a0: 69dd f03e ae7d 6b3f 0460 f53a e16a 863e
000003b0: 9f1f dfbe ade6 9abd 8228 0dbf 1732 823f
000003c0: abaa b7bd c2bd 9c3e 2fbb 2f3e 5892 783f
000003d0: c691 803e 3572 bb3f 4699 d0bd 03a7 d0bd
000003e0: 7379 17be 5d1d 103e a9de 28bd 6d1e 50bf
000003f0: 711f 6c3e 6eed 6f3e 4e51 553f 7692 dbbe
0.58273965 -0.17621066 0.6369778 -1.1341026 -0.09895081 0.45517623 0.058773987 0.71477115
-0.26283553 0.05675965 0.50655425 0.5176398 -1.22675 0.19684884 0.045654338 0.5746012
0.41299045 -0.80683094 0.3083939 0.9200798 -0.24611169 -0.80029434 0.3947605 -0.15936941
-0.82976574 2.1646276 0.5000173 0.8245664 -0.5000196 0.45184097 0.2706152 0.26654413
-0.5897459 0.28206176 0.07186937 -0.06191955 -0.013860398 0.49370763 -0.7962937 0.46283013
0.8803426 0.1317355 -2.2260435 0.76027596 0.03461356 0.07733277 -0.42752066 0.32761613
-0.32878456 0.14603338 -0.00963521 0.5445383 2.3699286 0.23728067 0.2569901 0.16720097
0.9447689 0.13824779 -0.53283113 -1.8565723 -0.07846049 1.5544964 0.5185446 -0.37200716
0.6209193 0.2932742 0.16789973 0.12064676 0.15367058 -0.10887538 0.0017530388 0.39877763
-0.034627624 0.17144969 0.25201792 0.142543 -0.17557144 0.27387553 0.04162098 0.48895344
-0.040593408 0.09612767 0.28465164 0.23168544 0.31587848 -0.6143041 0.180022 0.017278634
0.14821641 0.6478754 -0.3541983 -0.061481073 -0.36629245 0.045408748 0.36801445 0.36869943
0.03549214 0.24797902 0.29187652 0.43257758 -0.2187151 0.4830053 -0.38624775 0.11205181
0.2639539 -0.075370036 -0.17130522 -0.041391335 -0.5239472 -0.010357744 -0.12963477 0.66984016
0.10373823 0.13904679 0.61650556 0.1293184 0.6921445 0.032490663 -0.26109502 0.31516275
-0.056170285 -0.16097051 -0.39122987 -0.26006895 0.19475317 0.50213563 0.08676059 0.35782975
0.012659186 -0.34007016 -0.04511274 0.09671659 0.12297185 -0.014583593 -0.4009226 -0.19557382
0.14861119 0.11584227 0.11750672 -0.16250183 0.60499895 0.22719993 -0.49666557 0.3858877
0.21062061 -0.23194171 0.17585127 -0.11013606 -0.54383284 -0.20241643 -0.07295848 0.051764462
0.2899396 0.024494208 -0.15897875 -0.10336514 0.072263606 -0.17833087 0.6035066 0.06819337
0.40017626 0.14474808 0.7290839 -0.34842104 0.10242844 0.046120886 -0.36858362 -0.20031022
-0.10551568 -0.3196274 0.044490393 0.13687555 0.627899 0.011671289 0.042879872 0.14205839
-0.42140856 0.20115264 -1.2030498 0.1926599 -0.26329818 0.11538225 -0.06507263 0.18583968
-0.15713374 -0.12489911 0.91233516 -0.50420713 1.12034 -0.20166013 -0.06504627 0.023310795
1.3256478 0.3333403 0.6367847 0.15471485 0.09753771 0.025536524 0.5714042 0.9869996
0.5618662 0.023984022 -0.052875686 0.2783565 -0.11870931 0.2789 -0.28500855 1.3031675
0.30347523 -0.4514217 0.88650906 0.37124386 0.2190539 -0.90147674 0.1583417 -0.5079529
0.71043193 0.1291893 0.39883912 0.25404316 0.41959134 0.04290279 0.5784303 0.100204736
-0.6218208 0.0822469 0.67530257 -0.058661625 0.23408058 0.20383699 0.18352933 0.19440266
0.47043923 0.91988647 0.0018720631 0.26253417 -0.43578812 -0.07563529 -0.55139935 1.0171536
-0.08968099 0.30613524 0.17161249 0.970983 0.25111216 1.4644228 -0.101854846 -0.10188105
-0.14792423 0.14073701 -0.04122797 -0.81296426 0.23058869 0.23430416 0.83327186 -0.42885178

lstm.bias_hh_l0 f4 [256]
00000000: 68a1 103f e924 dfbd a62f 2a3f 9b96 8bbf
00000010: 49c2 663c be09 c03e 1a1f 31bc 74de 033f
00000020: 46cb 26be 13c1 283d f73a de3e 04c5 f13e
00000030: dca6 98bf 7d3e 363e cd18 cf3d db53 063f
00000040: 4bc9 cf3e 29b7 76bf 0aa1 a33e b238 533f
00000050: a977 8bbe e062 56bf 1e73 d23e 9722 7fbe
00000060: ad60 89bf 27cb 1240 a8d7 953e 50da 7a3f
00000070: f9c1 15bf 1386 6e3e 6c55 633e 96c8 5b3d
00000080: 7e74 04bf 1f15 fd3d 7051 d1bd e9c8 933d
00000090: b078 c6bb 2bd0 f03e 8454 44bf 16f6 ce3e
000000a0: 7b83 763f eb37 273e 1e13 0cc0 0c5f 403f
000000b0: b67e e0bd dbad b7bd 8759 bdbe b3e1 b53e
000000c0: bddd e6be 69ea 3f3e 3ddf 3c3e 4b1f 1d3f
000000d0: 9975 1840 eb8e 5f3e b193 d93d 5dcf 9c3d
000000e0: aa64 763f ef22 073e 334c 0dbf 117a dbbf
000000f0: d936 26be a364 d13f a996 f93e 3636 d4be
00000100: b70b f73e 4773 983e ee11 273e a6f5 f63d
00000110: 93dd 893e 292b b33d 5baa 8e3d 6b47 d53e
00000120: de3a 07be 33ba 893d 7d67 203e 9cbc 383e
00000130: e198 5e3c b9d9 7f3e 7aa6 ebbd 11bc cf3e
00000140: c013 92bd c35a ae3d 78bf 833e 07ca e43d
00000150: bb6f d73e 7b54 13bf 3dfb b13c f40c 803d
00000160: fde6 2c3e c04e ee3e a94d 53be 5976 8dbd
00000170: ffa5 7ebe 433a c93d 6eaa b83e 911c cb3e
00000180: 71db 0d3d b390 9f3e 11ce 923e c410 be3e
00000190: 0b44 a9bd 3edd fe3e 6115 cfbe 3a9d 053e
000001a0: b940 8d3d aa08 9dbd 2627 95bc 0525 26be
000001b0: 0b7a 16bf 47b7 4e3e 219c 923c c9de 0c3f
000001c0: 2383 da3d 7f14 233e c3e1 443f d75f 0d3e
000001d0: 06fe 403f 903c 003e fd28 e4bd a925 2b3e
000001e0: 3767 56bd 4dcb 70be a5fb cebe b21d 9fbe
000001f0: 568c 9a3d 60e3 cf3e 6085 9fbc b862 083f
00000200: 9ec8 b13d 8b3b 00bf cb40 18be cac1 ea3d
00000210: fd19 f7bc f809 d2bd 3e1e bbbe 66f4 16be
00000220: 71c3 bf3d 072c 55bd d807 6e3e 4858 20be
00000230: 7630 0b3f 3621 ba3d 6584 b0be 2f5a c83e
00000240: cadd d53d 70bf 11be 5991 8f3e 6fde 3dbe
00000250: 2413 42bf 54b8 2cbe 3d12 90bd a168 663d
00000260: 6455 063e 209f 693e fe03 32be d1b3 33bd
00000270: b0d9 4f3e c4f1 65be 8885 3a3f 6e34 b33d
00000280: 7980 c03e eab9 8fbd e2c5 3b3f 315b a1be
00000290: 7a74 513e 9a59 bf3d d3c9 51be c50e 47bd
000002a0: 4740 09be d937 33be d241 b63d 67a3 9e3d
000002b0: a139 da3e f8de 33bc 620d 883d 3967 f43d
000002c0: d8a5 b3be 3c8c 6d3e a85b 85bf 407a b43e
000002d0: 153a 32be 6318 063e 9782 49be 0496 bf3c
000002e0: 9fa4 32be 4ba0 b63d 4e90 483f 8e1b 3abf
000002f0: af98 7f3f 3658 24be b4f8 41be 96d6 023c
00000300: b516 a53f e70d 743e b337 433f bdfc 6f3d
00000310: 5981 363e d9bb 6f3e b720 303f c3dd 713f
00000320: 2c8f cd3e 0367 f53c 19ae 1abd 186e b23e
00000330: 4a2a 1bbe ddf0 a13e f105 acbe d30f 993f
00000340: d997 cd3e 9e40 ecbe 180e 733f 848a 9b3e
00000350: d59c 513e a5dc 67bf b7a7 863e c075 efbe
00000360: c9ad 293f 8508 503e f9ea 2d3e 2d13 a53e
00000370: 782f cb3e e411 9c3b a709 323f 166b a53d
00000380: ca18 1ebf 55f9 0eba 0011 223f df3c 96bd
00000390: fcf8 443e 27e0 ac3e b139 863e 6112 933e
000003a0: fa98 d23e 1259 463f aab1 333e ce9a 9e3e
000003b0: ab00 cebe 1f91 edbd 41f4 0dbf 3a7b 503f
000003c0: 88dd 1ebe 9508 ae3e a299 5f3e b30d 883f
000003d0: f7f0 f23d 437a bc3f d1eb 8abd 99df 44be
000003e0: a126 e1bd 609e b33e 24bc cdbd 70d5 4abf
000003f0: 1888 a33d eb6d ba3e 94f7 303f 1fea a4be
0.56496286 -0.10895712 0.66478956 -1.0905336 0.014084407 0.37507433 -0.010810638 0.5151131
-0.1628848 0.041199755 0.43404362 0.47220623 -1.1925921 0.17797275 0.10112152 0.52471703
0.40583262 -0.9637323 0.319588 0.82508385 -0.2723973 -0.8374462 0.41103452 -0.24915539
-1.0732628 2.2936494 0.29266095 0.9798937 -0.58499104 0.23293333 0.22200555 0.05365809
-0.5174025 0.12357544 -0.10220611 0.07216055 -0.0060568675 0.4703382 -0.7669146 0.40422124
0.96294373 0.16329925 -2.1886668 0.7514503 -0.10961668 -0.08968707 -0.36982366 0.35523757
-0.45091048 0.18741764 0.18444534 0.61375874 2.3821776 0.21831863 0.10623873 0.07656739
0.9624735 0.1319692 -0.55194396 -1.7146627 -0.1623186 1.6358837 0.48747757 -0.4144761
0.48251125 0.2977545 0.16315433 0.120585725 0.2692686 0.087484665 0.069660865 0.4165605
-0.1320605 0.06724968 0.15664478 0.18040699 0.013586254 0.24985398 -0.11506362 0.4057317
-0.07132673 0.08513405 0.25732017 0.11171346 0.4207743 -0.5755078 0.021726245 0.062524706
0.1688499 0.46544456 -0.20635094 -0.06907339 -0.2486801 0.09825566 0.36067528 0.39670232
0.034633104 0.31165084 0.2867284 0.37122166 -0.08264931 0.4977817 -0.40445998 0.13048258
0.068971105 -0.07667668 -0.018207144 -0.1622506 -0.5877997 0.20187102 0.017896714 0.55027443
0.106695436 0.15925787 0.76906985 0.13806091 0.7538761 0.12523103 -0.111406304 0.16713585
-0.052344527 -0.23515053 -0.40426365 -0.31077343 0.07546298 0.4060316 -0.019472778 0.5327563
0.08680843 -0.50090855 -0.14868467 0.114627436 -0.03016376 -0.10255808 -0.3654651 -0.14741668
0.09363449 -0.05204394 0.2324518 -0.15658677 0.5437082 0.09088366 -0.3447601 0.39131305
0.104426935 -0.14233184 0.2804058 -0.18541883 -0.75810456 -0.1686719 -0.07034729 0.056252126
0.13118511 0.22814608 -0.17384335 -0.04387266 0.20297885 -0.22455508 0.7286 0.087502345
0.37598017 -0.07017882 0.7334882 -0.31514886 0.20454589 0.09343262 -0.20487146 -0.04859807
-0.13403426 -0.17501773 0.08899273 0.0774601 0.42622092 -0.010978453 0.066431776 0.11933751
-0.35087466 0.23198026 -1.0418596 0.3524952 -0.17404969 0.1309524 -0.19678722 0.023386963
-0.1744561 0.08917292 0.7834519 -0.72698295 0.9984235 -0.16049275 -0.18942529 0.007985732
1.2897555 0.23833428 0.76256865 0.05859064 0.1782278 0.23411502 0.6879992 0.94479007
0.40148294 0.029956346 -0.03776369 0.3484962 -0.15152851 0.31629077 -0.33598283 1.1957954
0.40154913 -0.4614305 0.9494338 0.30379117 0.20469983 -0.9057105 0.2629983 -0.46769524
0.662808 0.2031575 0.16984166 0.32241192 0.39684653 0.004762875 0.6954598 0.08077066
-0.61756575 -0.00054540235 0.6330719 -0.07335829 0.19235605 0.33764765 0.2621589 0.2872496
0.41132337 0.7747966 0.17548242 0.30977482 -0.40234885 -0.11599945 -0.55450827 0.8143803
-0.15514195 0.33990923 0.2183595 1.0629181 0.11862367 1.4724811 -0.0678326 -0.1922592
-0.10993696 0.35081768 -0.100456506 -0.7923193 0.07984942 0.36411986 0.69127774 -0.3220987

lstm.weight_ih_l1 f4 [256, 64]
00000000: 7c4c 843e 10b8 223e 107c 22bd 15e3 833e
00000010: c679 c13d fed8 dfbc 09b0 f3be 6163 c63c
00000020: 65bb cf3e cd49 0a3e 90df cabe 2ccd a1be
00000030: 4856 2b3d c500 6ebe 01e5 0d3f f966 b7bd
00000040: 1091 cb3e e6f2 babe 4af2 35bd 933d e2bd
00000050: fba9 043f a677 81bf 77cb 943d 7681 8f3d
00000060: 5911 2dbe eaa1 fabd fe92 d7bc ef4f 80bd
00000070: b62e 6c3e 079a 14bd 9924 97be 53d6 66be
00000080: c4c8 5abd a5eb e13d 90d0 433e 54fe 003f
00000090: c074 8ebe b5db f9bd 9c88 45bd 18c1 723e
000000a0: 2e2b 8c3d f9a5 f33e 54ea fdbd bcf6 a93c
000000b0: 9e8e 403e cfcf 643e f52d cfbe ff14 4f3d
000000c0: 8a2c bbbc 6ed5 ecbe 3fdb b83e de05 18bf
000000d0: c047 173f e571 543d 2214 4dbd 64f5 963e
000000e0: 65a8 87bd 0b25 85bd e399 243a 3875 adbe
000000f0: 25c9 f63d 213c 97be 4d94 0cbe cca3 3c3e
00000100: 723c 53bd 4708 8abc 7d40 98bd 4800 cc3d
00000110: b392 513e 8a69 abba a69b ca3d a0d1 59be
00000120: a37a 7e3d fd0c b13d cb29 2ebf 6e8b ef3d
00000130: 4ff6 9cbd 440c 1ebf b7a4 00be 2af9 9bbd
00000140: b428 0bbd dabd 563e 2d54 89be df93 ce3e
00000150: 1a9f 233e 2ac6 963e 9cff 0cbd da61 2b3e
00000160: 4907 c23e eb17 2ebf a7d0 8ebc d3b0 093e
00000170: 295e 32be 946e cd3d 301a 0dbe 66c6 51be
00000180: f1e6 f03e 2bca 3e3f cafb 02bf 5658 01be
00000190: d506 55be 7ca6 a5be 7a20 85be c0dd bfbe
000001a0: ad92 493d da03 ef3b 9368 8abe c102 063e
000001b0: 3a59 243e a087 7ebf d071 383e f22a 033f
000001c0: f5dd 82be 6885 1f3d 0d4f 283e 4af6 1b3e
000001d0: 5511 eebe 3bcc 093e 188c 863c b334 a4be
000001e0: 5043 b2bd 65b2 793e 3e5d 343d 2fcb 9bbe
000001f0: e9bb a73d 30a5 dcbd 8d54 5d3f 1da8 273e
00000200: 4d04 afbf 343e 033f 83d3 0c3a 770a f83b
00000210: 8fcb 19be f88f d23e e1be cebd 95c7 703f
00000220: ca01 4d3f f129 00be b51f 88be 6802 1d3f
00000230: ed80 e4be 25c4 38be 2cba 83bd ebeb adbe
00000240: 9516 cdbd ca0f 8cbf 18ba ffbe e733 01bd
00000250: c6d4 c5be 94ce 59be 8ecb 82be b117 533d
00000260: a3ee 17bd 6d63 77be ce8e d1bd a3c8 65be
00000270: b5bf cfbd c686 93be 95c1 2bbf c926 83bf
00000280: 2d05 533f a254 5c3e 74fa 683e d641 f6bd
00000290: 3f51 8d3e 8a49 a53e 4ae2 30be 179f 36bd
000002a0: c1ed 223e 8cb9 19bf d3e0 e93e 0a4a 2b3f
000002b0: 56b4 ff3d 1856 50bf c437 7c3e 377e 2f3f
000002c0: e003 bc3e 7311 993c 7bdf 8b3f 528a 813e
000002d0: 4d35 e13e 54e5 fbbe 9f66 5abe 5747 913f
000002e0: 3658 143c e732 cb3e b7f6 babd b895 65be
000002f0: 6874 ef3d c8e3 6c3f 54f6 5b3d bbd1 9e3e
00000300: 85b6 913e 68ff e1bd 08fa 3fbe 1447 25bf
00000310: ecb1 22bf 2796 86be cf09 223e 15c1 1e3f
00000320: 4c17 1c3f 4625 46bd 2b65 ae3d 57a5 0c3e
00000330: 8b68 dfbe a53e be3f 93fc e9bd f61e 0b3e
00000340: ccfd 2ebe 52f9 ddbe 18d8 2c3e c3fa b63f
00000350: b959 853e 2a70 9c3e 7869 b8be 8689 b8be
00000360: 1eda c7be 87fd 43bd 3058 93be d778 293f
00000370: 6b2b 44bf 61f6 a03e cbdf c23d 5ff7 ba3f
00000380: dd45 823e 81ac 47be 52c2 13bf 8d99 303e
00000390: cc3d 0e3f 8fe6 573f 328e 8dbe 7b41 2e3f
000003a0: 4ae5 953e a6ff 08ba e8ca 083f d610 893f
000003b0: 30e1 843d 276b f83f 8cee 603e c5ef b8be
000003c0: 59a1 96be 11d0 2cbd df63 9c3d 361d 2c3f
000003d0: 41e6 c13e e586 79be 3258 8abe 4618 e03d
000003e0: ba69 f6be c415 79be e763 07bf b399 a7be
000003f0: 56dc 763d 6743 7e3f 586a 9bbe 05ce 153f
0.25839603 0.15890527 -0.039669096 0.25759187 0.094470546 -0.02732515 -0.47595242 0.02421731
0.40572658 0.13504715 -0.3962369 -0.31601846 0.04183033 -0.23242481 0.5542756 -0.08955187
0.3975911 -0.36513442 -0.044420518 -0.110469006 0.5182187 -1.0114639 0.0726537 0.070071146
-0.16901149 -0.12237914 -0.026315209 -0.06265246 0.23064694 -0.036279704 -0.2952011 -0.22542696
-0.05341412 0.11031274 0.19122529 0.50388074 -0.27823448 -0.12200109 -0.048225984 0.23706472
0.06844173 0.47587565 -0.1239821 0.020747535 0.18804404 0.22344898 -0.4046475 0.050557133
-0.022848386 -0.46256584 0.36104771 -0.5938395 0.59093857 0.05186643 -0.05006803 0.29484093
-0.066239156 -0.06501206 0.00062790344 -0.33878493 0.12050084 -0.29538062 -0.13728447 0.18421859
-0.051571317 -0.01684965 -0.07434175 0.09960991 0.20466118 -0.0013077718 0.09892969 -0.21271372
0.062128674 0.086450554 -0.6803252 0.11696516 -0.07664167 -0.61737466 -0.12562834 -0.07615884
-0.033974364 0.2097086 -0.26822034 0.40347192 0.15978661 0.29448062 -0.034423456 0.16736546
0.37896183 -0.68005246 -0.017433478 0.1344636 -0.17418732 0.10030857 -0.13779521 -0.20485839
0.47051194 0.74527234 -0.5116545 -0.12631354 -0.20803387 -0.3235358 -0.2600134 -0.3747387
0.049212147 0.0072941603 -0.2703291 0.13086988 0.16049662 -0.994257 0.18012166 0.51237404
-0.25559965 0.038945585 0.16436405 0.1523067 -0.46497598 0.13456814 0.016424224 -0.32071456
-0.08704245 0.24384458 0.044034235 -0.30428454 0.08190138 -0.107736945 0.8645714 0.16372724
-1.3673187 0.5126679 0.0005372094 0.007569607 -0.15019058 0.41125464 -0.10095001 0.9405454
0.80080855 -0.12516 -0.2658669 0.61331797 -0.44629613 -0.18043573 -0.06431994 -0.33969054
-0.10014073 -1.0942318 -0.49946666 -0.03154364 -0.38638896 -0.2127021 -0.25545925 0.051536266
-0.037092816 -0.24159022 -0.10232316 -0.22439818 -0.10143987 -0.2881376 -0.6709226 -1.0246211
0.8242977 0.2151666 0.2275179 -0.12024276 0.27601048 0.32282668 -0.17273822 -0.044585314
0.15911008 -0.6004875 0.4567934 0.6690985 0.12485568 -0.8138137 0.24630648 0.68551964
0.36721706 0.018685078 1.0927576 0.25300843 0.43985978 -0.491984 -0.2132821 1.1349896
0.009054234 0.39687273 -0.09129088 -0.22420394 0.116921246 0.92535067 0.053701714 0.31019387
0.28459564 -0.11035043 -0.18747723 -0.6456158 -0.6355274 -0.26286432 0.15824054 0.6201337
0.6097305 -0.04837539 0.0851539 0.13734947 -0.43634447 1.4862868 -0.11425128 0.1358603
-0.17089003 -0.4335428 0.16879308 1.4295276 0.26045015 0.30554324 -0.36017966 -0.36042422
-0.39033598 -0.047849204 -0.2877822 0.6620001 -0.7662875 0.31437972 0.09515341 1.4606742
0.25443926 -0.19499399 -0.57718384 0.17246075 0.55563045 0.8433618 -0.2764755 0.68068665
0.29276496 -0.0005226083 0.5343461 1.0708263 0.064882636 1.94077 0.21965998 -0.3612043
-0.29419973 -0.042190615 0.076362364 0.6723207 0.37870982 -0.24367864 -0.27020413 0.1094213
-0.48127538 -0.24324709 -0.52886814 -0.3273445 0.060268722 0.993216 -0.3035457 0.58517486

lstm.weight_hh_l1 f4 [256, 64]
00000000: 7da8 4d3f d3ed 923e c591 adbe f2dd 60bf
00000010: 6783 e03e 79d6 73bd bed0 8dbb 5785 dc3d
00000020: 53a3 5fbe 3a0a bb3d 093b 0cbf 5f59 1640
00000030: 9e35 d7bc 1e04 37bf 03b4 493e 7512 b53e
00000040: 4774 d5be d3fc d9bd fd94 123d 6af1 30bf
00000050: 694d 63ba 2517 893f ecac a8bf e8d1 fcbf
00000060: 6820 8d3d 34f0 d73e f30b 9ebe 814e 96be
00000070: e2c5 b9bd bfa5 7a3f f69a c73e 6c01 203f
00000080: 5713 af3f 4f08 38bf 1d4c 1e3e 6c11 803e
00000090: 6648 86be 3cb9 f4be 5fe8 c4be 977d 25bf
000000a0: bbfe 27be 4e22 263e b983 d4bf 8dea 9bbe
000000b0: 486c 7cbe 0b68 8fbf 047c 1b3d 7108 2b3e
000000c0: 429e 313f e7ae 2fbf de45 913e c431 d9be
000000d0: 38cf 053f e7c7 29bf 4bb0 f73d 65e7 343e
000000e0: d018 a83d afc1 743f d091 0c3e 7762 c63e
000000f0: 0e4d aabf 9293 40bf 784e 3abf 6a91 8ebd
00000100: cf2e c4bd 9800 0bbf 431d bbbe a127 613f
00000110: a2dc 92be 1ee6 33bf 4217 40be 0e77 c63e
00000120: 041f 0dbf 3610 c1be cf71 cbbe 884b 6b3e
00000130: 332d 933e 7f0c babe ddbd 43be 75fc d3bd
00000140: 2d84 b83e 7c90 c0be 779b 3fbe 0362 df3e
00000150: 9b4e 08be 64ee 1ebf c915 8bbf b05c a53f
00000160: 851d 543d f716 1fbf a8e9 df3d 6cbf 0c3d
00000170: 7c76 2dbd 1bde 9b3e 6105 d1bf cc57 133f
00000180: 0eaa eb3e 310e ed3e 0486 aebe 864c c5bd
00000190: 1a20 39be 0d2d 3fbc 5013 123f 3fbf 053f
000001a0: 12e3 58bf 5bac d43d 4eed fe3e 170b 7c3d
000001b0: 2902 313e e012 97be 22e9 c1be f7c8 bf3c
000001c0: ef6e b13e 7504 213f 0a2b ffbe 3ac0 8ebe
000001d0: 0c46 1c3f 2b90 0b3e 018a 01be cd61 8ebd
000001e0: 4925 573e 5aaf 09bf e9a1 b43f cd25 8d3f
000001f0: 9f6c eb3e 27f2 75bf 561e b5bd 4e40 9d3e
00000200: 6d30 dfbe 98db 40be b8d7 6bbf caad 813e
00000210: 4a74 473e d900 833e faf0 d33e 8119 6e3f
00000220: 253f 85bf a692 05bf 7cbf d23d 58bd a53f
00000230: bf6a edbc ac70 663d 45a5 03bf 0886 5f3e
00000240: 654e 4bbf fa2b 043f 3f4b 64bf 269e 8bbe
00000250: 1049 ae3e 5520 a73e b1bc ddbe bc61 aa3d
00000260: 015e b7bf abae 51bd edaf fcbd ac3f 833d
00000270: 4f5f 313f 4208 e3bc 79f5 613d f66d cf3d
00000280: 9d7a ee3e 4498 d1bd 407a 12bc f75a 9d3e
00000290: 3d1c 8bbe 5fbf 13bf 264f f2be 6c4f 3abf
000002a0: e08e b03e c121 42be fbdf c2bd c108 f9be
000002b0: 2c83 7c3f 8b55 25bf 9576 2fbf a424 a23e
000002c0: 901a 853e 9611 bbbe ea25 42be 528c c83a
000002d0: 0fa9 d5bd 7ade 23bf bb07 083e fb5b 29bf
000002e0: b532 e7bd c56f f1bd 70de 123e 99f9 b0be
000002f0: 2aa5 d9be 6752 eabd 7b02 9b3e 9923 14be
00000300: fe2d 333e fc1a 4f3f ed3a 393f 80b5 ac3e
00000310: 23ef 85bd 70a3 353e c768 84bd dd9f 213e
00000320: 1842 bbbd e74f 0ebf 292c 55bf 2609 093d
00000330: 8f80 7f3e b39f 833d 3f46 403e b569 43be
00000340: d9f5 e4be 6e78 82be 4b6c 7ebe 42ef bcbe
00000350: e28f 8e3d ae6d 2b3f bc1f bcbe feab 7abf
00000360: ee29 863e 6318 013e 5441 023f eeb5 c13e
00000370: 0a30 cabe 7819 843e e585 063d 7f14 d6be
00000380: e82e 023e 2315 84be b811 943e c31e f1be
00000390: 90fb 133e d823 80be ee66 983e 0b5c 8cbe
000003a0: b370 e63e 00dc 6d3e 1c65 24bf 42cc d6bc
000003b0: 132b 6f3d 8091 983e 99eb e2bc 0c13 7d3e
000003c0: 1fa7 193e 1961 233f 6ce1 45bd 0243 0d3f
000003d0: c86e 0fbf f8a7 0e3d 1e70 983e 1d7e 0a3f
000003e0: a4cc c13e 09a0 78be 9354 b1be 208e 873f
000003f0: db48 a1be 79b7 7cbd 5cd9 4d3e 1b20 2bbf
0.8033522 0.2869707 -0.33900276 -0.8783866 0.43850252 -0.05953071 -0.0043278625 0.1076762
-0.21839647 0.0913281 -0.5477758 2.3492048 -0.026270684 -0.7149066 0.19697575 0.35365644
-0.41690275 -0.106439255 0.035786618 -0.6911837 -0.0008670898 1.0710188 -1.3177772 -1.9751558
0.068909466 0.42175448 -0.30868492 -0.2935677 -0.09070946 0.9790916 0.38985413 0.6250217
1.3677777 -0.7188768 0.15458722 0.25013292 -0.2622711 -0.47797573 -0.38458535 -0.6464476
-0.16405766 0.16224024 -1.6602699 -0.30452386 -0.24650681 -1.1203626 0.037960067 0.16702439
0.6938211 -0.68626255 0.28373617 -0.4242078 0.52269316 -0.6632065 0.12094172 0.17666395
0.082078576 0.9560804 0.13727498 0.38746998 -1.3304765 -0.75225174 -0.72775984 -0.06961329
-0.095792405 -0.5429778 -0.36545762 0.87951094 -0.28683954 -0.70273006 -0.18758872 0.38762707
-0.5512545 -0.3770768 -0.39735267 0.22978032 0.28745422 -0.3633766 -0.19115396 -0.10350887
0.36038342 -0.37610233 -0.18711649 0.43629465 -0.13311236 -0.62082505 -1.0866023 1.2918911
0.051785965 -0.62144417 0.10933238 0.03436224 -0.042349324 0.3044289 -1.6329767 0.5755584
0.4602818 0.4629989 -0.3408662 -0.09633736 -0.18078652 -0.011668456 0.5706072 0.52244943
-0.8472148 0.10384437 0.49790424 0.061534014 0.1728598 -0.29506588 -0.3787318 0.023411257
0.34654948 0.62897426 -0.49837524 -0.27881032 0.61044383 0.13629214 -0.126503 -0.06952248
0.21010317 -0.5378319 1.4111911 1.1027161 0.4598131 -0.9607262 -0.08843677 0.30713123
-0.43591633 -0.18833768 -0.92126036 0.25327903 0.19477955 0.25586584 0.41394788 0.93007666
-1.0409895 -0.5217689 0.10290429 1.2948408 -0.028981565 0.056259796 -0.51424056 0.21828473
-0.79416496 0.516296 -0.89177316 -0.27269095 0.34040117 0.32641855 -0.43308023 0.083194226
-1.4325563 -0.051191967 -0.12338243 0.06408629 0.69286054 -0.027713899 0.05516574 0.10128395
0.46577922 -0.102341205 -0.0089402795 0.30733463 -0.27169982 -0.57713884 -0.4732601 -0.7277744
0.34484005 -0.18958189 -0.09515377 -0.4863949 0.9863765 -0.64583653 -0.68540317 0.3166858
0.25996828 -0.36536855 -0.18959776 0.0015300608 -0.10432636 -0.6401135 0.13284199 -0.66155976
-0.112889685 -0.117888965 0.14342666 -0.34565428 -0.42508823 -0.11441498 0.3027533 -0.14466704
0.17498013 0.8090055 0.7235554 0.33732224 -0.06539752 0.17738128 -0.06465297 0.15783639
-0.09143466 -0.5559067 -0.8327051 0.03345599 0.24951385 0.064269446 0.18776797 -0.19083293
-0.44718817 -0.25482506 -0.24845998 -0.3690129 0.06961037 0.6696423 -0.3674296 -0.9791869
0.26203865 0.12606959 0.5088093 0.37834114 -0.39489776 0.2580068 0.032842536 -0.41812512
0.12713206 -0.25797376 0.28919768 -0.47093782 0.14451432 -0.25027347 0.2976603 -0.27413973
0.45007858 0.23228455 -0.6421678 -0.026220445 0.05839069 0.29798508 -0.027700232 0.24714297
0.15005158 0.63820034 -0.048310682 0.5518037 -0.56028414 0.034828156 0.2977304 0.54098684
0.3785144 -0.24279799 -0.34634838 1.0590248 -0.31500897 -0.06169841 0.20102447 -0.66845864

lstm.bias_ih_l1 f4 [256]
00000000: b6e4 aebe 00ea b1be b9cb 9ebe bb29 b73d
00000010: 3641 a5be 5e2a 91be e9c1 bfbe 2eac 20be
00000020: 3886 c43b 45ed 3cbf 053a bd3d 502a 3bbe
00000030: 1d9b 6abe 4334 b6be 044f 1bbe d5d9 8bbe
00000040: 8e4e 7bbe e156 87be a63c 31be 9728 96bc
00000050: 6a47 c73e 5995 20be 1b11 92be b9dd 0abe
00000060: 20b5 8abe a521 7b3e 2198 0d3e d7bc 0b3e
00000070: bbc2 ac3c fe3a b9be 10df 2fbf ce1e ec3c
00000080: 587c 4abd 3cb7 f3be fe5b 75be 0c1b a7be
00000090: cf83 fd3b 890c 16bf f3c5 703e 07fd 0dbe
000000a0: 6970 9a3d e5fb 8ebe cecd 403d 6d71 93be
000000b0: 26ee a3be 8e11 babd 5bdf c4bd 77e7 083e
000000c0: a761 5fbe d86b 2ebe e032 53be 9e38 05be
000000d0: 3422 41be 9097 58be 2776 e13b 67db 70be
000000e0: 68f3 c2bc f777 223e 734c f8be f97a 4dbe
000000f0: cb03 dfbe 315d 08be 819b acbd 8914 87be
00000100: b352 01bd 64c0 9cbe e989 30be 5117 8dbc
00000110: f1f9 483e 1683 12be bbba 033f a63a 82bc
00000120: a6a4 aebe 4836 963d 4473 3bbd 0d3d cd3e
00000130: fa93 94be 1f88 323e a315 59be 2c19 6f3c
00000140: 7790 e9be f336 7fbe 7eed efbe 5db9 b1be
00000150: 7530 b8bd a385 fdbe af36 18be 8871 82be
00000160: 2af5 683e e71a b1bd 8f69 f1bc 0438 bebe
00000170: 0c50 b83e 8160 e1be 2bc0 8d3e a1e0 103e
00000180: 92a9 1cbe 5751 dc3e 007f 733d 2070 f23d
00000190: 076d babd 7a99 88be 5575 2abe 8f70 a53d
000001a0: d10e c4be 0111 393c ab78 bcbd 3a1f dbbe
000001b0: 4e4f a03e 965f 76bd 843a 2dbe 8f34 d3bd
000001c0: 16b4 a5be 7746 3cbe 6987 b53d 89a9 8a3e
000001d0: 5d7a e0be ef76 fc3d 87e7 eb3e f780 173e
000001e0: 887a 023f 3655 15be 4da7 093f 5876 c7bd
000001f0: 8a5d ddbd a1f9 44be 68ca 9f3b 22e8 12bf
00000200: 9c4c 69bc 5e51 32be 5524 32be 2cc8 c13e
00000210: 2358 46bd a36d bd3e 77a1 f1bb 5150 80bd
00000220: d225 243d 5515 7abd 3ea7 81be bf67 a83e
00000230: 9dee ccbc 7c24 193e a3d8 6cbd e548 853d
00000240: c266 d63e 7791 1b3d 0263 7b3e 48c6 503d
00000250: 361d 13be 9dc6 85be ebc4 fcbd 2944 043e
00000260: a498 e23d bb92 823e 2155 2a3e 2b49 17be
00000270: 0fe1 5dbd 6a25 5e3e 3ba9 4c3e bdc7 5fbe
00000280: f3ce 0abf 907e b03b b6ae e33d 6949 42bc
00000290: 1036 a5be e22a 383d 1a58 aa3e 11bc 893d
000002a0: 5068 523e 7cd1 5abe 3b19 a03e 42b0 8ebd
000002b0: c79f 4b3e 2f11 99bd 608f 3a3e d125 fe3d
000002c0: ec05 a0bd 7222 31be 2065 07bd 996d d3bd
000002d0: 17e4 903e 9b0d 113f fc6d f73e 8b18 d8bc
000002e0: 7800 51be 7ea7 45be 64bd 18be 054c bfbe
000002f0: 81b4 28bd b1ef 173d 1a52 bebd 7f62 88be
00000300: 0d20 533e 0e9e 65be 8f48 26be 2dd8 313e
00000310: dfb7 ebbb a44c 09bd fdeb fe3c d88a b7bb
00000320: 0f89 273e 029d 80be 37bb e93e 15d5 fabe
00000330: 65cf 6bbe 65a4 4bbe 6d55 8c3c 1750 b4be
00000340: d915 62be f6d5 2cbe 7f0e 393c bfda 1dbe
00000350: 4bcb 713e 126e 943d d064 bebe e5c6 73bd
00000360: 6cbd 173d 0627 d43e 86d9 833d 7b89 763e
00000370: 0b56 b63e d49f 67be 239d 0ebe b038 87be
00000380: c619 003f f10b 233f 5a03 793e ca67 60be
00000390: cd8d 22be 469b 29bc 37f6 213e fd4e eabe
000003a0: 554b 763e 372e 263d 1578 773d d91a 98be
000003b0: c8c7 3fbd d59b 423e 3cbf 363e a591 52bd
000003c0: 6f70 1ebe ddda 24be 0adc 18be fdd3 063f
000003d0: 63d5 d3be e397 db3d f5b0 77bd 38a5 7a3e
000003e0: e12c 033f dc55 5c3b 972b 153d 5a30 c13d
000003f0: 1ed1 813e 97bd 81be f530 013e c885 c8be
-0.34158868 -0.3474884 -0.31014803 0.08943506 -0.32276314 -0.28352636 -0.3745263 -0.15690681
0.0059974454 -0.73799545 0.09239582 -0.1827786 -0.22910734 -0.35586748 -0.15166861 -0.2731463
-0.24541685 -0.2643347 -0.17308292 -0.018329902 0.38921672 -0.15681972 -0.28528675 -0.13561143
-0.27091312 0.24524553 0.13827564 0.13646255 0.021088948 -0.3617782 -0.6869974 0.028823283
-0.04943499 -0.47600734 -0.23960873 -0.32637823 0.00773666 -0.5861288 0.23513012 -0.13866054
0.07540972 -0.27926555 0.04707127 -0.28797475 -0.3201763 -0.090853795 -0.09612914 0.13369547
-0.21814595 -0.17033327 -0.20624876 -0.13009879 -0.18860704 -0.21151567 0.00688054 -0.23521195
-0.023797706 0.15866075 -0.48495826 -0.20066442 -0.4355758 -0.133168 -0.084280975 -0.26382855
-0.03157301 -0.30615532 -0.17240109 -0.017223032 0.19626595 -0.14307818 0.51456803 -0.015897106
-0.34109992 0.07334572 -0.045764223 0.4008564 -0.29019147 0.17434739 -0.2119966 0.014593404
-0.4561803 -0.24923305 -0.4686088 -0.34711733 -0.089936174 -0.4951602 -0.1486461 -0.25477242
0.22749773 -0.08647709 -0.02946928 -0.37152112 0.3599857 -0.4401894 0.27685675 0.14148189
-0.15299061 0.43030807 0.05944729 0.118377924 -0.091028266 -0.26679593 -0.16646321 0.080781095
-0.38292554 0.011295558 -0.09202703 -0.4279726 0.31310505 -0.06014975 -0.16916853 -0.10312759
-0.32363957 -0.18386255 0.08863718 0.2708247 -0.43843356 0.12327372 0.4607508 0.1479529
0.5096822 -0.14583287 0.53770906 -0.09739369 -0.10808857 -0.19235851 0.0048764236 -0.57385457
-0.0142394565 -0.17413852 -0.17396672 0.37848032 -0.048423897 0.3699771 -0.0073739844 -0.06265319
0.04007513 -0.0610555 -0.25322908 0.32891652 -0.025016123 0.14955324 -0.05782379 0.06508044
0.41875273 0.037980523 0.24549487 0.050970346 -0.14366612 -0.26128092 -0.123422466 0.12916626
0.1106427 0.2550257 0.16634037 -0.14774005 -0.05416971 0.2169396 0.19986431 -0.21853538
-0.5422203 0.005386181 0.11117308 -0.011858323 -0.3226781 0.04496277 0.3327034 0.06725324
0.20547605 -0.21368974 0.3126925 -0.06967212 0.19885169 -0.07473981 0.18218756 0.12409557
-0.078136295 -0.17298296 -0.033055425 -0.103236385 0.2829902 0.56661385 0.483261 -0.02637889
-0.20410335 -0.19302174 -0.14915997 -0.37362686 -0.041187767 0.037093822 -0.092930034 -0.26637647
0.20617695 -0.22423574 -0.16238616 0.17367621 -0.00719355 -0.033520356 0.031118387 -0.0056012683
0.16360877 -0.25119787 0.45650646 -0.48990694 -0.23028333 -0.1988693 0.017130578 -0.35217354
-0.22078647 -0.16878495 0.01129496 -0.15415476 0.23612706 0.07247557 -0.3718629 -0.059515852
0.03704588 0.41436023 0.06437974 0.24075882 0.3561252 -0.22619563 -0.1392713 -0.26410437
0.5003933 0.63690096 0.24317685 -0.21914592 -0.15874405 -0.0103519615 0.1581658 -0.45763388
0.24052174 0.040571418 0.060417254 -0.29707983 -0.046821386 0.19004758 0.17846388 -0.05140843
-0.15472578 -0.16099115 -0.14927688 0.5266722 -0.4137374 0.107223295 -0.060471494 0.24477088
0.51240355 0.0033620512 0.036418524 0.094330505 0.25354856 -0.25339958 0.12616332 -0.39164567

lstm.bias_hh_l1 f4 [256]
00000000: f546 adbe 5d81 9dbe 9579 d4be 6d22 c4bc
00000010: 29a7 b6be a594 c8be e956 06bf 8026 46be
00000020: 559a 423e c3ef 12bf 2260 483e d6b0 90be
00000030: 39f3 afbe 0468 e5be 3c07 9fbd 363f 97be
00000040: 7f05 9fbe 9eec a0be 896f 4dbe 9703 4bbd
00000050: 76a2 753e 08c2 83bd e2ee 08be c38d 39be
00000060: 63ea 8bbe 1714 7a3d fd8b 8cbd 9993 ba3d
00000070: dae3 5b3c 3290 bdbe 9bdc 0fbf 047c 063d
00000080: 9f0a 10bd 2eb2 e7be 976d 12be 67a7 e3be
00000090: bd09 523d a801 15bf b90f 253d 4a1b 08bd
000000a0: 57a3 18bd f70a 93be 0d99 363e aa01 68be
000000b0: 2002 27be ddfe b6bd cbb4 c6bc 7201 49bb
000000c0: 6433 3bbe 1474 b4be 82b4 36be 73b2 fcbd
000000d0: 148a 83bd 480d 43be 224f 11be 014b 05be
000000e0: ef92 2abe 18b3 113e 8bef e6be 0ec9 6cbe
000000f0: 19d0 93be 11e7 9bbc d9ae 66be f32e c0be
00000100: 7165 853d de87 5fbe 6bbf d7b9 d95a 93bd
00000110: b38e a4bc de7e 43be 57dc b23e 0b0e 03be
00000120: f3ae cabe f72e b5bc f17e 4cbd d57f 743e
00000130: 48d8 8ebe 9494 4f3d b779 80be 235d 733d
00000140: f3fc a9be 0c8f 7dbe 67bb e1be f714 6cbe
00000150: eca9 8ebd b363 0abf 178a a8bd fa45 fdbd
00000160: dcc4 873e 8881 543c 05c4 32be 798e ccbe
00000170: 2dcf 693e 761f dfbe 89c5 c13e c499 ea3d
00000180: e188 5fbd dd88 073f f6e4 523e e7ef cabb
00000190: 7f9b 84be 30d3 10be fa36 29be 3235 843d
000001a0: 6cf4 e2be eba2 7a3b 6ad9 b4bd 56e3 8dbe
000001b0: 7cff 833e b4c5 4abd da0f 45be ff84 c5bd
000001c0: af55 91be a235 2bbe b89c bc3d 4f16 663e
000001d0: 7be7 f1be cfb1 913c 8620 bc3e dec8 8a3e
000001e0: 9c5d 0a3f d4ed 4abe b13c 9e3e 915e 12be
000001f0: c3d4 32bd 73f8 bbbe d932 2e3d 5584 1bbf
00000200: 423c ab3c a3ac 28bd 8827 babd 8715 da3e
00000210: 636f e9bc a935 8e3e 4c71 30be 421b 8bbe
00000220: 7942 7a3d 16b2 abbc 9307 48be e63f 233e
00000230: 5484 37bd 5c8a 593e f25e 46be abbe 5c3e
00000240: 3015 f53e 6f5b 0fbe 5b72 6e3e 54b9 dfbd
00000250: ed56 03bd 9132 90be 2b30 6dbe f5e6 2d3e
00000260: 6415 cf3d 951e 933d 815d 1e3e ccd1 38be
00000270: ba96 76bd 7159 1bbb b482 8c3e a083 5abe
00000280: a7b9 a2be cd4c 3ebd aa7b 6abb 25ba 063d
00000290: 4d21 bbbe 2149 a5bd 87cd 113e db23 443d
000002a0: 0d36 0c3e f6b7 79be f2db dc3d c72c b2bd
000002b0: 9b1f 303e 274f abbd b280 f43d 6f40 f73d
000002c0: e300 c1bd f508 b4bd f531 003e e8e9 5bbe
000002d0: 5181 5b3e dceb 043f b063 fd3e 20c1 8abd
000002e0: f54d b1bd 266f 02bd 9911 30be c68f b1be
000002f0: f51f 43be 0c18 aa3d a660 883d fdce c3be
00000300: a78b 433e 537c a0be 0e99 99bd ccf1 333e
00000310: 6423 833d 55f9 9cbd 6f9a 40be 28f3 4e3b
00000320: 7dcf 5b3e b604 c3be edfd cc3e d9f1 cfbe
00000330: 9f25 5cbe ff9c ffbc 87df 6ebd eb51 acbe
00000340: 009e b2bc 2b82 04be 3bc6 0cbd a821 f5bc
00000350: 7ddb 5a3e 092d c8bd 6bd1 bcbe cc8e 943c
00000360: 3e83 99bc b707 3b3e d87b 22bd 2fa9 c93e
00000370: ff65 e43e 8184 24be 01b4 8cbe e0d9 97be
00000380: bcbd f53e 4f39 133f abc2 053e 4b9c 55be
00000390: 0eee 85bd 6df5 64bc 5a27 b63e 4a53 94be
000003a0: 75eb 1b3e 94a1 193e da8e bc3d e76d 61be
000003b0: ecc8 87bd e717 863e 1aa7 8b3e 1953 00bd
000003c0: 4f7d a4be 1174 0cbe c85d d2bb cad6 063f
000003d0: c839 94be b5df 0e3e a8aa 1abd 83a6 5c3e
000003e0: 1f55 f03e 4bba 443d 7152 4ebc e749 9f3d
000003f0: 5233 433e 11c7 92be b1fd 593e c140 8bbe
-0.33843198 -0.3076276 -0.4149901 -0.023942197 -0.35674408 -0.39175907 -0.52476364 -0.19350624
0.19004185 -0.573971 0.19567922 -0.28259915 -0.34365252 -0.4480592 -0.07765052 -0.29540414
-0.3105888 -0.31430525 -0.20062079 -0.04956397 0.23987755 -0.06433493 -0.13372377 -0.18120484
-0.2732726 0.061054315 -0.06862638 0.09110183 0.013421023 -0.37024075 -0.5619599 0.032833114
-0.03516638 -0.45253128 -0.14299618 -0.44463655 0.05127882 -0.5820565 0.040298197 -0.03322915
-0.037265148 -0.28719303 0.17831822 -0.22656885 -0.16309404 -0.0893533 -0.02425613 -0.0030671027
-0.18281323 -0.3524481 -0.17842296 -0.12338724 -0.06422821 -0.19048035 -0.14190343 -0.13016893
-0.16657613 0.14228475 -0.45104632 -0.23123571 -0.28869703 -0.01903108 -0.22527637 -0.3753582
0.06513489 -0.21829173 -0.00041150613 -0.07195062 -0.020087576 -0.19091365 0.3493373 -0.12798326
-0.395866 -0.022117121 -0.04992575 0.23876889 -0.27899384 0.050678805 -0.2509286 0.059414994
-0.33200797 -0.247616 -0.4408829 -0.23054872 -0.06966004 -0.5405838 -0.082294635 -0.123668626
0.2651738 0.012970336 -0.17457588 -0.39952448 0.22832938 -0.4357869 0.3784602 0.1145511
-0.054573897 0.5294321 0.20595154 -0.0061931494 -0.25899884 -0.14143062 -0.16524878 0.06455459
-0.44327104 0.003824408 -0.08830531 -0.27712506 0.25780857 -0.04950495 -0.19244328 -0.096445076
-0.28385684 -0.16719678 0.09209579 0.22469448 -0.47246918 0.017784981 0.36743563 0.27106375
0.54049087 -0.19817287 0.3090568 -0.14293887 -0.043659937 -0.3671299 0.04252896 -0.607488
0.020902757 -0.041180264 -0.09089571 0.4259455 -0.028495496 0.27775314 -0.1723072 -0.27169234
0.06109855 -0.020958941 -0.1953414 0.15942344 -0.044803932 0.21244186 -0.19372156 0.21557109
0.47867727 -0.13999723 0.2328581 -0.109240204 -0.03206532 -0.2816358 -0.23162906 0.16982634
0.10111502 0.071835674 0.15465356 -0.18048781 -0.060202338 -0.0023704434 0.2744347 -0.21339273
-0.31782266 -0.04645996 -0.0035779276 0.032892365 -0.36548844 -0.08070589 0.14238559 0.047885757
0.13692494 -0.24386582 0.10784139 -0.08699947 0.17199557 -0.083647065 0.11938609 0.120728366
-0.09423997 -0.08790771 0.12519057 -0.21475947 0.21436049 0.5192239 0.49490118 -0.06775117
-0.08657447 -0.03184428 -0.17194213 -0.34680003 -0.1905516 0.08305368 0.06659059 -0.38243857
0.19096242 -0.31344852 -0.07499896 0.17572707 0.064032346 -0.07664744 -0.18808912 0.0031578038
0.21465869 -0.38089532 0.4003748 -0.40614203 -0.21498726 -0.031202791 -0.05831864 -0.33656248
-0.021803856 -0.1294028 -0.034368735 -0.029923275 0.2137279 -0.09774215 -0.36878523 0.018134497
-0.018739339 0.18264662 -0.039668888 0.3938689 0.44609067 -0.16066171 -0.27481082 -0.29658413
0.47996318 0.5750932 0.13062541 -0.20860402 -0.06539546 -0.01397453 0.35576898 -0.28969795
0.15226538 0.15003043 0.09206934 -0.2201458 -0.0663012 0.2619011 0.27275926 -0.031329248
-0.32126853 -0.13716151 -0.006419871 0.5267149 -0.28950334 0.13952525 -0.037760407 0.21547894
0.46939942 0.048029225 -0.012592898 0.07777768 0.19062546 -0.286675 0.21288182 -0.2719784
