models/v2/LSTM_xy_epoch_100_h-h_8-12_pt1_pf1.2.pth (torch, 340703 bytes, 14 tensors)

lstm.weight_ih_l0 f4 [256, 2]
00000000: 11f2 0b3f d16c 91be df79 a23e 242d 5d3e
00000010: 0610 42bd 00c2 fe3d cb01 f23e 117e 03bf
00000020: 521f 1f3f ef50 a9be 2653 f0be 68af 3abe
00000030: 57f5 623e fbb6 9f3c bc25 91be d603 3f3e
00000040: 3797 fe3e 814d 36bf 2ab0 7f3d 2d82 073d
00000050: 6d94 1f3e 36a9 fabd 53c4 a33e 2af2 693e
00000060: e6f7 553d d964 45bd f8a1 363f d67c 06be
00000070: b242 173f 1b4f 22bf e13c de3e 4f7a 15bf
00000080: 0345 24be ed51 f33d 6761 1a3f afcb 6ebe
00000090: 1772 293f 35b9 8ebe 0172 3abe a1c6 c53d
000000a0: f24e 443f f5fe 62be 4af2 05be 5e0d 7b3e
000000b0: 49fd 143f 5b25 01bf 7f56 6d3e eec8 b53e
000000c0: 7def 033f 9896 9c3e 24d8 fabd caec 4b3e
000000d0: 18c1 133e a668 fa3e b5f6 0e3f 0e1c b9be
000000e0: f48f d03d afe1 193f 7b6f 293f 4334 a1be
000000f0: 2b7a 193f 8d2d f4be f1a6 153f 994c acbe
00000100: 169c 1fbe eceb 053e 53a4 813d c044 48be
00000110: ea64 103f 915d a1be 33ef cbbe f70f acbd
00000120: 1586 003f dbde 24bf 0939 383e ffb4 2bbe
00000130: 779e d43e 3933 0bbf 33ca b73e 878c 25bf
00000140: 4082 65be 1564 473e 9309 223f fda9 98be
00000150: d07c 063f f04e 12bf 58f2 013f 464e 18bf
00000160: aca4 f93e 4766 38bf 3b24 0fbe 16d4 063e
00000170: 7b38 293d 989a 51be 4805 fd3d 3a85 993e
00000180: 216e b63e d617 143f c09c 92be 9c7c 3c3e
00000190: fd4c 343e 1499 06be d792 1e3f 6a7f e5be
000001a0: 16cc ba3e 546c d03e 71b1 bdbe 52dc ca3d
000001b0: feab d03e b4bb 59be 41f8 063f a7da dcbe
000001c0: 806c 1b3f a830 16bf cde7 08be 1779 293e
000001d0: 7817 6ebe 8762 bfbd a712 203f 11bd ffbe
000001e0: 4bf7 1e3f 65ec 6fbe 8e09 59be 279d 92bf
000001f0: 3e80 ef3e 255f e1bd 88de f3bd 0d20 773e
00000200: 1d7d f73e 968c a0be 125a c9be eb32 b73e
00000210: 534d f43e 671f a3be dfd9 b03e 0d97 b8be
00000220: bed3 ba3e 4636 e4bd a349 8f3e 13c5 b9be
00000230: 9abf b0be ae74 963e 9cff 303e bba5 6fbe
00000240: 0903 bd3e 0d1d c5be 6a03 003e b2f6 16be
00000250: 096f 6b3d 2f15 35bf 1978 383e d066 8a3e
00000260: 1331 0a3f 62f3 a4be 6324 96be c565 1dbf
00000270: 83e4 af3e 844b b5be 3408 9a3e 6817 1dbe
00000280: 6446 5ebe 664e 363e c4b2 413e e456 68be
00000290: 6e78 a83e b46b b3be 42c5 52be 0392 183e
000002a0: 9613 c6be 90a8 5fbd 28fc 30be 0738 833e
000002b0: 6561 523e 0c23 8fbe aa26 343e 93e9 81be
000002c0: 463f b4bd ee1a afbd 3635 53be fe60 4d3e
000002d0: 330f 763e 51f5 42be 1f0b d0be e919 75be
000002e0: f27c 3b3d a98a 8f3f 4351 e23e 6ef1 58be
000002f0: 233b 813e 6da8 62be 2c6f 5e3e 1c64 d4be
00000300: b8be f93e def0 dcbe fee0 e73e bc2f a93e
00000310: d9cb b83e a16d 04be f31f c63e 1f22 9abe
00000320: db03 d33e a7d2 b5be a480 0c3f 9d56 91be
00000330: dca9 3dbf 6091 933e e373 81be f3da aebd
00000340: 7c1b a83e 76ce 36be 2925 e63e 1403 19be
00000350: d762 053f 1661 42be d69e da3d f476 d3be
00000360: 82de f63e 8672 23bf 2274 0a3f dd50 c6be
00000370: e6b5 ac3e 0b34 02bf 6add b93e 107c d4be
00000380: bed1 dfbd b41e 613f 1847 e03e 53f1 abbd
00000390: 40e7 fe3e 4d70 c3be 5f75 873e a0dc acbe
000003a0: b9a3 273f d0ec 173e d5bd 023f 68db debe
000003b0: f03b 0dbe 0ffe 773e 19a7 b93e d347 b3be
000003c0: 5c77 18bf ceab 933e 496d f73e 064f c8be
000003d0: 043d f83e 0167 8bbe 71cc eebe c79b 023e
000003e0: 622e b23e f446 7ebe 4c3f 85be 93cb 8abe
000003f0: 0308 0cbd a055 ba3e 819c e0bd fd2c 823f
0.5466624 -0.28403333 0.31733605 0.21599251 -0.047378562 0.12439346 0.47266993 -0.5136424
0.62157166 -0.3306956 -0.46938437 -0.18230975 0.22163902 0.019496432 -0.28349102 0.18653807
0.49724743 -0.7121201 0.062423863 0.03308313 0.15583964 -0.12239306 0.3198572 0.22846285
0.052238367 -0.04819188 0.71340895 -0.13133559 0.59086144 -0.63401955 0.43405822 -0.58389753
-0.16041951 0.118808605 0.60304874 -0.23319887 0.6618971 -0.27875677 -0.18207552 0.09657026
0.7668296 -0.22167571 -0.13080707 0.24516818 0.5819898 -0.50447625 0.23177527 0.3550486
0.51537305 0.30583644 -0.12248257 0.19914547 0.14429128 0.48907965 0.55845195 -0.36154217
0.10183707 0.6010999 0.6618573 -0.31485185 0.5995204 -0.47691002 0.5845786 -0.3365219
-0.15586886 0.13078278 0.063301705 -0.19557476 0.5640398 -0.31516698 -0.39830932 -0.084014826
0.5020459 -0.6440255 0.17990507 -0.16768263 0.4152715 -0.54375035 0.35896453 -0.6466755
-0.22412968 0.19471772 0.6329586 -0.2981719 0.525342 -0.571517 0.5076041 -0.59494436
0.48758447 -0.7203106 -0.13978665 0.13166842 0.04131363 -0.20469129 0.12354523 0.29984456
0.35630897 0.5784887 -0.28635216 0.1840691 0.17607494 -0.13144332 0.6194281 -0.44823772
0.3648383 0.40707648 -0.3704944 0.09905304 0.4075622 -0.2126301 0.52722555 -0.43135568
0.6071243 -0.58667994 -0.13369675 0.16550098 -0.2325114 -0.093449645 0.6252846 -0.49948934
0.6209609 -0.23430021 -0.21195051 -1.1454209 0.4677753 -0.110044755 -0.11907679 0.2413332
0.4833764 -0.3135726 -0.3932653 0.35781035 0.47715244 -0.31859896 0.34541222 -0.36052743
0.3648967 -0.11143164 0.27985868 -0.36283168 -0.3452118 0.29385895 0.17285007 -0.23403065
0.36916378 -0.38498726 0.12501302 -0.14742544 0.05747894 -0.7073545 0.18014564 0.27031565
0.5398113 -0.32216936 -0.29324636 -0.61483413 0.34354028 -0.35409176 0.30084383 -0.1534096
-0.2170654 0.17803344 0.1891585 -0.22689396 0.3290438 -0.35043108 -0.2058306 0.14899449
-0.38686818 -0.054604113 -0.1728369 0.25628683 0.20544966 -0.27956426 0.17592874 -0.25373515
-0.08801131 -0.08550058 -0.20625767 0.20056531 0.24029236 -0.19038893 -0.40633485 -0.23935665
0.045773454 1.1214191 0.44202623 -0.21185848 0.2524043 -0.22134562 0.21722096 -0.41482627
0.4877832 -0.43152517 0.45288843 0.3304423 0.36093023 -0.12932445 0.3869625 -0.30104157
0.4121388 -0.35512277 0.5488379 -0.28386393 -0.7408731 0.2882185 -0.25283727 -0.08537855
0.3283347 -0.17852196 0.44950226 -0.1494258 0.5210394 -0.18982348 0.10674827 -0.41301692
0.48216635 -0.63846624 0.54083455 -0.3873357 0.33732527 -0.5086066 0.36301738 -0.41500902
-0.10928677 0.87937474 0.4380424 -0.08395638 0.49785805 -0.38171616 0.26456735 -0.33762074
0.65484196 0.1483643 0.5107091 -0.4352677 -0.13792396 0.2421801 0.36260298 -0.35015735
-0.5955713 0.28842014 0.48325565 -0.3912279 0.4848405 -0.27227023 -0.4664035 0.12754737
0.34801012 -0.24831754 -0.26024854 -0.2710844 -0.034187328 0.36393452 -0.10967351 1.0169979

lstm.weight_hh_l0 f4 [256, 64]
00000000: f8c1 0d3f 4938 acbe 4432 1c3f 9fa3 8a3e
00000010: b853 eabe f93d a5be bb99 a5bd 0d60 953e
00000020: 11a1 22bf b6d4 e83e a297 83be 5a70 c0be
00000030: 31ea c03e 6b4a 873e b324 c4be 5149 b3be
00000040: b997 f7be 4b8c c83e b484 00bf 2132 d6be
00000050: a5aa f2bd 57da f0be 0584 18bf 30e8 a43e
00000060: 07ba dfbe 783b 2abf 1eb9 0cbf 4af3 5ebe
00000070: 97db 8cbe e77f a7be 158d 07bf f9f2 1cbf
00000080: f303 7f3e af22 a73e 48ef 433e 8d51 a03e
00000090: 2d38 c03e 0d62 87be cd91 a6be 6783 59be
000000a0: 82b9 bfbe 76fe 733e 229f e4be b72e fabe
000000b0: cf74 82bd 9bef f23e d03a c43e 231a d23c
000000c0: 2ef2 583e 0bae 3e3e 8e4a 6dbe 82eb f5be
000000d0: 964f d8be 8ccb 843e a876 11bd f871 72be
000000e0: e066 b5be da0f 64bf da73 7a3d d4f3 6fbe
000000f0: 0407 163f 3eb8 c63e f372 a43e 9dae 22bf
00000100: e406 363e 098f bd3e c7a5 92bf fc35 083e
00000110: b044 c43d 07fc a43f bfa7 3abd 3b1e 26be
00000120: 07e7 95bd 08be 1e3f 6dce 14be c802 72bf
00000130: 17af 1f3f f091 5b3e 21ea 2940 0bf3 423e
00000140: cccf a13e 2e89 863c 33fa 07be a3eb 69be
00000150: 9ada bf3e ccb0 b93d 78a2 cfbd 7ac5 ccbf
00000160: f774 a03c bc04 dbbe 5b9f a93f 17bd 3fbd
00000170: 5bcc 453f 826e 97be 2529 873d 90a8 adbd
00000180: 536e 3a3e 3377 c8bf 7a03 883e 5e2f 203f
00000190: a6b7 483e 70cc bfbc f1b2 80be d570 34bd
000001a0: b223 d1be a82b a53e 7f3e 53bf 12ae a0bc
000001b0: 6512 403e 83cf debe 2399 493e b327 613e
000001c0: 2aae c93d 3ab2 acbf f4a9 f5be 9c78 91be
000001d0: 48eb 943e b85a b03f 8370 4e3e d12a f13d
000001e0: 2668 2dbe 17bd 223f 5b67 063f 7ba1 cdbe
000001f0: 6352 ae3e 10f6 963e dc40 ad3e 0470 843e
00000200: 9516 9bbe a077 f53e f6d9 89bf 0e25 1ac0
00000210: e86e 05bf 090e 3d3f ed06 653f 1844 35c0
00000220: 0621 24bf cff6 18be 007c 39be e445 4a3e
00000230: e64d 543f 6201 15bf b928 c2bd 4548 36bd
00000240: 1747 1f3e 17a2 09bf 69d9 b7be 3c63 eabe
00000250: c743 9a3e ddb6 383e d8c4 4fbf 77dd 3bbd
00000260: d958 893d 6f65 7dbf 32ab c13f db1b 7fbe
00000270: 0b2e 51bf f1e1 78bf 32da 18bf 6772 803e
00000280: 95c3 ad3e 0cc8 d0bc 12fa 1cbe 46d3 c13e
00000290: 2ef1 3cbe 3b1c dabf 4c8d 033e 43fe 78bf
000002a0: 5960 053f 8622 26be 1a80 6ebf fd0f 2fbf
000002b0: 9e2b cb3e 13ed 9bbd d020 083f 3178 3d3f
000002c0: a9d8 973e 6e81 bbbf c083 b8bf 1fe5 6abf
000002d0: 6d6f 723c 2a51 583f 0930 37bf b331 b8bf
000002e0: 1757 933e 5908 73bd 849b 3cbe 97ae 8c3e
000002f0: e15d 0f3f a496 11bf cd55 79be afd3 9cbe
00000300: 46ad 7d3e 4419 fe3b 72d7 4e3f d128 99bd
00000310: 894c 223e 2717 4d3e 9e03 e63e 3d73 f0bd
00000320: ebe3 0dbe 1c8e 9ebd 539a 563f eeb6 b23e
00000330: 23d8 d4be 2b36 d5be 01dc c93c 2968 503e
00000340: d7f9 5abd 6ee5 993c 3d96 c13c 9d93 b8bd
00000350: 7ddd 703e 87b8 2a3c 7eb1 2ebe 865a 13bf
00000360: db3d 363e 9abc bc3d b781 87be 75e7 c73e
00000370: e462 0abe dda4 81bd b9e0 09bd ad5a 29bd
00000380: c14b 353f abc6 f8be 1050 b1be acab 4a3e
00000390: eb45 90bd af25 773f 41b8 9f3d dbf1 96bc
000003a0: 679c 29bf 217f 3a3e 27b9 43be 34bb 823e
000003b0: d451 5bbe a92a 7a3c a9ef 92be 71f0 14be
000003c0: fab1 afbe 23d4 9abe a288 cd3f 871d 8abe
000003d0: 6a5a cb3e 7794 78bf d042 83bd da60 393e
000003e0: 9d89 c5bd 854c e2be 9541 cebc ad83 c53d
000003f0: 3b22 05be dc4e e6bd 7425 c3be 9667 243e
0.553741 -0.33636692 0.610142 0.27077958 -0.45766997 -0.32273844 -0.080859624 0.29174843
-0.6352702 0.45474786 -0.25701624 -0.37585717 0.37678674 0.26423964 -0.3830925 -0.35016873
-0.48357943 0.39169535 -0.5020249 -0.4183512 -0.11848954 -0.4704158 -0.59576446 0.32208395
-0.43696615 -0.6649699 -0.54969966 -0.21772495 -0.27511284 -0.3271477 -0.5294965 -0.61308247
0.2490385 0.3264365 0.19134247 0.31312218 0.3754286 -0.26441994 -0.32533112 -0.21241532
-0.3744622 0.23827538 -0.4465266 -0.48863766 -0.06369936 0.4744843 0.3832612 0.025647229
0.21186134 0.1862108 -0.23172972 -0.4803124 -0.4224822 0.25936544 -0.03551355 -0.23676288
-0.3543005 -0.8908669 0.06114564 -0.23432857 0.58604455 0.3881244 0.3211895 -0.6354769
0.17776066 0.3702319 -1.1456841 0.13301843 0.095834136 1.2889413 -0.04557013 -0.1622247
-0.073194556 0.62008715 -0.1453187 -0.94535494 0.6237654 0.2144239 2.654915 0.19038026
0.3160385 0.016422834 -0.13279037 -0.22843795 0.37471467 0.090669245 -0.1013841 -1.5997765
0.019587023 -0.4277705 1.3251756 -0.04681119 0.77264947 -0.29576498 0.065996446 -0.08479416
0.18206148 -1.5661377 0.26565152 0.62572277 0.19601306 -0.023412913 -0.2513652 -0.044052918
-0.40847546 0.3225987 -0.82517236 -0.019614253 0.18757017 -0.43517694 0.19687323 0.219878
0.09847672 -1.349189 -0.47981226 -0.2841233 0.29085755 1.3777685 0.20160107 0.11775745
-0.1693426 0.6356978 0.5250146 -0.40162262 0.3404723 0.29484606 0.33838546 0.2586671
-0.30290666 0.4794283 -1.0769641 -2.4085116 -0.52122355 0.7384954 0.8946369 -2.832281
-0.6411289 -0.149379 -0.18113708 0.19753224 0.82931364 -0.58205235 -0.094804235 -0.044502515
0.15554462 -0.53762954 -0.35908058 -0.45778835 0.30129835 0.18038507 -0.81159735 -0.045865502
0.067063995 -0.989829 1.513037 -0.2491297 -0.8171088 -0.9721976 -0.5970794 0.25087282
0.3393828 -0.025486015 -0.15329769 0.378565 -0.18451378 -1.7039865 0.12846869 -0.9726297
0.5210014 -0.16224107 -0.9316422 -0.6838377 0.39681715 -0.07613578 0.5317507 0.7401152
0.29657486 -1.4648874 -1.4415207 -0.9175586 0.014797074 0.84498847 -0.7155767 -1.4390167
0.28777382 -0.059334133 -0.184187 0.2747695 0.5600262 -0.56870484 -0.24349137 -0.30630252
0.2477313 0.0077544767 0.80797493 -0.07478488 0.15849508 0.20028363 0.44924635 -0.1174073
-0.13856475 -0.07741949 0.8382923 0.3490519 -0.4157115 -0.4164289 0.024641039 0.20352234
-0.053460922 0.018786158 0.02363121 -0.0901253 0.23521991 0.010419971 -0.17059895 -0.5756
0.17797033 0.092156604 -0.26466152 0.39043775 -0.13514286 -0.06330273 -0.033661578 -0.04134624
0.70818716 -0.48589072 -0.34631395 0.1979205 -0.07044586 0.96541876 0.077988155 -0.018425873
-0.66254276 0.18212558 -0.19113599 0.2553345 -0.21417934 0.01526896 -0.2869847 -0.14544846
-0.34315473 -0.30239972 1.6057322 -0.26975653 0.39717418 -0.9710154 -0.06409228 0.18103352
-0.09645388 -0.44199005 -0.025177756 0.09644256 -0.13001339 -0.1124551 -0.38114512 0.1605514

lstm.bias_ih_l0 f4 [256]
00000000: afe5 0b3f 8d4d 123f dd35 743f ccde 39bd
00000010: fec6 163e c6cc 8d3b 9f30 ecbe 46c5 09c0
00000020: 9ba4 183f 8d67 c3bf d428 0fbf 92f7 d5be
00000030: f058 7dbd dd05 e23d 8570 8d3c 0ee6 87be
00000040: 1dfb 4d3f a2d0 b03e 72bb af3e b253 2d3f
00000050: f764 093f 18bf 293f 131a 293e 6afb 583e
00000060: dfb2 babe 5adf b43f e0e1 46bf fb32 043f
00000070: f100 d83e 0733 ef3d 6c0f 313e c026 eb3e
00000080: 224e 873e d4db 83bf 2eaf 1a3e d94f 28bf
00000090: cbf0 d6be 1b99 32bf 1b5b 5b3f ea66 7d3e
000000a0: 85c7 08c0 c90e cf3e 65e5 273f f53c dc3b
000000b0: e7f4 ca3e d428 f13e a16f c5bf 6421 b7bf
000000c0: 98e4 3ebf 5f7b b0bf bbb3 14bf e784 413e
000000d0: 16f5 883f 9944 0d3f 1c8b 763e 8f3b aa3e
000000e0: 5725 cfbe ee59 e53e ff41 9e3e cdfe 0e3e
000000f0: 3a08 fe3e a616 283f c92d 56be 81ac 6e3f
00000100: 44b6 e23d 2d29 58be baab 623e 03ed 06bf
00000110: 00d8 813e b98c 913e 1eb6 bfbe fff5 e03d
00000120: b8f9 a43d 83f5 0cbf b0ca d1be 2d43 eabe
00000130: 2835 b23e 6afd 85be 1fad 603e 3810 733e
00000140: db72 123f 2672 0f3f 1d53 963e 2c8e 433f
00000150: 2410 aa3e b0a9 113f 6cf9 e93e f460 923e
00000160: 563a 1fbf 739b 5e3f 9f6c c63c b89b fc3e
00000170: 6f8a 453d e69e 8f3d 1672 363e 6bdc 3a3e
00000180: 22c6 e73d e4f7 05bf 3611 3d3e a0b3 2e3e
00000190: 97e8 273e 764e 693e ca6c 2fbd 47eb e93e
000001a0: 4e6a a8bd 7920 813d 6526 fe3d c5d8 1abf
000001b0: 04b7 0b3d dc40 0b3e 8e56 45be f269 033e
000001c0: 1dd0 acbe 07fd 133e 161b d13e 433e 253e
000001d0: df5a e0bc 270a 14bd 9547 57be b46e 133e
000001e0: 94cf 1d3c 562e a73e 4e1d 5a3e 21af 583e
000001f0: 9a56 913e d775 143f 09c3 69bf d63c 5d3e
00000200: 947c 3a3d 2490 f03e 2273 db3d d427 16be
00000210: 0e12 15be 9d7a 27be a3bf ffbd 7766 e33d
00000220: 7641 bbbe 53a7 643e d98d 58bd 5350 313f
00000230: ff5e b9bf dfb4 6e3d b2ef a2bd 3dcc fe3c
00000240: fe5d 1fbd 9f97 653e 41e6 9cbd 933e 82be
00000250: d1cf 59bf 6809 e0bc 2fc0 46bd 2652 16bd
00000260: f18b 5dbc 1b3d 773c 121e 8abe 69f5 1abe
00000270: 218d d5bd 40d3 a4bc 2c8c edbd 10fb 0dbe
00000280: f4dd e03d 094d b13c 26d3 2f3e dce7 163e
00000290: ce12 edbe f00d 1a40 37b0 38be 4643 ffbd
000002a0: 0f14 f63b b669 3d3e 95c3 4fbe d05f 04bd
000002b0: 9522 a43e 6d68 40bc 2408 ec3c 310a 9fbe
000002c0: 7b49 f5bd f162 f73d 165a 1f40 a726 9ebc
000002d0: 5cb7 c5bd 61f0 b53e 177d 1f3e e973 91bd
000002e0: 190d a43e b812 8f3a fe34 5e3d 7f2d d13d
000002f0: 414f 313e 8d90 dc3d d5d9 aabd 79f4 c7be
00000300: fc3f da3e 8f83 623e 8113 5f3e d490 afbf
00000310: c410 05bf 6963 213e 3bb6 76bf ca00 80bf
00000320: 4575 6c3f 0439 023f 9c2d 2a3e 2bcf 77bf
00000330: 0722 0a3f 1967 92bf 8603 473e b812 b0bf
00000340: b251 a13d 9ea2 443f c43f 8b3f fc19 d43e
00000350: 8d00 65bf 2b4b 113f 4a05 af3f 7f30 7a3d
00000360: eff3 d8be f39c 473e e077 4e3e 44c6 163f
00000370: fe4a be3e 7158 923f f848 913f 0b5c 093f
00000380: d4aa 113d d996 dfbe 2997 f5bd ca49 eb3e
00000390: 74bf 1abf 5155 993c 2096 59be 1374 fc3e
000003a0: 8d51 26bf db10 603e c0b9 9c3f e4d1 5abf
000003b0: 8acd 473f c780 e53d 1bb1 b63b 40a0 5cbf
000003c0: 3d21 f13b 1a1c aebf eb30 963e f3df 8e3f
000003d0: 1e8e b83e e7a0 9a3d 021d ac3e 1cc5 92bc
000003e0: 29f4 41be 86d5 613e 81cc ab3b bfef ea3e
000003f0: 28ab 833f 4c1a fdbd c336 9cbf a7c0 c83e
0.54647344 0.57149583 0.9539469 -0.04537849 0.14724347 0.0043273894 -0.46130845 -2.1526656
0.5962617 -1.5265976 -0.55921674 -0.41790444 -0.061852396 0.110362746 0.017265568 -0.26542705
0.80461293 0.34534174 0.34322697 0.67705834 0.53669685 0.6630721 0.16513853 0.21189657
-0.36464593 1.4130661 -0.7768841 0.5164029 0.42188218 0.116796546 0.17291039 0.45928
0.26426798 -1.0301461 0.15105888 -0.6574684 -0.41980585 -0.6976487 0.8568589 0.2474629
-2.1371777 0.40440968 0.65584403 0.006721134 0.3963997 0.47101462 -1.5424691 -1.4307065
-0.74567556 -1.378765 -0.58086747 0.18898354 1.0699794 0.55182797 0.24076504 0.33248565
-0.40458176 0.44795173 0.30909726 0.13964386 0.4961565 0.6565956 -0.20915903 0.9323197
0.11069921 -0.21109457 0.22135821 -0.527054 0.25360107 0.28427675 -0.37443632 0.1098442
0.080554426 -0.5506212 -0.4097495 -0.45754376 0.3480618 -0.26169902 0.2194104 0.23736656
0.57206506 0.5603355 0.29360285 0.7638881 0.3321544 0.5689955 0.45698106 0.28589594
-0.6219839 0.86955947 0.024221716 0.49337554 0.048227724 0.07012729 0.17816958 0.18248145
0.11317088 -0.52331376 0.18463597 0.17060709 0.1639732 0.22783837 -0.04282836 0.45687315
-0.08223401 0.06305022 0.12409667 -0.60487014 0.034110084 0.1359896 -0.19271299 0.12833384
-0.33752528 0.14451991 0.40840977 0.16137032 -0.02738708 -0.036142495 -0.210234 0.14397699
0.00963201 0.3265254 0.21300241 0.21160556 0.28386384 0.5799231 -0.91313225 0.21605238
0.045528963 0.4698497 0.10715319 -0.1466363 -0.14557669 -0.16355367 -0.12487724 0.11103528
-0.3657338 0.22329454 -0.05286965 0.6926319 -1.4482116 0.05827796 -0.079558745 0.031103248
-0.038907997 0.2242112 -0.07661105 -0.25438365 -0.8508273 -0.027348235 -0.048523124 -0.036699437
-0.013522134 0.015090252 -0.26976067 -0.15132679 -0.10427309 -0.020120263 -0.11599001 -0.13865304
0.10979834 0.021643179 0.1717039 0.14736885 -0.4630341 2.4071007 -0.1803597 -0.12464003
0.0075097154 0.18497357 -0.20289452 -0.032317936 0.32057634 -0.011743647 0.028812476 -0.31062463
-0.11976906 0.120794185 2.4898734 -0.01930554 -0.09654114 0.35534957 0.15575062 -0.07102186
0.32041243 0.0010915613 0.054249756 0.10213756 0.17315389 0.107697584 -0.083423294 -0.39053705
0.4262694 0.22120498 0.21784784 -1.3716073 -0.5197871 0.15760578 -0.9637181 -1.0000241
0.9236644 0.5086825 0.16618961 -0.9680049 0.5395817 -1.1437713 0.19434938 -1.3755713
0.0787691 0.76810634 1.0878835 0.41426075 -0.89453965 0.5675532 1.3673489 0.061081406
-0.42373607 0.19493465 0.20162916 0.5889628 0.3716659 1.143324 1.1350393 0.5365607
0.035563305 -0.43669775 -0.11991722 0.45954734 -0.60448384 0.01871744 -0.21248674 0.49307308
-0.64968187 0.2188143 1.2244186 -0.8547652 0.78048 0.11206203 0.005575312 -0.8618202
0.0073586986 -1.3602326 0.29334196 1.1162094 0.36045927 0.07550221 0.3361588 -0.017916255
-0.18940796 0.22054109 0.0052428846 0.45886037 1.0286608 -0.12358531 -1.2204212 0.39209482

lstm.bias_hh_l0 f4 [256]
00000000: 0d0c 083f bb62 ce3e 8eab 593f 8e90 b53d
00000010: d4c1 3e3c 40bc dcbd d77e 28bf ed47 06c0
00000020: cc1c dd3e 86eb b4bf d450 1bbf 7d74 abbe
00000030: 8e60 523d 9d36 023e f08b 4a3e 5d54 9fbe
00000040: 4871 343f 9869 aa3e 71d6 f33e fa60 2d3f
00000050: 0f70 d33e ce20 3a3f 571e 4e3e 6b5b a13e
00000060: 4bce 0ebf 2bcb c63f ae0b 5fbf a2b4 e63e
00000070: 86b9 de3e 2de6 8c3d 7370 473e 6e4d d93e
00000080: c931 7d3e 77f2 81bf 50df 2e3d 4c02 5bbf
00000090: d5e7 7abe b298 34bf b3ed 683f cb87 643e
000000a0: 68b2 09c0 12ac 913e 09e9 233f 395e ad3d
000000b0: 90f9 fd3e 6b4c ee3e 0dae d6bf d712 bbbf
000000c0: 303e 41bf 00d1 b1bf 6a4d 0bbf 207d 0f3e
000000d0: 1677 6f3f 36d1 013f 4e75 cf3e 67c1 093f
000000e0: 5e20 a0be c28e d53e d834 973e 77e0 223e
000000f0: ce62 a13e ef9d 2e3f f561 0cbe 45aa 513f
00000100: d445 373e 5fc4 02be 54d1 c83e 92f5 e4be
00000110: e1e1 783e 856f 9e3e 4749 4fbe ab51 953e
00000120: a0bb 5e3e f5f0 1bbf e4c3 ecbe 332c 1fbf
00000130: 5ec5 943e 6d5f 94be 1c69 5c3e 847e 543e
00000140: 14af b93e 7e58 003f 6058 a93e c659 393f
00000150: df24 133e 99be 043f 3c81 de3e 4e23 973d
00000160: 7e86 07bf 9767 443f f3a6 1c3e d21e 0e3f
00000170: 5c6a d2bd daca ba3d a3f2 8e3e 40ce 763e
00000180: 5ff6 c33d ec13 c7be 1fdd 103e 1887 9f3e
00000190: 3367 0c3d 53ab 5d3e 91b6 84bc d469 c83e
000001a0: d864 c7bd 4503 7c3d 9987 803d 5aa4 31bf
000001b0: ff5e 4e3e 95eb 763e 0fde 98be 44c0 793e
000001c0: 1d7e 05bf d9ef a33d 448c 423e eabf 833e
000001d0: edd7 52be b459 adbc 7f4e 01be 4170 183e
000001e0: 4c0e 5cbe 3d54 393e 185d 093e 5c2c 973e
000001f0: bd8e 213e 8890 f63e f01a 55bf 1ffa ad3e
00000200: d60e ca3d da8a c53e a4b9 b73d e574 36be
00000210: ac08 fbbd e1b0 30be a3e5 fdbc 08df 8b3e
00000220: 91fd 4abe 69af d93d 1455 10be 9801 1c3f
00000230: e835 cfbf ac93 753b 8544 43bd 541b 173e
00000240: d82e cd3c 337d 143e ed3d 5dbd d788 b0be
00000250: 43a9 6abf 50a5 66bd 29f4 b93b 9cf6 95bc
00000260: 338b 343d 2658 26be 1550 36be c3dd 49bd
00000270: 2bd4 f3bd 9065 9e3d 25fa adbd a3de 49bc
00000280: 2845 c83c a7a0 ac3d 47b5 b83d a7e4 c8bc
00000290: 80c4 babe 4e77 2140 bf5d 27be 39ef b83b
000002a0: 3f6d 7c3d dd62 153c 06fe 81be f357 573d
000002b0: cb13 f63e 8734 7fbc cbd5 a03d 662a 98be
000002c0: cd7b e0bd b1d7 1abd 8877 2b40 7687 b4bd
000002d0: bdcd 513d 4e99 023f 5453 153e 79b0 2cbe
000002e0: 5d56 ef3e d7c3 dabd 1fce b43d e012 5fbd
000002f0: 88b4 123e 7cb3 603e 384d 10be af28 89be
00000300: c3ab c53e f472 863e 2007 ad3d 9184 a4bf
00000310: 7b4c f5be a86b c23d 5b2d 5ebf 7d5d 68bf
00000320: 5cd9 613f 397c e73e 0255 1c3e 6020 96bf
00000330: 51c8 033f 49d7 93bf 10db 823e 0ec8 bdbf
00000340: 2f3e 7b3e 44b1 3c3f 7a46 863f 1376 4a3e
00000350: 6934 34bf 30ea 0f3f 85a4 b73f 8aa1 d73d
00000360: 0434 a9be 6347 ce3e ce69 9f3e 2ea4 f53e
00000370: 159e 7b3e 4b9d 673f 32e8 813f 6d0b 123f
00000380: 35cf 6a3e 665a 27bf f2a9 943d 4124 a83e
00000390: aca3 d1be 7d0a 22be 4ee9 66be 5801 223f
000003a0: 4539 2abf b4dd 273e 3674 a63f d401 4ebf
000003b0: 3302 513f 856d 103e a538 e6bd 0429 3abf
000003c0: 1f91 47be adc3 a8bf ee0d 653e 949d a83f
000003d0: 070a 0f3f 6771 783e ea8b df3e 2065 0ebe
000003e0: 47ec 8bbe 036a 2c3e 72e5 96bc d68a 143f
000003f0: f1aa 773f b49b cfbc fbcb acbf 6379 9e3e
0.5314339 0.403097 0.85027397 0.08865462 0.011642892 -0.10778093 -0.6581854 -2.09814
0.43186033 -1.4134376 -0.6067021 -0.3348731 0.051361613 0.12716146 0.19779944 -0.31119052
0.70485353 0.33283687 0.47624543 0.677261 0.4129643 0.72706306 0.20128761 0.3151506
-0.5578353 1.5530752 -0.87127197 0.45059687 0.43500918 0.0687984 0.1947649 0.42441887
0.24726023 -1.0152119 0.042693436 -0.8555038 -0.245025 -0.70545495 0.909877 0.22317426
-2.151514 0.28451592 0.6402746 0.08465237 0.49604464 0.46542677 -1.6771866 -1.4615124
-0.75485516 -1.3891907 -0.54415 0.14012575 0.93541086 0.50709856 0.40519184 0.53810734
-0.31274694 0.41710478 0.29532504 0.15905939 0.31520694 0.6820974 -0.13709243 0.81900436
0.17897731 -0.12770222 0.39222205 -0.44718605 0.24304916 0.30944458 -0.20242797 0.2916387
0.21751261 -0.60914546 -0.46243203 -0.6217682 0.2905683 -0.28979054 0.21524471 0.20751387
0.36266387 0.5013503 0.33075237 0.7240261 0.14369534 0.5185333 0.43457973 0.07379781
-0.52939594 0.76720566 0.15298061 0.5551578 -0.10274193 0.09120722 0.27919492 0.24102116
0.09568476 -0.38882387 0.14146851 0.31157756 0.034278106 0.21647386 -0.016200336 0.3914324
-0.09736031 0.061526556 0.06275863 -0.69391406 0.20153426 0.24113305 -0.29856917 0.2438975
-0.5214556 0.08004732 0.1899882 0.25732356 -0.20590182 -0.021160938 -0.126276 0.14886571
-0.21489829 0.1809854 0.13414419 0.2952603 0.15777107 0.48157144 -0.8324423 0.3397989
0.09866111 0.38582498 0.08970955 -0.17818029 -0.122575134 -0.17254974 -0.030993288 0.27318597
-0.1982329 0.1062916 -0.14094955 0.6093993 -1.6188326 0.0037472052 -0.047672767 0.14756519
0.02504675 0.14500885 -0.054014135 -0.344794 -0.9166452 -0.056309998 0.005674858 -0.01830607
0.044078063 -0.16244563 -0.17803986 -0.049283754 -0.11905702 0.07734215 -0.08494977 -0.012321147
0.024447039 0.084290795 0.09018951 -0.024523092 -0.36478043 2.5229068 -0.16344355 0.005643752
0.061627623 0.009117809 -0.25389117 0.05257411 0.48061976 -0.015576488 0.07853278 -0.29719847
-0.10961113 -0.037803356 2.6791706 -0.088148996 0.051221598 0.51015174 0.14582568 -0.16864194
0.46745577 -0.10681885 0.08828377 -0.05446136 0.1432668 0.21943468 -0.14091957 -0.26788852
0.38607606 0.26259577 0.084486246 -1.2852956 -0.47909912 0.0949319 -0.86787957 -0.9076765
0.8822229 0.45211962 0.15266803 -1.172863 0.51477534 -1.1550075 0.25557756 -1.4826677
0.2453544 0.73707986 1.0490258 0.19771604 -0.7039247 0.56216717 1.4347082 0.10528858
-0.33047497 0.4028884 0.3113541 0.47976822 0.24572022 0.90474385 1.0148985 0.57048684
0.22930606 -0.6537231 0.07258977 0.3284016 -0.40945184 -0.15824313 -0.22549936 0.632833
-0.66493636 0.16393167 1.3004215 -0.8047154 0.8164398 0.14104278 -0.11241273 -0.72718835
-0.19488953 -1.3184716 0.22368595 1.3173089 0.55874676 0.2426201 0.43661433 -0.13905764
-0.27328703 0.16837315 -0.018419955 0.58024347 0.9674521 -0.0253428 -1.349975 0.30951986

lstm.weight_ih_l1 f4 [256, 64]
00000000: b4bf b7bd f30a 8e3e b3e0 84bd 0425 1fbf
00000010: 1c81 883e 9d20 a83d 1a48 083e 1db3 6c3d
00000020: bdfe eabe 7829 23be fa06 003e 216b 303b
00000030: 141d 5fbd 816e eabe 860e 0dbe 33e3 d83e
00000040: e4fc 7fbe 6915 333f 154e d7be c03f 44be
00000050: 68b0 9f3e cd13 00bf 74bb 26be 47a5 843c
00000060: b241 233e 5211 5cbe 8009 323e 9f9d 393d
00000070: 170a 6cbc 1c82 65be d700 c2be 5333 18bf
00000080: 3dc4 8dbf 8ee8 46bd 96bf b4bd 098f 233f
00000090: c044 e4bd 2c5e a63d e5d5 3f3e f0ca c6bd
000000a0: 9295 a9bd 1d45 833c d8fd a5bd e6c7 a83d
000000b0: eb35 e1bd 5e36 523d 1842 25be 5310 41be
000000c0: cc9a 02be ae12 21be ba2a 393f 1b3e 90be
000000d0: 2a70 333d 1253 cd3d c842 293e f77f 00be
000000e0: b8b5 6c3e eef9 e93e 2dde b73d 20a9 2c3e
000000f0: cbdc c13e b8de 65be 47af d7be 989c e2be
00000100: e8d3 933e e5c8 b2be 8544 033f 59bb e33d
00000110: 632b b9be 39e0 8a3f 283d d43b 94da 623e
00000120: 7036 45be c02c 4ebd 4785 69be d251 cf3d
00000130: 510a d2be 447e e5bd 6d6b 36bf 6a34 03be
00000140: eb03 4ebe 9fa3 653e ff99 53be 46cb 7bbe
00000150: 8a5c 8dbe fc03 78be 80d5 69be 237c 27be
00000160: ff91 b3be 8212 8abe cd81 0d3f 7968 b0bd
00000170: ccb6 11bf e141 b33d 45e2 77be 54b6 96be
00000180: 825d de3e e4f6 293d 9db6 463e 0efe 4b3e
00000190: 7a91 7c3e 6ef9 b63e 1355 9ebe 77ee eebe
000001a0: 3c11 1ebe 3da7 8a3e 06ab 42be 7c4a 65be
000001b0: dd56 d23d 1cf6 083f 28eb 313c 99d4 31be
000001c0: 9187 523e 2e6f eabe 67d1 413e d5ba 003d
000001d0: e562 873e 9af6 c73e 2bfd 083f 3184 33be
000001e0: 87e6 ddbd cbde a1bf 00b3 6e3e 1380 3cbe
000001f0: 4b05 023e a5ef 2b3e 08de ddbe 2b0a 353d
00000200: 2841 babd 47fb b43d d16f 32be fe30 97be
00000210: ab17 b33b 7d12 b63d 2fa2 213e 88a6 abbe
00000220: 0aa7 99bd d081 853d de5e ba3c 8fd4 34bc
00000230: a64a e23c f164 523d 140b d3bc 923f 7a3e
00000240: e2ed 2dbd b60b 123d f9c8 b6bd cc81 18be
00000250: 6fa6 163e ea7e 1fbe 85f8 46bd e1bc b4bd
00000260: 7db0 123e 8dd4 3fbd 5e38 283e df0f bfbe
00000270: fcc3 953d a7a1 78be 3f18 e4bd 3070 40be
00000280: e8ad 63bc e876 9bbd 7188 ac37 b183 9abe
00000290: 0f64 7bbd 7637 ddbd 9e07 343e a943 55be
000002a0: 5fc3 a63d 3030 103d 7c45 bbbd bdef 44bd
000002b0: c442 923d 50e4 4d3e a670 35bc 32ba 503c
000002c0: c3e1 5a3d a5b6 963c cf75 16be b5ae 23be
000002d0: 5c08 b6bc 4939 a73e 50f3 8e3e ad3b 9abe
000002e0: c1f6 3a3e 1b29 0bbf 8c35 cf3e dcc7 f63d
000002f0: a1a8 0c3e 4559 60be e355 0e3c c67e 9dbd
00000300: 3235 91be 032e acbd 51d6 8f3e 9c04 2a3f
00000310: fc8f d5bb 1ca9 a43e 7b01 f4bd bf41 923f
00000320: adb7 a43e dbe0 e83e a0a7 983b ab95 e6bd
00000330: 27c0 5f3e da71 e3bc cc24 a33d 7e6e ecbe
00000340: 2174 78be 94d5 f63d 2f4e 043f 2f46 30bd
00000350: 8c90 933e 49c7 26be 90b3 e73f cd50 18bf
00000360: 9271 0e3e 5cbe 843f 5fea db3e a2da 873f
00000370: be05 a13d 4e3e c73f e813 663f fe86 30be
00000380: a417 a7bd 1ab8 8bbe 686c 203e 3813 e1bd
00000390: 1cfe 68be de02 4a3e d6b8 a23e 6d4b 3e3e
000003a0: ce07 a6be 9c70 fabd b0e0 243f cf35 afbe
000003b0: bbd9 003d d492 7ebd 712e a6be 583f a4be
000003c0: 828f 743f 9ef6 0a3f bdf6 c63e 354f c03f
000003d0: 5d9b 123d d724 8ebe 72e5 bdbd c924 d23e
000003e0: 3b8c 543e e9a0 e23d 2a06 263e 31b4 5f3e
000003f0: 4f2f d4be 5983 563b 2003 cf3d 1a69 bd3d
-0.08972111 0.2774273 -0.064881705 -0.62165856 0.26661003 0.082093455 0.13308755 0.057788003
-0.45897475 -0.15933788 0.12502661 0.0026919323 -0.05447109 -0.45787433 -0.13775072 0.4236084
-0.24998814 0.69954544 -0.4205176 -0.19164944 0.31189275 -0.50030214 -0.16282445 0.016192092
0.1594303 -0.21490982 0.17386436 0.045316335 -0.0144067025 -0.22412914 -0.37891266 -0.59453315
-1.1075512 -0.048561625 -0.088256046 0.6389013 -0.111459255 0.081234306 0.18733938 -0.09706676
-0.082804814 0.016024167 -0.081050575 0.082412526 -0.10996612 0.05132138 -0.16138494 -0.18853883
-0.12754363 -0.15729782 0.7233082 -0.28172383 0.04380814 0.1002561 0.16529381 -0.12548815
0.23116195 0.45698494 0.089779235 0.16861391 0.37863764 -0.22448242 -0.42125914 -0.44260097
0.2887261 -0.34918895 0.5127643 0.11119718 -0.36165914 1.0849677 0.006477017 0.22153693
-0.19259048 -0.050335646 -0.22804748 0.10123028 -0.41023496 -0.11205724 -0.7125767 -0.12812963
-0.20118682 0.22425698 -0.20664214 -0.24589261 -0.27609664 -0.2422027 -0.2283535 -0.16355948
-0.35072324 -0.26967245 0.55276185 -0.086136766 -0.5691955 0.087528 -0.24207409 -0.2943598
0.43430716 0.04149522 0.19405599 0.19921133 0.2466487 0.35737175 -0.3092428 -0.4666631
-0.15436262 0.27080718 -0.19010553 -0.22391695 0.10270474 0.53500533 0.010859288 -0.17366256
0.20559527 -0.45787948 0.18927537 0.031428177 0.26442638 0.3905533 0.53511304 -0.17530896
-0.10834985 -1.2646116 0.2331047 -0.18408231 0.12697332 0.16790636 -0.4333346 0.04419915
-0.09094459 0.0883699 -0.17425467 -0.29529566 0.005465468 0.08890245 0.15784524 -0.3352549
-0.07502563 0.065189004 0.022750314 -0.011037006 0.027623486 0.051365796 -0.025762118 0.24438313
-0.04246319 0.0356557 -0.08925051 -0.14893264 0.14711927 -0.15575758 -0.04857685 -0.08825088
0.14325137 -0.046833564 0.16427752 -0.37316796 0.07312772 -0.24280415 -0.11137437 -0.18792796
-0.013896443 -0.07591039 2.0567533e-05 -0.30178598 -0.06137472 -0.10801594 0.1758103 -0.20826592
0.08142733 0.035202205 -0.091441125 -0.048080195 0.07141641 0.20106626 -0.011074221 0.012739705
0.05343796 0.018397639 -0.14693378 -0.15984614 -0.022220783 0.32660893 0.27920008 -0.30123654
0.18258192 -0.54359597 0.4047054 0.12049839 0.13736202 -0.21909054 0.008687469 -0.07690196
-0.28360897 -0.084072135 0.28093198 0.66413283 -0.0065174084 0.3216027 -0.11914345 1.1426314
0.32171384 0.4548405 0.0046586543 -0.11259016 0.21850644 -0.02776425 0.07966003 -0.4617805
-0.2426305 0.120524555 0.516818 -0.043035682 0.28821218 -0.16286959 1.8101673 -0.5949829
0.13910511 1.0370593 0.42952248 1.0613596 0.07862423 1.5565889 0.89874125 -0.17238995
-0.08158806 -0.27288896 0.15666354 -0.10989994 -0.22753185 0.19727656 0.31781644 0.1858346
-0.3242783 -0.1222851 0.64405346 -0.3422074 0.031457644 -0.062151745 -0.32457307 -0.32079577
0.95531476 0.5428256 0.3886012 1.5024172 0.035792697 -0.27762482 -0.09272279 0.4104369
0.20756619 0.110658474 0.16213289 0.21846081 -0.41442344 0.0032732098 0.10108018 0.09248562

lstm.weight_hh_l1 f4 [256, 64]
00000000: 7062 d0bd 9275 163f 78a8 9abd 22c5 97be
00000010: 6ff2 ae3f 482a 503f bd6d 833f de1c 8fbd
00000020: 7330 27be 9a9b 3c3f b7f7 2c3e 8862 48be
00000030: 1d10 6f3e bd32 583f 7f72 d5bd ae0e 6cbe
00000040: 6b7b e53e d07c ff3e a92f 9f3e acde 85be
00000050: 111e 8fbe ee9c 9340 4a65 8c3f be93 833f
00000060: af77 513d 9ae5 4bc0 e2a1 2d40 66e0 4f3e
00000070: 7f73 473f 450b 3abf 246a d53f 0f5a db3e
00000080: 9540 7dbc 776b 293e a205 d1be e078 24bf
00000090: 7f7e 63bd 6288 a5be a748 a1bf 21a8 733f
000000a0: 4afc 05bf e984 29bf b81b 90bf 9c23 193e
000000b0: 7940 87bf 750d 243e 597f 66bf 0fc1 a83e
000000c0: 0dcc 2c3f bdef 4a3e 14f0 4fbe 64cc d7bd
000000d0: 6981 2fc0 9bf8 033e 2aca cd3e 4ccc d2be
000000e0: 659c 41bf 99b5 3ac0 e06f 4dbe 1b8b c5be
000000f0: 5742 57bf 77ac 5e3f abfc 6e3f 85dd 52bf
00000100: 6fb6 bb3f d9d2 a2bf cc0e 883e 2086 67be
00000110: 3306 5a3f a8d4 aebf 5773 433f 9f21 ef3d
00000120: 5c5b 993e 1e22 1b3d 9e69 0d3d e49b c8be
00000130: 7f33 02bf b5eb 253e 6382 edbe 8dfe c6bd
00000140: 2538 b6bd 29ea 4a3e 159a ef3e 1237 c33f
00000150: 9098 6b3e fd9f 5c3e fc4b adbf 53ec 0a3e
00000160: 0988 9a3e 5ccf 06bd 50ec 4abf f5dd 07be
00000170: c951 233e 388d fc3e 7fb2 d4bf 9052 293e
00000180: 7e34 e8bc c71a b53e c9f5 a1be 7e01 2abd
00000190: 33ba 543e 890e e03f 4026 413e 2ecb db3e
000001a0: ac75 8abe a659 953e 5295 863d 16ee 0dbf
000001b0: 0bea ecbe 5962 013f 79d1 c83d b803 78bf
000001c0: 71bc 6ebf 9e30 92be 4249 593f db0b 733d
000001d0: d7a0 043d dabc 0a3f affe 94be 4428 1a3f
000001e0: 2f53 763f 7e4b 18be 030b a8be d311 1abf
000001f0: 62ca 193d 4787 f03e c4c7 76c0 377c d13d
00000200: 0b34 01bf 0f6e 4abf 246c 803d 5f51 c23c
00000210: 91a5 6a3e ddf4 493e 7388 613e f0b0 393e
00000220: 5598 1ebf 271d 55be 235f 07bf ffd1 7cbe
00000230: 9c29 1e3d 5c21 cabe a968 ba3f 2cd4 11be
00000240: d9e1 3cbf ae5f 113f ebc0 dcbd 9104 1ebe
00000250: 991d 19b9 50fa 863e 0d76 81be c6f6 b93e
00000260: 0bd6 aebe ac91 823f 1d96 0d3f d0a1 f83e
00000270: 5a99 02be 2372 4b3e cc80 56c0 6acc 853d
00000280: 652b c83d a129 053d d52f a7be c9c4 0abf
00000290: 51ff 2a3e 0629 e73f 1594 263f a697 e13e
000002a0: 5c05 4f3e a48e 87be 643f 753d 33e8 7e3d
000002b0: bef9 e33e 85bd 93be 492e 783e aff1 23be
000002c0: 24de d13d 5764 e13d 17e6 d73f be92 5a3e
000002d0: 2abb 8dbd 5ff5 0ebe 2031 203f 6c3c a4be
000002e0: 23e6 1cbd ebdf 2e3e 6f99 293e 8fcf e83e
000002f0: 77cf 5dbf 6703 9a3e 2171 b23e 162b 41bd
00000300: a406 353e 87f1 8d3e 5835 9a3e 5907 0540
00000310: 06b5 4ebd 5fca d03d 6b0f c83e 817f d6be
00000320: ed51 543f fd6e 4f3e 376b 87be 3d1b 893c
00000330: 68e5 843d 0108 8e3d 0545 04be 76ef 263e
00000340: 1e4e 16bf fb95 4abe a9b4 5fbe 5d7b a7be
00000350: 9c86 193f 8d63 44be 58f1 f83d 1775 dabe
00000360: 3e5a 623f 81e3 f1bd 77be ff3d cd41 d6bd
00000370: 7c9f 783d aaa7 693e 05fe 88bf e74a 58bf
00000380: 7af7 fabe d2a8 cabd 9318 c3be 07d7 64be
00000390: e780 b23e 83dc 683f efc6 893e 612c a13f
000003a0: 2450 ab3c ee44 bebe 9ef0 9cbd 30a1 8abe
000003b0: a364 b0bd 9b78 90be 80d7 203f 5ded 163e
000003c0: da27 d83e ffdd 4e3c bea3 21be b8f8 8abd
000003d0: 9b64 373f 1043 87be 8c86 a83e 112b ecbe
000003e0: 7be5 87be d9bc f93d 5631 413d af5e b9be
000003f0: 1c37 36be 8412 bdbe f1c8 cbbe 8e07 e7bd
-0.101750255 0.5877315 -0.07551664 -0.29642588 1.3667735 0.81314516 1.0267864 -0.06987928
-0.16327076 0.7367493 0.1689137 -0.19568837 0.2334599 0.8445242 -0.10422229 -0.23052475
0.44820723 0.49899912 0.3109105 -0.26146448 -0.27952626 4.6129065 1.0968411 1.0279462
0.05113953 -3.1858888 2.7130055 0.20300445 0.7791061 -0.72673446 1.6673017 0.42842147
-0.015457292 0.16544901 -0.4082461 -0.6424694 -0.055540558 -0.32330614 -1.2600297 0.9517842
-0.5233809 -0.6621843 -1.1258459 0.1495499 -1.056655 0.16020758 -0.9003807 0.32959792
0.67498857 0.19818015 -0.20306426 -0.10537031 -2.7422736 0.12887804 0.401933 -0.4117149
-0.75629264 -2.9173338 -0.20062208 -0.38582692 -0.840856 0.8698191 0.9335429 -0.8236926
1.4665049 -1.2720596 0.2657379 -0.22609758 0.8516571 -1.3658648 0.7634787 0.116763346
0.29952514 0.037874334 0.034524553 -0.39181435 -0.50859827 0.16203196 -0.4638854 -0.097165205
-0.088974275 0.19815888 0.46797243 1.5251181 0.23007417 0.21545406 -1.3538814 0.13566713
0.30181912 -0.032912597 -0.79266834 -0.13268264 0.15949167 0.4932649 -1.6616973 0.16535401
-0.028345343 0.35371992 -0.31632832 -0.04150533 0.20774154 1.7504436 0.18862247 0.4292845
-0.27042902 0.2916996 0.06571449 -0.55441415 -0.4627231 0.5054069 0.09805579 -0.96880674
-0.9325629 -0.28552717 0.8487741 0.059337478 0.03237995 0.54194415 -0.29100558 0.6021769
0.9622068 -0.14872548 -0.328209 -0.6018345 0.037546523 0.46978208 -3.8559427 0.1022877
-0.50470036 -0.79074186 0.06270626 0.023720441 0.22914721 0.19722314 0.22024707 0.18133903
-0.6195119 -0.20811902 -0.5287954 -0.24689482 0.0386139 -0.39478576 1.456319 -0.14241093
-0.73782116 0.5678662 -0.10778984 -0.1543143 -0.00014602243 0.26362848 -0.25285378 0.36321086
-0.34147677 1.0200706 0.5530718 0.48560953 -0.12753811 0.19867758 -3.3516111 0.065331295
0.09773902 0.032510404 -0.3265368 -0.5420652 0.16698958 1.8059394 0.65069705 0.4406101
0.20216888 -0.26476014 0.059874907 0.06223316 0.44526476 -0.2885553 0.24236406 -0.16010164
0.10247448 0.110054664 1.6867093 0.2134504 -0.06920464 -0.13960789 0.6257496 -0.32077348
-0.038305413 0.17077605 0.16562437 0.45470855 -0.8664469 0.3008072 0.34851936 -0.04716023
0.17678314 0.27723333 0.30118823 2.0785735 -0.050465606 0.10194849 0.39074263 -0.41894153
0.8293751 0.20257182 -0.26448986 0.016736621 0.06489068 0.069351204 -0.12916954 0.16302285
-0.5871295 -0.19783776 -0.2184626 -0.32711306 0.5997102 -0.191786 0.12155408 -0.42667457
0.8841895 -0.11810971 0.124875 -0.10461769 0.06069897 0.22817865 -1.0702521 -0.8448929
-0.49016935 -0.09895481 -0.38104686 -0.22347651 0.3486397 0.90961474 0.26909587 1.2591668
0.020912237 -0.37161964 -0.076630816 -0.270761 -0.08612945 -0.28217015 0.62828827 0.14738984
0.42217904 0.01262617 -0.15785119 -0.067857206 0.71637887 -0.26418352 0.3291515 -0.46126607
-0.26542267 0.12194223 0.04716619 -0.3620505 -0.1779446 -0.3692819 -0.39801744 -0.11280738

lstm.bias_ih_l1 f4 [256]
00000000: 140b 3abe 010e 913e f82f 9fbd 6727 53be
00000010: 8c7e 82be 58eb 5fbc 8952 c2bd bdc7 89bc
00000020: 14ab d73e a681 d3bc ca5c 0bbd 1de3 983d
00000030: 469a c73c 26a9 77be a4d7 113f e5d8 43be
00000040: cda3 c3be 0f76 993e b044 abbe 9145 56bc
00000050: 3277 b8bd 9126 41be 7d36 3a3e ec39 9f3d
00000060: 108d 09bd 95d6 acbe 4093 b2be 0838 c13d
00000070: 5367 193e 7491 863e d2db 39be c3d4 17be
00000080: 8735 363e ef34 27bd 28e2 91be be9a 47be
00000090: 9249 4fbe 5e81 eebd cc14 70bd 7ace 63be
000000a0: fb83 83bd 3690 11bd 7206 20bd db67 3bbe
000000b0: 93ad 333d 9978 103e f630 243e 4fa2 0dbe
000000c0: ef14 b5be 736a dbbc a465 2b3e 0055 9d3e
000000d0: 56f6 b13e 0063 723e d915 01be 1aea 7bbe
000000e0: 6e74 52bd d9e0 b43c 9977 943d 124b d5bd
000000f0: 7e64 8cbe bc4e cabe 5500 31bd 9c6d 4abe
00000100: 2ff3 b3bd a300 c63d e806 17be 9338 e43e
00000110: 0fb6 ac3c 00af 3b3e c48f d1bd 2800 8c3d
00000120: 3209 a93d 2895 52be 3a7f 673e 6372 723d
00000130: 069b d03e 5360 2bbd 4ef6 d0bd 161f c33d
00000140: 52ea 69be b28b a7be a4da db3c 8a1b 5b3e
00000150: 4410 cc3d d925 cdbd 1923 273f 1e61 163c
00000160: 1359 803e 0d66 833e 2cf4 11be 081b 653e
00000170: 9520 ec3e 7a06 1f3e 5e91 0d3e 7f9a 373f
00000180: 1b22 6c3e f2a0 48bd fec0 323d f03a 463e
00000190: 8c63 a23e 9c77 9dbd bdf1 8a3d d014 8d3e
000001a0: 4f4f f2bd 58bf f43d 0a42 04bd a841 c03e
000001b0: ce6b 86bd 0a60 0a3e 9776 aa3e 0ca8 e9bd
000001c0: ec43 db3e 2ad1 693f 405e 463a c30a 123f
000001d0: f1d5 563e 7715 55be e9f4 eb3c afce 42be
000001e0: 6c87 303e 3f9b bc3d eac0 adbe 80dc 55be
000001f0: 5292 8f3d 01d9 e43d ed88 013e 463c cbbd
00000200: 47c0 d9bd 7471 5f3e d104 80bd b8e3 13bd
00000210: 4845 8bbd 9138 bebd 6b4e 803d 8861 de3d
00000220: dbd9 7d3e cfaf 893a 6f15 8e3c 6f3e 4abd
00000230: cb1b 5e3d f026 733e 4a59 5abd a800 303e
00000240: 1b29 5fbd de46 783e 6e69 7dbe c7bf 4abd
00000250: 722b 62bd 7b22 dc3d cce7 7a3e 4e26 473e
00000260: 05d6 2c3e 9b02 31bd 2305 0c3e dff6 4bbe
00000270: 416b 7d3e 941b 27bc da3e c5bd 36a9 af3e
00000280: 32e8 d3bd 8d02 2a3c baf7 6f3d 9706 6c3e
00000290: 7697 40bd 7f7c 803d 2475 383e 3336 1c3e
000002a0: a70b 03be c1f6 503e 284d be3e b53b 7cbe
000002b0: e565 a3be 9a29 e23d 93b2 6abe 2789 1f3e
000002c0: 8222 123e 4643 813d 163d 213e 8b16 09be
000002d0: aad0 e53e b663 7c3e 8363 e3ba 2cbd 86be
000002e0: 8327 fe3d 3783 46be 08d7 aabd 83ee dabe
000002f0: bb1e e0bd 1f77 1bbc 8f6f 85bd e7e1 86be
00000300: e2ce 983e 006e 113d 271a e3bd 55f3 6b3e
00000310: 26a3 b53e 4118 b1bd c93c 8f3d 0401 013d
00000320: ae24 41be 9e96 943d d70e 313f 3fa8 d8bc
00000330: 448d 0d3f 7c22 86bd f5d7 04bd 0847 ccbe
00000340: c001 55be f8d0 ecbd 0ecd 503e 3b96 c93e
00000350: b90d 25be 18c3 fd3c 6e99 d23c 9e6c 15bd
00000360: 3d0e 9bbe d472 e53d 15d0 babd 7d20 4b3d
00000370: c63e f5be 37f8 debd 6299 dbbb 3051 a73e
00000380: e5b3 20bd 5963 81be 6e17 5e3e 64d0 3cbe
00000390: 6605 31be 028f 083d caa5 7cbd 39c3 cf3e
000003a0: 182c 243e 63d7 1e3f 36ca 493d 51c9 a63e
000003b0: cd90 e9bd 1d3b 70bd ffef 60bc 4e44 e1bd
000003c0: a2c5 023f b66d d73e b32b e53d 9f44 54be
000003d0: 7227 4f3e 30b7 b53d ac6f a1be 4d6a b5ba
000003e0: de48 193e 9d56 11be 9b8e ddbd bc72 d23e
000003f0: 8e5a 66be 6d62 2a3f 4804 53bd b424 ccbd
-0.18168288 0.28330997 -0.07772821 -0.206205 -0.25487173 -0.01366695 -0.094883986 -0.016818875
0.4212271 -0.025818657 -0.034024037 0.074651934 0.024365555 -0.24185619 0.56969666 -0.19125707
-0.38210908 0.29972884 -0.33450842 -0.013078109 -0.0900711 -0.18862368 0.18184848 0.077747196
-0.033581793 -0.33757463 -0.34877968 0.09434515 0.14980821 0.26282847 -0.18150261 -0.14827256
0.17793857 -0.040821966 -0.28492856 -0.19492623 -0.20242909 -0.116457686 -0.058613583 -0.22246733
-0.06421658 -0.03553792 -0.039068647 -0.18301336 0.043866705 0.14108504 0.16034302 -0.13831447
-0.35367534 -0.026784157 0.16737992 0.30728912 0.34758252 0.23670578 -0.1260599 -0.24601021
-0.051380567 0.022079872 0.07249374 -0.10414709 -0.2742042 -0.39513195 -0.043213207 -0.19768375
-0.08786618 0.0966809 -0.14748728 0.44574413 0.021082906 0.18328476 -0.10232499 0.06835967
0.08253707 -0.20564711 0.22607127 0.05919112 0.40743273 -0.04183991 -0.10203229 0.095274135
-0.22843292 -0.32723767 0.026837654 0.21397224 0.0996404 -0.100169845 0.6528793 0.009178428
0.25067958 0.25663796 -0.142533 0.22373593 0.46118608 0.15529814 0.13824984 0.7172012
0.23059885 -0.048981614 0.043641083 0.1935842 0.31716573 -0.07688829 0.06784389 0.2755494
-0.11831533 0.119505584 -0.032289542 0.37550092 -0.06563531 0.13513198 0.33293602 -0.114090055
0.42825258 0.91334784 0.0007567145 0.5704767 0.2098005 -0.2080897 0.028803306 -0.19024156
0.1723916 0.09209298 -0.33936244 -0.20884895 0.0701033 0.11174203 0.1264989 -0.099236056
-0.10632377 0.21820623 -0.06250919 -0.03610584 -0.06800324 -0.09288133 0.06264957 0.10858446
0.24790137 0.0010504666 0.017344205 -0.049375948 0.054225724 0.23745322 -0.05330781 0.1718775
-0.05448256 0.24245784 -0.2474725 -0.0494993 -0.055217214 0.10748764 0.24502486 0.19448206
0.16878517 -0.043215375 0.13673835 -0.19918393 0.24747945 -0.010199446 -0.096311286 0.34308785
-0.10347022 0.010376585 0.05858586 0.23049389 -0.047019444 0.06273746 0.18013436 0.1525505
-0.12797414 0.20406629 0.3716824 -0.24632151 -0.31913677 0.11043091 -0.22919683 0.15579663
0.14270976 0.063116595 0.15745959 -0.13387506 0.4488576 0.24647412 -0.0017348382 -0.26316202
0.1240988 -0.19385992 -0.08341795 -0.42760095 -0.10943361 -0.00948885 -0.06515419 -0.26344225
0.2984534 0.035505295 -0.110889725 0.23042043 0.35476035 -0.08647204 0.06994016 0.03149511
-0.18861648 0.072552904 0.6916327 -0.026447413 0.5529368 -0.06549546 -0.032432515 -0.39897943
-0.20801449 -0.11563295 0.20390722 0.3937243 -0.16118516 0.030976817 0.025707927 -0.03648054
-0.302843 0.11203542 -0.0912172 0.04959153 -0.47899455 -0.10887187 -0.0067016343 0.3267913
-0.03923406 -0.2527111 0.21688625 -0.1843887 -0.17287216 0.033339508 -0.061681546 0.4057863
0.16032445 0.62047404 0.04926511 0.32575467 -0.11404572 -0.058650125 -0.0137290945 -0.10999356
0.51082814 0.4207589 0.111899756 -0.20729302 0.20229891 0.08872831 -0.3153051 -0.0013840884
0.14969203 -0.14193197 -0.108182155 0.4110316 -0.22495481 0.66556436 -0.051517755 -0.09967938

lstm.bias_hh_l1 f4 [256]
00000000: dc18 45be f5d1 5a3e c907 f2bd aa25 83be
00000010: cc14 ccbe de57 54bb 81c1 b3bd 057b 23bd
00000020: 42ce d43e a27f adbd cd7c 023e dc8c 963d
00000030: 0260 633d 9cd3 e7bd b5de 053f e893 60be
00000040: db0c 4abe a45f 4b3e c7af 92be 515a 5abe
00000050: 89bc 34bd f39f ab3c 277d a03e 141c 46bd
00000060: 404c 85bd 1053 aabe 9928 30be f8c4 e73c
00000070: 441e 273e 5c8c 353e 9bec 54be 4a28 88be
00000080: 1ed7 843e 8b23 50be 7a65 a3be a7e4 c8be
00000090: a53a 91be 71d3 aabd 9674 debd fdc1 3dbd
000000a0: bf9b 9abd e9c1 36bc 6215 a93c 9222 debd
000000b0: f8f2 e83d d907 aa3d 5b09 0c3e c794 a4bd
000000c0: abb7 56be b455 d4bd ffc1 13bd 7655 a73e
000000d0: 6fed c83e af68 163e a099 92bd 1fa4 57be
000000e0: ef32 ba3c 6ad0 033e d0ef 723e 5111 623a
000000f0: 0e26 92bd 34d2 cbbe 008c 06be 5d16 8ebe
00000100: fcf6 74be 480a 8b3d d32b c6bd dac4 8e3e
00000110: 3e91 3c3e 4704 5d3e 02d5 d2bd 9dc8 b13c
00000120: da1c bfbd 649e 93bd 7652 c63e 02d4 0db7
00000130: 23aa c63e 313c 51be 7e02 65bd 06db b53d
00000140: a745 d9bd 71a3 c1be e05f 2c3d f86e 5b3e
00000150: 5599 1e3e 3a73 05be 075f 343f f25a 233e
00000160: 3fd2 923e ef0b 4a3e 286a 83be ffd6 533e
00000170: 5916 ef3e a294 86bd 6c55 db3d 9ef0 2d3f
00000180: 8de3 5f3d add0 d93d b35e f1bd 64cd 113e
00000190: 6473 203e 6240 1abd 2655 ab3d 6f82 9b3e
000001a0: fc64 2cbb ef86 093e 1cd7 17be 78a9 6a3e
000001b0: 814c 53be 90e0 0a3e cdf6 f23e 4c23 c3bd
000001c0: c70f 663e d58b 3c3f d850 26be 7fed 0e3f
000001d0: 3c97 473e 2793 8fbe 8d09 ccbd 5a47 9abe
000001e0: 52b5 513e 7e2d 6b3d aa9b 9bbe 61ed bbbd
000001f0: 4ce7 653d be66 a43e 96f2 a63d f033 b4bd
00000200: 7064 f7bd b891 1c3d 15c0 a0bd e7fe e63d
00000210: 2cd4 983d 3310 ce3d 51c9 04be dfc7 ef3d
00000220: e69d 923e c04c 14be 4b36 5dbe 312a 38be
00000230: 6731 3abc d21d 863e 2e15 e6bd 572a ccbc
00000240: 9128 a6bd d8ce a53e 1491 22be 8fb3 8dbd
00000250: a19a 703d ec0a 633d 2c02 a23d fed1 d13d
00000260: d968 1c3e c5db 483d 6cd2 3bb9 0afa b6bd
00000270: c6f0 273e 6143 cebb 0af0 20bd 21f1 c03e
00000280: 9b2b 6ebe c685 b23c 5ba2 5abd b03b 2f3e
00000290: 8251 c13c 22a0 113e 2354 1e3e 7492 e43d
000002a0: 8308 25be 6a54 293e 6c4d e83e 5a4d 2cbe
000002b0: 6664 31be ea21 063e 9f82 a1be b8f9 15bc
000002c0: e7f8 363d bbe1 263d 341a fb3d e127 1cbe
000002d0: 7def ce3e 7e05 463e 472e 233d f88a 4dbe
000002e0: a6dc c03d 32cc a3bd 2ec4 b0bd c1b7 73be
000002f0: 30d1 89bd 801b 3e3e 61f0 553d 519e 47be
00000300: eab5 bf3e 4ba3 b83d 321c e83d 7c41 9b3e
00000310: 9b9a bc3e 12a0 493b 1d1b 833e 8c48 52bd
00000320: 52ed b8bc e230 8e3e d835 063f 4b5e 1cbe
00000330: b62e 193f 89b3 72bd 5f02 c73d dab7 d6be
00000340: 5dbc cfbe c4d1 93bd 419a 483e 9d07 023f
00000350: 047c c5bd 1bd9 47bd 05c8 ddbd d3c1 85bd
00000360: 7a21 97be 09e9 123e c086 8b39 cc5a 9c3d
00000370: 6d11 83be 3d19 9fbd d561 1a3d 02c9 9a3e
00000380: daf7 a9bb 5ae5 b5be 5517 763e b022 72be
00000390: 6ae0 51be 5f20 19be 5e82 c23c 13d1 683e
000003a0: 38a6 823d b2fe 303f c009 293e 2cc9 8f3e
000003b0: 3bb4 5bbe fc51 a9bd 4fa8 82bd 8db5 f7bd
000003c0: 06e4 da3e 8004 b53e 339a aabb 5d6d 91be
000003d0: ae6f e03d e796 863e ce8a a8be e651 74bd
000003e0: 83d0 313e 573f f8bd 548d 813d 8ca6 cb3e
000003f0: 0e5a e2bc 6834 143f 38df b2bd a121 23bc
-0.19247764 0.21369155 -0.11817891 -0.25614673 -0.39859617 -0.0032401006 -0.08777142 -0.039912242
0.41563612 -0.0847161 0.1274292 0.073510855 0.055511482 -0.11319658 0.5229295 -0.21931422
-0.19731466 0.19860703 -0.28649732 -0.21323515 -0.044125114 0.020950293 0.31345484 -0.04836662
-0.06508684 -0.33266497 -0.17202987 0.028292164 0.16320139 0.17729324 -0.20793383 -0.26593238
0.2594537 -0.20326059 -0.31913358 -0.39236948 -0.28365055 -0.083411105 -0.10862081 -0.04632758
-0.075492375 -0.01115463 0.020640079 -0.108464375 0.113744676 0.08302278 0.13675444 -0.080361895
-0.20968501 -0.10367909 -0.03607368 0.3268239 0.39243647 0.14688371 -0.07158208 -0.21058701
0.022729365 0.12872472 0.23724294 0.0008623796 -0.071361646 -0.3980881 -0.13139343 -0.27751437
-0.23922342 0.0678907 -0.096763276 0.2788456 0.1841478 0.21583663 -0.10294534 0.021702105
-0.09331675 -0.07207945 0.38734788 -8.453617e-06 0.3880168 -0.20433117 -0.05591058 0.08879666
-0.10608988 -0.37820008 0.04208362 0.2142905 0.15488179 -0.13032237 0.704575 0.15952662
0.2867603 0.19731115 -0.25666928 0.20687483 0.46696737 -0.06571318 0.10709652 0.6794528
0.05466037 0.10635505 -0.117856406 0.14238507 0.15669018 -0.037659056 0.0836585 0.3037295
-0.0026305309 0.1343038 -0.14828151 0.2291621 -0.20634653 0.13562226 0.4745392 -0.09528217
0.22466956 0.73650867 -0.16241777 0.5583114 0.19491285 -0.28041956 -0.09962759 -0.30132562
0.20479324 0.05741643 -0.303922 -0.09176136 0.056128785 0.32109636 0.08151738 -0.08798969
-0.12079704 0.038224906 -0.07849137 0.112790875 0.074623436 0.100616835 -0.12967421 0.11708044
0.28636092 -0.14482403 -0.21602742 -0.17984845 -0.0113643175 0.26194626 -0.112345085 -0.024922533
-0.08113206 0.32384372 -0.15875655 -0.06919014 0.058741216 0.055430338 0.079105705 0.10245131
0.15274371 0.049037714 -0.00017912098 -0.0893441 0.16400442 -0.0062946533 -0.03929142 0.37683967
-0.23258822 0.021792304 -0.05337749 0.17112613 0.023598436 0.14221242 0.15461783 0.11160746
-0.16116528 0.16536108 0.45371568 -0.16826382 -0.17323455 0.13098875 -0.31544968 -0.009153776
0.044670966 0.040742617 0.12260857 -0.15249588 0.4041709 0.19338033 0.039839055 -0.20072544
0.09417085 -0.079979315 -0.08631168 -0.23800565 -0.067293525 0.18565178 0.052231196 -0.19493987
0.37443477 0.09015521 0.11333503 0.30323398 0.36836705 0.0030765575 0.25606623 -0.051338717
-0.0225741 0.2777167 0.5242591 -0.15270345 0.598369 -0.05925325 0.09717249 -0.41937143
-0.40573397 -0.07217744 0.19590093 0.50792867 -0.09642795 -0.048791032 -0.10829166 -0.0653111
-0.29517728 0.14346708 0.00026612543 0.07634506 -0.25599232 -0.07768486 0.037690956 0.30231482
-0.005187017 -0.35526544 0.24032338 -0.23646045 -0.20495763 -0.14953755 0.023743805 0.22736005
0.0637936 0.69138634 0.16507626 0.2808317 -0.21455471 -0.082675904 -0.063797586 -0.12095175
0.42752093 0.35354996 -0.0052063703 -0.2840375 0.10958801 0.26287004 -0.329184 -0.059648417
0.17364697 -0.12121456 0.06325784 0.39775503 -0.027630832 0.57892466 -0.08733982 -0.009956748
